bc_policy.pt (torch, 23004 bytes, 6 tensors)

net.0.weight f4 [64, 10]
000000 e7 d0 91 3e f6 22 91 3e a4 2f db bc 3b cb 9b 3e
       0.28479692 0.28346986 -0.026756115 0.3042849
000010 96 a9 ad bd 63 40 dd 3d 80 e9 d5 bd 55 ac 65 3e
       -0.084796116 0.108032964 -0.10444927 0.2242902
000020 b9 ba 8e 3e ba 8f 6d be e8 0a 85 3e ef a7 36 3d
       0.27876833 -0.23199359 0.25984883 0.044593748
000030 ef 26 61 3e bc a4 f4 3c 82 fb 1d 3e ce 44 f5 bc
       0.21987508 0.029863708 0.15427974 -0.029940035
000040 b8 65 6c 3e ad d0 04 3d ba 2b 17 be b8 14 a5 3d
       0.23085678 0.03242557 -0.14762774 0.080605924
000050 c8 31 15 be 60 e6 17 bd 65 85 03 be 9a cf 56 3e
       -0.14569771 -0.037084937 -0.12843855 0.20977631
000060 96 9c 7f be 79 48 15 be 28 e0 b6 bd cf b3 42 be
       -0.24962077 -0.14578427 -0.08929473 -0.19013904
000070 c0 80 f4 3c ec e9 9f be 1a a9 86 3e a3 c9 94 be
       0.029846549 -0.31233156 0.2630089 -0.29060087
000080 4a 97 62 3e 21 fb fa 3c f0 f8 b0 bd 40 80 35 3e
       0.22128025 0.030637326 -0.08641231 0.17724705
000090 f9 84 d8 3c 25 73 6e 3e 30 99 0d 3d 1e 3f cc bd
       0.026430594 0.23286112 0.03456992 -0.09972976
0000a0 87 6c fc 3d 55 13 58 bd b2 51 33 3e 57 5b a3 3e
       0.123253874 -0.05275281 0.17511633 0.31905624
0000b0 03 29 39 3e 62 24 b7 bd 52 e9 67 3e 16 0e c4 3d
       0.18082051 -0.08942486 0.22647598 0.09572999
0000c0 1c 72 24 3e 45 5e 45 be 98 9c 7f be f7 75 a1 bd
       0.16059154 -0.19274242 -0.2496208 -0.07883828
0000d0 eb 6b 32 be 95 63 9d 3e bd c8 07 3e 16 bb 3b 3e
       -0.1742398 0.30740038 0.1326017 0.18333086
0000e0 a7 22 2d 3e ad 69 5f 3d 0a 6c 7d 3e 98 13 66 be
       0.1690775 0.05454414 0.24748245 -0.22468412
0000f0 20 1c a3 3c ae 04 5d be 0c b3 c7 3d aa 08 df bd
       0.019910872 -0.21583816 0.09750947 -0.108903244
000100 1c 72 c6 3d dc ed 86 bd 23 49 86 3e 56 ed 3f be
       0.096897334 -0.06588337 0.26227674 -0.1874288
000110 bb 1f 41 be b7 22 41 be 8d 03 a1 3e d5 e8 05 3e
       -0.1885976 -0.18860899 0.31448022 0.130771
000120 5a e3 ad 3e 5e 92 6c be 58 09 94 be 9a 50 82 be
       0.33962518 -0.2310271 -0.2891338 -0.2545212
000130 6e 88 34 be b7 87 2a 3e fc e6 e7 3d a9 88 86 3e
       -0.17630169 0.16653334 0.11323354 0.26276138
000140 39 3a 27 be 02 c0 5c be 72 cf 2b 3e 6d e3 02 be
       -0.16330804 -0.2155762 0.16778353 -0.12782069
000150 4a 88 44 3e 20 af 99 bd 02 3d 39 3e 7b 98 7b be
       0.19192615 -0.075041056 0.18089679 -0.24569885
000160 0f 6a 23 be d0 72 c5 3d d9 a6 a1 3d 47 bf 8f bd
       -0.15958427 0.09641039 0.07893152 -0.07018905
000170 2c 6c 4d 3e c2 56 68 3e f8 5e 5e be b3 94 37 be
       0.20060796 0.22689345 -0.21715915 -0.17927818
000180 9d 75 9a 3e e8 ca c1 bd d6 98 e5 bd 73 a9 9c be
       0.30167857 -0.094625294 -0.11210792 -0.3059803
000190 c4 70 39 be 0c c8 a1 3d 78 f7 2a bd ec 0d 6b be
       -0.18109423 0.07899484 -0.04173991 -0.2295453
0001a0 c0 0f f3 3b 8e 31 5d be dc 5c 89 be 66 50 32 be
       0.007417649 -0.21600935 -0.2682866 -0.17413482
0001b0 52 b4 8d be cf 2f 4e be 65 d8 a1 3e d8 a4 74 3d
       -0.27676636 -0.20135425 0.31610408 0.05972752
0001c0 28 93 c7 3d 77 02 97 be b8 ac 54 be a4 91 d7 bd
       0.09744865 -0.29494068 -0.20769012 -0.105258256
0001d0 e8 8a 4a 3d 83 77 8e be 2c 86 0b be f5 db 41 be
       0.049448878 -0.27825555 -0.13625401 -0.18931563
0001e0 00 ba 65 3a a4 fc f0 bd 60 83 b3 bc 9d 6d 5b be
       0.0008763373 -0.117669374 -0.02191323 -0.21428533
0001f0 3e 44 5e be 62 ea 3c be 02 af dd bd 2f 95 7f be
       -0.2170572 -0.18448785 -0.10824396 -0.24959253
000200 69 c1 87 3e 3c 88 80 bd 3f 4e 8b 3e 94 ca c9 3d
       0.26514748 -0.06275985 0.27208135 0.09853092
000210 8e 1a 89 be ca 17 60 3e 7a 31 b2 bd 52 41 f8 bd
       -0.26778072 0.21884075 -0.08700843 -0.12121834
000220 44 65 86 be 93 f6 a0 be 8c 4b b9 3d c6 78 8d bd
       -0.26249135 -0.3143812 0.090476125 -0.06907801
000230 d3 1d 27 3e 91 0a 60 be 02 b7 90 3e b6 2b 37 be
       0.16319971 -0.21879031 0.28264624 -0.17887768
000240 bf f6 7f bc c1 ad ec 3d 30 bf 5c 3e 07 2c 9a 3e
       -0.015622794 0.115565784 0.21557307 0.30111715
000250 fd 7d 93 3e 84 61 80 be c2 65 8d 3d 47 a2 19 be
       0.2880706 -0.250744 0.069041744 -0.1500331
000260 05 b6 31 bd 2d 4f 7f be 0a 40 99 3e bc 7e 60 be
       -0.043386478 -0.24932547 0.2993167 -0.21923345
000270 ea 75 25 3e 82 79 ce 3d e0 73 d2 3d 10 12 2f be
       0.16158262 0.100817695 0.10276008 -0.17096734
000280 fb b3 a3 3e d8 2d c1 3d fa 64 97 3d 28 5c 81 be
       0.31973252 0.09432572 0.073923066 -0.25265622
000290 49 a9 1f 3e 38 eb 24 bd 90 b7 e2 bd 9e 0d 9c 3e
       0.15591921 -0.040263385 -0.11070168 0.3047914
0002a0 ac 63 90 3d 12 29 33 be 7e 48 35 be 29 6f 09 bd
       0.07050261 -0.17496136 -0.17703435 -0.033553276
0002b0 1a f0 24 3e 0b f3 c8 bd 85 83 2c be 97 9c a9 bd
       0.16107216 -0.09811982 -0.16847046 -0.0828182
0002c0 15 57 80 be 74 ce c4 3d c6 a5 7a 3e 64 6d 98 be
       -0.25066438 0.0960969 0.244773 -0.29770958
0002d0 e0 69 96 3d 04 48 27 3e c8 de 6a 3d 7a a3 e6 bd
       0.07344413 0.16336066 0.057341367 -0.112616494
0002e0 8c 03 29 3e 94 2b 2a 3e 0c 2b f2 3d 40 9b 63 bd
       0.1650526 0.16618186 0.11824617 -0.05556798
0002f0 92 7e ab bd b0 91 0a 3d 16 8a 5c bd 5e 77 bd bd
       -0.08373751 0.033830345 -0.053842627 -0.09251283
000300 61 cd 55 3e 64 4a 8d 3e c8 82 c8 bc ab 67 89 bd
       0.20879127 0.27595818 -0.024476424 -0.06709226
000310 47 5b 3f 3c 72 10 72 bc d8 b2 9b 3d 2c 7d b5 3d
       0.011679477 -0.014774429 0.07602471 0.08861765
000320 fa 0d 93 be 66 00 ef bd 17 59 88 3e 0c 4a fc 3d
       -0.287216 -0.11669998 0.2663047 0.12318811
000330 e0 d8 80 bc 35 3b 43 be f0 1c 46 be 4a 08 91 be
       -0.015728414 -0.19065554 -0.19346976 -0.28326637
000340 c0 1a d3 bd 78 b5 da 3d 0e 79 4e 3e 6c 81 15 3e
       -0.103078365 0.10679144 0.20163366 0.14600152
000350 3f 1e 8f be 45 bb 42 be 40 6a 4c bd 49 9f 9c 3e
       -0.27952763 -0.1901675 -0.049906015 0.30590275
000360 d0 5e 3b 3d e8 b7 a7 bd d6 f7 05 3e 0a ac f6 bd
       0.045744717 -0.08189374 0.13082823 -0.120445326
000370 e8 f1 27 be 44 9d 88 3e cb f9 cb bd 69 a6 bf bc
       -0.16400874 0.26682484 -0.099597536 -0.02339478
000380 6c cd 94 be eb 37 82 3e 5f 40 92 3e bd a5 20 3e
       -0.29062974 0.25433287 0.28564736 0.15688224
000390 16 ca 61 be 48 cb 9f be b0 7f 83 be 7a 78 71 3e
       -0.22049746 -0.3120978 -0.25683355 0.23581114
0003a0 6e 77 1b 3e 2f 3f 88 3e 5a a3 29 3e 44 e9 a3 3d
       0.15182278 0.26610705 0.1656622 0.08003476
0003b0 80 f2 4a bb d4 43 76 be 03 b8 8a be e5 70 97 be
       -0.0030967295 -0.24049312 -0.27093515 -0.2957832
0003c0 2e dd 2f 3e be 68 f3 bd f7 f4 84 bc 75 bb 0e be
       0.17174217 -0.11885212 -0.01623009 -0.13938697
0003d0 76 fa 41 bd df 6d 3b be 22 0b 20 be 00 93 18 3e
       -0.047358 -0.18303631 -0.15629247 0.14899826
0003e0 80 79 c0 bd 06 e8 47 3e 4e c4 cf bd ae 8a 6d be
       -0.09398174 0.19522104 -0.10144864 -0.23197433
0003f0 30 89 64 bd 35 f8 1c be 68 23 c6 bd e4 22 9a be
       -0.055794895 -0.15329058 -0.09674722 -0.30104744

net.0.bias f4 [64]
000000 eb 25 d5 3d b2 b0 9e be 57 5d 8d 3e 7a ed 33 3e
       0.10407623 -0.30994183 0.27610275 0.17571059
000010 20 b8 89 be 98 1f b6 bd b4 3a d3 3d bd 83 bf bc
       -0.2689829 -0.08892745 0.10313931 -0.023378247
000020 60 27 0d bd 89 cc 05 be 55 0c 82 3e 65 03 35 be
       -0.03446138 -0.13066305 0.25400034 -0.17677076
000030 5d 44 86 3e c0 25 a7 3c 10 83 e7 3d ab c1 72 3e
       0.26224032 0.020403743 0.11304295 0.23706691
000040 f9 16 89 bc 0a ef 48 be 40 7d 51 bd 8e f2 85 3e
       -0.016734587 -0.19622436 -0.05114484 0.26161617
000050 ae 44 70 be 18 00 93 3d f9 04 89 be 30 c7 29 3e
       -0.23463699 0.07177752 -0.26761606 0.1657989
000060 50 11 27 3e 40 a3 5b 3c 47 57 ee 3d 85 03 76 3d
       0.16315198 0.013405621 0.116377406 0.06006195
000070 6b d2 64 3e 91 2b 80 be 42 c4 41 bd 0c e2 39 3e
       0.22345893 -0.2503324 -0.047306307 0.18152636
000080 39 3b a1 3e 6f 53 14 3e bb 78 6b be 7e b4 97 3e
       0.31490496 0.14484952 -0.22995274 0.29629892
000090 de 6b 90 bd 78 b4 a3 bd 0a 29 93 be e3 89 39 bd
       -0.07051824 -0.07993406 -0.28742248 -0.045297515
0000a0 6a 0b 65 3e f7 93 cd 3d cf 9b 3c be 79 46 a0 3d
       0.22367635 0.10037988 -0.18418811 0.078259416
0000b0 04 dd e5 bd 57 cd 9d 3e 82 87 8c be 66 92 cc bd
       -0.11223796 0.30820724 -0.27447134 -0.09988861
0000c0 ad 55 9c be 63 da c3 bd 4c 2a cc 3d 09 db 9b 3e
       -0.30534115 -0.09563138 0.09969005 0.30440548
0000d0 97 a0 cd 3d 73 02 b0 3e 1f 95 f0 3d 55 d2 77 3e
       0.10040396 0.3437687 0.117471926 0.24201329
0000e0 c7 cb 81 3e c2 2e 82 3e 1b aa 09 be 6f db 94 3e
       0.25350782 0.25426298 -0.13443796 0.29073665
0000f0 46 28 44 3e ff 68 17 be 7f 79 33 be dc cc 87 be
       0.19155988 -0.14786147 -0.17526816 -0.26523483

net.2.weight f4 [64, 64]
000000 10 95 00 3d 28 80 cf bd 0c 48 58 3d 3c b0 21 3d
       0.031392157 -0.10131866 0.052803084 0.03947471
000010 d2 69 de bd 3c 85 0b 3d a0 90 26 bc 04 e4 69 3d
       -0.108600274 0.03406261 -0.010166317 0.05710222
000020 e0 e3 92 3d 4a 80 fe bd fe c6 ea 3d 3e b1 d6 3d
       0.0717237 -0.12426813 0.11463736 0.10483025
000030 68 b7 4b 3d 5a f9 e9 bd a4 e5 36 bd d4 61 14 bd
       0.049735457 -0.11424513 -0.044652596 -0.03622611
000040 3c 95 03 bd 44 5d 90 3d ec 25 3a 3d 40 cc ca 3d
       -0.032124743 0.07049039 0.04544632 0.09902239
000050 80 c1 3f bd f0 4e 2c 3d c8 2a 36 3d ac 24 d5 bd
       -0.046815395 0.04206747 0.044474393 -0.10407385
000060 38 53 f8 bd ea d5 84 bd 84 3e af 3d 80 03 f1 bd
       -0.12125248 -0.06486113 0.08556846 -0.11768246
000070 c0 d4 de bd 4e 69 8f 3d 92 1e 8a 3d 54 88 d2 3d
       -0.108804226 0.07002507 0.06744112 0.10279909
000080 aa 43 c1 bd c8 5d bb bd 18 53 83 3d 16 a0 de 3d
       -0.09436734 -0.09148747 0.06412333 0.10870378
000090 bc 2c 99 3d 68 69 a0 3c 04 be 28 3d f8 f9 f2 3d
       0.074792355 0.019581512 0.041196838 0.11864084
0000a0 1c 2c a5 bd 3c 74 68 bd 44 10 b3 3d 54 2a af bd
       -0.08065054 -0.056751475 0.08743337 -0.08552995
0000b0 60 29 8d bd b2 e0 ba 3d 1c 8c 21 3d 70 69 25 3d
       -0.06892657 0.091248885 0.03944026 0.040383756
0000c0 9c 01 59 bd 80 1b e2 ba b2 4c ea 3d 06 a8 99 bd
       -0.05298005 -0.0017250627 0.1144041 -0.07502751
0000d0 80 d0 80 3a c8 81 73 3d 30 bb b0 bd 0c 9f f8 3d
       0.0009827763 0.05944994 -0.08629453 0.12139711
0000e0 f4 cc 7f bd 38 e6 f5 bc 30 88 0a bd 1e d3 a6 bd
       -0.062451318 -0.030017003 -0.033821285 -0.08145736
0000f0 28 34 fb bd 94 58 90 3d 70 06 08 3d 12 c5 ef bd
       -0.122658074 0.07048145 0.033209264 -0.1170751
000100 46 2d c2 bd 74 49 e0 3d 50 b4 43 3d 3d df 13 3d
       -0.094812915 0.1095151 0.04777938 0.03610157
000110 24 c0 b7 bd 50 f2 90 bd b8 93 9a bc 3a a0 14 bd
       -0.08972195 -0.070774674 -0.018869266 -0.036285616
000120 70 6c af bd 56 2f 3a ba f0 8b 4b 3c f0 a8 81 bc
       -0.08565605 -0.00071023905 0.0124235 -0.015827626
000130 80 f5 8d 3c 78 ee 4a bd 92 3f 99 3c 14 dd 09 3d
       0.017328978 -0.049543828 0.01870707 0.033658102
000140 43 55 a3 bd 83 df 0c be cc ff 85 3d d9 e6 6b 3c
       -0.07975247 -0.13757138 0.0654293 0.0143983
000150 d2 32 82 bd 2c b5 f6 3d 9a 72 90 bd be fd ac 3d
       -0.063573495 0.120462745 -0.070531085 0.08446835
000160 9e 78 4b 3d ea a1 d6 bd a4 19 8d 3d b8 c0 04 be
       0.049675576 -0.104801014 0.06889656 -0.12964141
000170 10 74 aa bd 50 b7 aa bc 6e 8a c6 bd d1 dd dc 3d
       -0.083229184 -0.020839363 -0.09694372 0.107844956
000180 c0 64 cd bc f6 e0 13 3d e0 95 e4 bd fe 60 67 3d
       -0.025072455 0.03610321 -0.11161399 0.056488983
000190 0c 1f 1f bd 5b 34 df bd 78 bb 95 3c ec ea 3b 3d
       -0.038847968 -0.10898658 0.018277869 0.045878336
0001a0 aa 8a dd 3d cb 02 ba bd 18 f5 7b bd 09 3f 1d 3c
       0.10817464 -0.09082564 -0.061513036 0.009597548
0001b0 6a 74 a0 3c c3 05 0b 3d 16 83 8c 3d 20 32 e8 bc
       0.01958676 0.03394104 0.0686094 -0.028344214
0001c0 d0 39 8e 3d e7 ef 9f 3d d4 be 05 bd 10 22 b6 3d
       0.069446206 0.078094296 -0.03265269 0.08893216
0001d0 50 cf 3d 3d f8 01 c2 3d 6c af ae bd 99 07 9c bd
       0.046340287 0.09473032 -0.08529553 -0.07618637
0001e0 04 0a 14 bd 80 0c 02 bc 24 c1 71 3d 0e 24 92 bd
       -0.036142364 -0.007937551 0.059022084 -0.07135783
0001f0 dc 2a 80 3d c4 7d 37 bd fd 00 7e 3d 80 77 c2 bb
       0.06258175 -0.044797674 0.06201266 -0.0059346557
000200 76 13 07 be 32 09 b8 bd d0 47 b9 bd d7 ab 23 3d
       -0.13191018 -0.08986129 -0.090469 0.0399588
000210 f3 d8 da bd a7 01 0c bd 18 ef dc 3c ca 08 bb bd
       -0.10685911 -0.034181263 0.026969478 -0.09132536
000220 58 b2 13 3d dc 11 0b be 90 2b b7 bd b4 f7 e7 bd
       0.036058754 -0.13581032 -0.08943856 -0.113265425
000230 50 de 1a bd 30 85 3a bd 81 6c 94 bb f4 b6 37 bd
       -0.03780967 -0.045537174 -0.0045295362 -0.044852212
000240 b1 b6 14 3d fe ec be 3d 78 b3 37 3d af e4 90 bd
       0.03630704 0.093225464 0.04484889 -0.07074868
000250 f8 b6 ef bd 88 72 39 3d 55 05 ae bd b8 45 82 3d
       -0.117048204 0.04527524 -0.08497111 0.06360954
000260 38 1b 77 3d 28 7d 45 3d f8 a5 cc 3d 35 bc c5 3d
       0.060328692 0.04821506 0.099925935 0.09655038
000270 f2 0b 80 3b f0 87 ba bd 76 af b8 3d 78 92 a7 bd
       0.003907674 -0.09107959 0.090178415 -0.081822336
000280 54 d8 71 bd 8d c6 a9 3d f8 59 c6 3d 99 e7 4f 3c
       -0.059044197 0.08289824 0.09685129 0.0126894945
000290 60 60 00 3c 30 10 02 be 40 97 54 bc 05 c1 cb 3d
       0.007835478 -0.12701488 -0.012975514 0.09948925
0002a0 a4 62 02 3d 6d 93 46 bc 78 a2 d4 bc 86 22 7f bd
       0.031832352 -0.01212011 -0.025956377 -0.062288783
0002b0 de 26 57 3d c6 0f 6c bc 08 8c a6 3d 20 3f b5 bc
       0.0525273 -0.014408058 0.081321776 -0.022124827
0002c0 90 b2 5f 3d c2 5b f0 3c 90 4a a3 3c 0e dd a0 3d
       0.05461365 0.029340629 0.019933015 0.07854663
0002d0 bf 3d 63 3d 7d 3b bd 3d a3 df 96 3d d8 8b 5e bd
       0.055478808 0.09239862 0.07366874 -0.054332584
0002e0 1a bc d8 bd 61 b6 7a 3a 04 b9 cc bc e8 8a 05 bd
       -0.105827525 0.000956392 -0.024990566 -0.032603174
0002f0 40 79 ab bc 80 a5 c0 3b e6 d8 8e 3d 8c 9c 1f 3d
       -0.02093184 0.005879104 0.06974964 0.038967654
000300 af 67 4e bd 56 23 6b bd 10 93 fd bc 98 7c 5e bd
       -0.05039185 -0.057406746 -0.030953914 -0.05431804
000310 c0 e7 d9 3d d6 96 87 3d 6a 29 e7 3d 2d b0 b7 bb
       0.10639906 0.066205665 0.11287196 -0.0056057186
000320 d0 82 ce 3c 24 8b 31 3d 4e 51 f2 bd 20 e1 36 3c
       0.02520886 0.043345585 -0.11831914 0.011162072
000330 a0 fd 08 bc 06 87 8f bd e7 f0 d2 bd 29 55 d6 3d
       -0.00836125 -0.070081756 -0.10299855 0.10465462
000340 a9 d8 c3 3d 62 b3 54 3d b6 49 f4 3d 0c c6 4f bd
       0.09562809 0.051928885 0.11928122 -0.05072598
000350 38 de b0 bc 4c da 41 3d ff 61 da bc c8 f1 c8 bc
       -0.021590337 0.047327325 -0.026658056 -0.024529353
000360 b7 e5 df bd f8 8d 09 3d 30 b5 9a bd 8e 28 bf ba
       -0.109324865 0.033582658 -0.0755409 -0.001458423
000370 93 4b ed 3d f8 99 1d bd e9 f8 39 bd 41 26 8e 3d
       0.1158668 -0.038476914 -0.045403395 0.0694089
000380 0c 3d 3c bd 91 21 89 bc 7c 09 ef 3d 14 e8 51 bd
       -0.045956656 -0.016739639 0.11671731 -0.051246718
000390 20 25 b7 bd 2b 91 9b bd 24 f3 0d bd ec c3 85 bd
       -0.08942628 -0.07596048 -0.034655705 -0.0653151
0003a0 b6 d8 84 bd 66 39 36 3d 28 04 ae 3c 5c 72 3c bd
       -0.06486647 0.044488333 0.021242216 -0.0460075
0003b0 15 30 d3 bd 36 ce 39 bd 84 15 58 bd 50 9d 26 bd
       -0.10311905 -0.045362674 -0.052754894 -0.04067737
0003c0 88 f1 e6 bd 96 67 ab 3c d8 16 bc bd 62 5f c7 bd
       -0.11276537 0.020923417 -0.091840446 -0.0973499
0003d0 02 75 dd bd b1 1e 3d 3d d4 6a a6 bd d3 eb 6b bd
       -0.10813333 0.046171848 -0.081258446 -0.057597946
0003e0 c8 a9 c8 3d e7 41 77 3d c4 c9 92 3d dc 12 f3 bd
       0.09798008 0.060365584 0.0716739 -0.118688315
0003f0 da 93 b7 bd 20 49 41 bd e7 2e c7 3d e0 82 51 3c
       -0.08963747 -0.047188878 0.09725743 0.012787551

net.2.bias f4 [64]
000000 ac 54 9c bd d9 80 68 3d 76 0e 6d bd 7b 21 20 3d
       -0.076333374 0.056763504 -0.05787512 0.03909443
000010 fa e0 ba 3d 1d c7 aa 3b c0 cc 2f 3d e0 56 d8 3d
       0.09124942 0.0052117244 0.042919874 0.10563445
000020 a1 7c 83 bd 7e 44 bc 3d 78 4d d7 bd 6e 55 15 3e
       -0.064202555 0.09192751 -0.10512823 0.1458337
000030 90 26 81 bd 73 28 38 bc e6 9c 8f 3d 0a 76 68 bc
       -0.06306183 -0.011240113 0.07012348 -0.014188299
000040 a9 7d b7 3d 6c 08 61 bd 2c 19 a4 bd 3c 88 e4 3d
       0.08959515 -0.054939672 -0.08012614 0.11158797
000050 fa 84 9a bd 9a 5b 06 3e 4e 53 2a 3e 46 68 8e 3d
       -0.075448945 0.1312088 0.1663334 0.06953482
000060 31 95 71 bd 80 31 f2 ba 12 b5 e6 bd 40 4d b3 bd
       -0.05898017 -0.0018477887 -0.11265005 -0.08754969
000070 ee 6d 47 bd 2e 1f d0 bd 94 b0 93 3d a6 7c cc 3d
       -0.04868882 -0.10162197 0.07211414 0.09984712
000080 b2 e9 41 bd 1a f0 33 bd 34 49 f7 3d d0 83 8c bc
       -0.04734201 -0.04393015 0.12074509 -0.017152697
000090 14 bb 15 3e 0b 29 1e 3e 04 99 33 bd 8f c1 14 be
       0.14622146 0.15445344 -0.0438471 -0.14526962
0000a0 fe 02 e1 3d b6 fa fc bc eb d2 25 3e 8f ba af bd
       0.10986899 -0.030881267 0.1619374 -0.08580505
0000b0 d0 b9 b9 3c ab 6c a6 3d 90 e3 f1 bc e8 a1 c7 3d
       0.02267161 0.081261955 -0.029527456 0.09747678
0000c0 25 ae bb bd 5c c1 54 bd e0 30 a1 bc f2 10 c4 3d
       -0.09164075 -0.051942214 -0.019676626 0.095735446
0000d0 f0 21 6d 3d 75 3d 8e 3d d1 b4 f7 3c 35 89 6c 3e
       0.057893693 0.06945316 0.030237587 0.23099215
0000e0 da 74 f6 bc eb 29 40 3b 2b 91 b8 bc 14 6a 49 3d
       -0.030085016 0.002932186 -0.022530159 0.04917343
0000f0 f4 24 16 bd 01 90 a1 3d 1c 91 89 3d d8 d7 79 3d
       -0.036656335 0.07888795 0.067171305 0.06099686

net.4.weight f4 [3, 64]
000000 e0 92 d0 3d ec 2b f2 3b 7a 5b 83 3d c4 56 27 bd
       0.10184264 0.00739049 0.06413932 -0.04085423
000010 a4 0c e6 bd e5 26 86 3d cc 57 54 3d 20 0f d7 3d
       -0.1123288 0.06550387 0.051841542 0.10500932
000020 bd 4c e4 3c c0 b7 23 3b 22 c8 b8 bd b8 23 1e be
       0.027868623 0.002498135 -0.09022547 -0.15443313
000030 6c 1e e8 3b 1f 50 c5 3d c0 35 1f bc 3e 34 72 bd
       0.0070837047 0.096344225 -0.009717405 -0.059131853
000040 29 af 30 3d d0 e1 77 bd f6 e7 0d 3d 28 bd cf bd
       0.043135796 -0.060518086 0.034645043 -0.101435006
000050 56 01 e8 bd 91 6d d7 bd 8c d7 59 bd 42 6d f3 3c
       -0.1132838 -0.10518945 -0.053184077 0.029715184
000060 68 79 5b 3d fc 08 a2 bd b8 4e d2 bc fe 58 c9 3c
       0.05358258 -0.0791187 -0.025672302 0.024578568
000070 12 84 3a bd f2 7c 58 bc 64 bc a5 3d 80 b7 91 bd
       -0.04553611 -0.013213383 0.08092573 -0.07115078
000080 dc f9 5f 3d 88 ba a8 3d b4 ae 2a 3d c3 38 f8 bc
       0.054681644 0.08238703 0.041670516 -0.030300504
000090 57 e5 01 be 36 a2 0f be a8 f6 c6 bc da ad 98 3c
       -0.12685142 -0.14026722 -0.024287537 0.018637586
0000a0 ab df 7e 3d 72 b2 63 bd 12 1d 36 3d e9 62 63 bd
       0.062225025 -0.0555901 0.044461317 -0.05551425
0000b0 d8 32 cc 3c 22 dc f6 bd 5c 94 09 3d f8 7c da 3d
       0.024926588 -0.12053706 0.033588752 0.10668367
0000c0 b4 d5 64 3c c0 38 09 3c 48 6e 3c bd 3e 09 d2 bd
       0.013966966 0.008375347 -0.04600361 -0.10255669
0000d0 ec 2e af bd ab 08 ee bd f4 58 8d 3d 9f f0 2a be
       -0.085538715 -0.11622747 0.06901732 -0.16693352
0000e0 94 46 34 bd c8 74 17 be a0 ba 24 bd a2 be d9 3d
       -0.04401262 -0.14790642 -0.040217042 0.106320634
0000f0 38 43 bc 3c f1 e8 7a bd 04 78 03 3d 7f 34 87 3d
       0.022981271 -0.061257306 0.032096878 0.0660181
000100 f2 35 c7 3d c6 12 d7 bd b8 df 25 bc 1a 84 de bd
       0.09727086 -0.105016276 -0.0101241395 -0.1086504
000110 58 81 b0 bd 07 30 ae 3d ca f5 cb bd f0 17 7b bd
       -0.0861842 0.08505254 -0.0995899 -0.061302125
000120 30 b3 22 3d c8 14 f9 3d ba ae f8 bd f1 29 eb bd
       0.039721668 0.12162167 -0.121427014 -0.11482609
000130 6e 6a 89 bd c9 ca ba 3d 7e 30 95 3d 65 63 72 3d
       -0.06709753 0.091207094 0.0728464 0.05917682
000140 5d 8e 77 3d 7c 22 00 bd f5 4d a9 3d c0 32 66 bb
       0.060438503 -0.031282887 0.08266822 -0.0035125464
000150 c0 6a 40 3c 0e 58 83 bd a9 e4 b8 3c d0 d3 31 3d
       0.011744201 -0.064132795 0.022569971 0.04341489
000160 de f1 bb bc ea 5d e1 3d d8 99 04 bd 99 6a 70 3c
       -0.02294248 0.11004241 -0.03237328 0.014673852
000170 ff 3d c3 3d 42 28 61 3d c0 70 3a bd 19 4c b8 bd
       0.09533309 0.054970033 -0.045517683 -0.089988895
000180 32 d6 6b 3c e1 69 a7 bc d0 22 10 3c 6e 60 94 3d
       0.01439433 -0.02043623 0.008797362 0.07244955
000190 2b 24 8c ba 4b e6 fb bd e0 03 d1 bd 6e 78 c7 3d
       -0.0010691931 -0.12299784 -0.10205817 0.09739767
0001a0 dd 08 a3 bc e2 3d c2 bd 20 db 13 be 61 88 e9 3d
       -0.019901687 -0.094844595 -0.14439058 0.11402965
0001b0 d6 2d 81 3d f3 06 07 be 42 19 dd bd 8a 64 de 3d
       0.06307571 -0.13186245 -0.10795833 0.1085902
0001c0 90 b3 d1 3c 50 6a 96 bc 0e c2 d4 bd c6 29 9b 3d
       0.025598317 -0.01836124 -0.103885755 0.07576327
0001d0 36 c7 ad bd 6b 95 56 3d 54 da 0d be fc 2a 5f be
       -0.08485262 0.05238859 -0.13852817 -0.21793741
0001e0 53 04 14 be 12 30 a2 3d 9a a7 dd 3d cc 70 da bd
       -0.14454775 0.07919325 0.10822983 -0.106660455
0001f0 94 e5 c5 3d c3 d8 e6 bd b4 6c 17 be 6b 00 01 3d
       0.09662929 -0.11271813 -0.1478756 0.03149454
000200 e2 1d 91 3d 83 35 6e 3d 88 6c 15 3b 60 63 e9 3d
       0.07085778 0.0581565 0.0022800285 0.113959074
000210 66 88 dc bd c9 f4 3e 3d bc 3e 22 bd 60 4b ca 3b
       -0.107682034 0.046620164 -0.03961061 0.006173536
000220 60 bc 85 3d a4 52 b7 bd f8 5f 60 3d f3 4b 85 bd
       0.0653007 -0.08951309 0.054779023 -0.06508627
000230 2e e5 7e 3d 0f f0 11 bc b0 05 7e 3d eb 48 ce 3d
       0.06223028 -0.008907332 0.062017143 0.10072502
000240 5a f9 84 bd 04 2c fc bd be e5 dd 3d 72 f1 8c bd
       -0.064928725 -0.12313083 0.108348355 -0.068819895
000250 98 03 ea 3c ad 4e 2a 3d 2b 00 64 bd 8d 3a ae 3d
       0.028566167 0.041578937 -0.055664223 0.085072614
000260 59 f0 91 3d 00 29 ce bc 7c 3d 06 3d 20 52 ff bb
       0.07125921 -0.025166035 0.03277348 -0.0077917725
000270 78 30 d4 3d 89 26 91 3d b6 81 aa bd 63 fa df bc
       0.10360807 0.07087428 -0.08325522 -0.027341073
000280 46 bd 6b 3d 27 91 9a 3d 30 d0 2e 3d a8 56 38 3d
       0.057553552 0.07547217 0.04267901 0.045004517
000290 11 e9 9d bd 1b c5 81 bd c4 2d b1 bd 01 72 a6 3d
       -0.077104695 -0.06336423 -0.08651307 0.08127213
0002a0 e6 02 bd 3d 64 54 fe bd c6 6d 2f be af 53 bb 3d
       0.092290685 -0.1241844 -0.17131719 0.09146821
0002b0 48 e5 e2 bd fe 02 7e 3c ac 5a f9 bd 7c e1 82 bd
       -0.11078888 0.015503643 -0.121754974 -0.06390664
0002c0 ee 10 b6 bd 12 97 f0 3d b8 46 ad bc 7e d2 dc 3d
       -0.08889948 0.117475644 -0.021151885 0.10782336
0002d0 f4 c1 14 3d 78 66 e5 3d 23 fc 7e 3d f0 27 2b bd
       0.03631778 0.11201185 0.062252175 -0.041786134
0002e0 03 76 a4 3d 4f 8a 9e bd d6 bd 22 bd 88 f8 24 3d
       0.080303214 -0.07741224 -0.039731823 0.04027608
0002f0 6e 85 e1 3d 76 c7 b7 bd 52 83 0a be 43 de 09 be
       0.11011778 -0.08973591 -0.13526657 -0.13463692

net.4.bias f4 [3]
000000 ec e7 b0 bd 06 b6 02 bc 8c ff 3b bd
       -0.086379856 -0.007977968 -0.045898005
