bc_policy.pt (torch, 288045 bytes, 6 tensors)

mlp_extractor.policy_net.0.weight f4 [256, 13]
0	0x3e592248	0.21204484
1	0x3e6bba46	0.23020276
2	0xbd8511e0	-0.0649755
3	0x3e82721f	0.25477692
4	0xbd78e848	-0.060768396
5	0x3d653d50	0.055966675
6	0xbe0a451e	-0.13502929
7	0x3e26cac6	0.1628829
8	0x3e7a5d2a	0.24449602
9	0xbe505aec	-0.20347184
10	0x3e76db7e	0.24107167
11	0x3d549e28	0.051908642
12	0x3e51d396	0.2049087
13	0x3d091548	0.03346756
14	0x3e08f1ce	0.13373491
15	0xbd2ac610	-0.041692793
16	0x3e5aefc4	0.21380526
17	0x3d8054ae	0.06266151
18	0xbe17ec12	-0.14836147
19	0x3d872272	0.06598367
20	0xbe058c6f	-0.13041852
21	0xbd10ad85	-0.03532173
22	0xbdecbf8a	-0.11559971
23	0x3e390518	0.1806835
24	0xbe6101c1	-0.21973325
25	0xbe0470d3	-0.12933664
26	0xbd97b6d5	-0.07407919
27	0xbe2ac3ea	-0.16676298
28	0x3d057c57	0.032589283
29	0xbe8c40ef	-0.2739329
30	0x3e807d0f	0.25095412
31	0xbe568a99	-0.20951308
32	0x3e757e92	0.23974064
33	0x3d511a5e	0.051050536
34	0xbda960ae	-0.08270393
35	0x3e374423	0.17897086
36	0x3d51c42c	0.051212475
37	0x3e5d1dff	0.21593474
38	0x3d1f9fa3	0.0389706
39	0xbdc189a2	-0.094500795
40	0x3d989da8	0.074519455
41	0xbda5f920	-0.081041574
42	0x3def0d74	0.11672488
43	0x3e86b73b	0.2631167
44	0x3e22aa7b	0.15885346
45	0xbdfd53d4	-0.123695046
46	0x3e1c9161	0.15289833
47	0x3d3fc0ff	0.046814915
48	0x3e0c9e18	0.13732183
49	0xbe3105ff	-0.17287444
50	0xbe91295a	-0.2835186
51	0xbdf79d3f	-0.12090539
52	0xbe5a0e95	-0.21294625
53	0x3e6909d2	0.22757652
54	0x3da4545d	0.080239035
55	0x3deb4758	0.11488217
56	0x3d8e052f	0.069345824
57	0x3c1c960b	0.009557257
58	0x3e5c55fb	0.21517174
59	0xbe4b16c7	-0.19832908
60	0x3c6391dd	0.013889757
61	0xbe44cf73	-0.1921976
62	0x3dabbbf1	0.08385456
63	0xbdd63203	-0.10458758
64	0x3db05812	0.08610548
65	0xbd5f379b	-0.05449639
66	0x3e6b8d7a	0.23003188
67	0xbe240fbe	-0.1602163
68	0xbe296183	-0.16541104
69	0xbe322eab	-0.17400615
70	0x3e893bfa	0.2680357
71	0x3e1f20d1	0.15539862
72	0x3e8c2950	0.2737527
73	0xbe61c489	-0.22047628
74	0xbe889323	-0.26674756
75	0xbe550f2a	-0.20806566
76	0xbe4a87a9	-0.19778313
77	0x3df5429c	0.11975595
78	0x3dc0bbb3	0.09410801
79	0x3e6bfcea	0.23045698
80	0xbe1950ee	-0.14972278
81	0xbe419c4f	-0.18907283
82	0x3df5e492	0.12006487
83	0xbdb5b811	-0.088729985
84	0x3e225d6d	0.15855952
85	0xbd97313c	-0.073824376
86	0x3e195fa0	0.14977884
87	0xbe658a3e	-0.22416016
88	0xbe17b635	-0.148156
89	0x3d9a25d1	0.07526744
90	0x3d4ca648	0.049963266
91	0xbd90d3af	-0.070716254
92	0x3e2949a0	0.16531992
93	0x3e4110a2	0.18854001
94	0xbe4df436	-0.2011269
95	0xbe179cef	-0.14805959
96	0x3e820293	0.2539259
97	0xbdbfce20	-0.09365487
98	0xbdcb1757	-0.09916561
99	0xbe89b54d	-0.26896134
100	0xbe23470e	-0.15945074
101	0x3d8c8a60	0.068623304
102	0xbd1617ab	-0.036643665
103	0xbe4e30f1	-0.20135857
104	0x3b2f3e33	0.0026739954
105	0xbe41ffe5	-0.18945272
106	0xbe754c16	-0.23954806
107	0xbe1c644b	-0.15272634
108	0xbe63027e	-0.2216892
109	0xbe4eaa39	-0.20182122
110	0x3e805226	0.25062674
111	0x3d424dd5	0.047437508
112	0x3da426ca	0.08015211
113	0xbe872196	-0.26392812
114	0xbe40b24c	-0.18818015
115	0xbdc560f5	-0.09637634
116	0x3d1ae250	0.037813485
117	0xbe79e744	-0.24404627
118	0xbdf4bdd2	-0.11950268
119	0xbe2a0698	-0.16604078
120	0x3a497c00	0.0007686019
121	0xbdd35c06	-0.103202865
122	0xbc9d7190	-0.01921919
123	0xbe407384	-0.18794066
124	0xbe42f0d1	-0.19037177
125	0xbe25b09e	-0.16180655
126	0xbdc26dec	-0.09493622
127	0xbe602931	-0.21890713
128	0x3e6e2182	0.2325497
129	0xbd6175d8	-0.055044025
130	0x3e6e00e4	0.23242527
131	0x3db0fb90	0.08641732
132	0xbe75cbfd	-0.24003597
133	0x3e448ae0	0.19193602
134	0xbda38564	-0.079844266
135	0xbdf077b4	-0.117415816
136	0xbe735dac	-0.23766202
137	0xbe903122	-0.28162485
138	0x3d94cd5b	0.07265731
139	0xbd89cbc2	-0.06728317
140	0x3dcf6601	0.101268776
141	0xbe6d34d1	-0.23164679
142	0x3e4e86d7	0.20168625
143	0xbe4963aa	-0.19666925
144	0xbd442954	-0.047890976
145	0x3d8564aa	0.06513341
146	0x3e129e6e	0.14318249
147	0x3e0e487a	0.13894835
148	0x3e8145f5	0.25248685
149	0xbe77dcb4	-0.24205285
150	0x3da3d822	0.080002084
151	0xbde52630	-0.11188924
152	0xbcb5c53d	-0.022188777
153	0xbe4ae47a	-0.1981372
154	0x3e86d0d0	0.26331186
155	0xbe4932e3	-0.19648318
156	0x3e17f4da	0.14839497
157	0x3dc79f4c	0.0974718
158	0x3db9722a	0.09054978
159	0xbe198c0a	-0.14994827
160	0x3e853f0e	0.2602467
161	0x3d29a0f0	0.041413248
162	0x3d2dbea4	0.042418137
163	0xbe668507	-0.22511683
164	0x3df0ab9a	0.117514804
165	0xbd25ef31	-0.040511314
166	0xbe00fb4b	-0.1259586
167	0x3e7d9293	0.24762945
168	0x3d92d8be	0.071702465
169	0xbe1da755	-0.15395863
170	0xbe0fbf2b	-0.14037769
171	0xbc880339	-0.0166031
172	0x3e1e9408	0.15486157
173	0xbdac854e	-0.08423863
174	0xbe0ee411	-0.13954188
175	0xbdc67bc6	-0.09691577
176	0xbe588dd1	-0.21147849
177	0x3dc69c1a	0.09697743
178	0x3e59e3eb	0.2127835
179	0xbe869cdd	-0.26291552
180	0x3d6e20a7	0.05813661
181	0x3e098908	0.1343118
182	0x3d523703	0.051321995
183	0xbdca488e	-0.0987712
184	0x3e0e331f	0.13886689
185	0x3e153fc8	0.14575112
186	0x3e19591a	0.14975396
187	0xbdd57bd1	-0.10424007
188	0xbdafdd1c	-0.08587095
189	0x3cc3b203	0.023888594
190	0xbd5fd606	-0.054647468
191	0xbdb5d60d	-0.088787176
192	0x3e2e6141	0.17029287
193	0x3e7add97	0.24498592
194	0xbd0613c1	-0.032733683
195	0xbd6a8317	-0.057253923
196	0x3b849e40	0.004047185
197	0xbc5f2bbc	-0.013621267
198	0x3d888e88	0.06667811
199	0x3d9418bb	0.072312795
200	0xbe7f7ca9	-0.24949898
201	0xbdcba3ac	-0.09943327
202	0x3e72c162	0.23706582
203	0x3de2cb55	0.11073939
204	0xbc349ffa	-0.0110244695
205	0xbe284629	-0.16433014
206	0xbe2884c5	-0.16456898
207	0xbe7a0c7f	-0.2441883
208	0xbdb8f54a	-0.0903116
209	0x3dbfd204	0.09366229
210	0x3e35308e	0.17694303
211	0x3e032002	0.12805179
212	0xbe7a936d	-0.24470301
213	0xbe29e79e	-0.16592261
214	0xbd2d16e8	-0.042258173
215	0x3e8c6261	0.27418807
216	0x3d3f22cc	0.046664044
217	0xbd85b80c	-0.06529245
218	0x3df856f0	0.12125957
219	0xbdd6aade	-0.10481809
220	0xbe378ee6	-0.17925605
221	0x3e4f4a9d	0.20243306
222	0xbe012365	-0.12611158
223	0xbd63be55	-0.055601437
224	0xbe8d43f4	-0.27590907
225	0x3e3e14a6	0.18562564
226	0x3e57290e	0.21011755
227	0x3dcef542	0.10105373
228	0xbe465d6c	-0.19371575
229	0xbe8c446f	-0.2739596
230	0xbe66e8f2	-0.22549799
231	0x3e5385a9	0.20656456
232	0x3e085395	0.13313134
233	0x3e6efabc	0.23337835
234	0x3e14c89c	0.14529651
235	0x3d8fc278	0.07019514
236	0xbb31e4f6	-0.0027144528
237	0xbe57fd18	-0.21092641
238	0xbe734d7b	-0.23760025
239	0xbe84d5ae	-0.25944275
240	0x3de884fd	0.113534905
241	0xbe0b2d4c	-0.13591498
242	0xbd63df97	-0.055633154
243	0xbe2344a2	-0.1594415
244	0xbd4e5cb6	-0.050381385
245	0xbe47e4c8	-0.19520867
246	0xbe39904d	-0.18121453
247	0x3dbc6ce3	0.09200456
248	0xbda8cfb8	-0.08242744
249	0x3e2f561a	0.17122689
250	0xbdb6393a	-0.08897634
251	0xbe505cc1	-0.20347883
252	0xbd495b5d	-0.049159396
253	0xbe09af59	-0.13445796
254	0xbdac418e	-0.08410941
255	0xbe86fa46	-0.26362818

mlp_extractor.policy_net.0.bias f4 [256]
0	0x3e8bdc0d	0.27316323
1	0xbe8301e1	-0.2558737
2	0x3e87ebed	0.26547185
3	0xbe654bb2	-0.22392157
4	0xbd8a98a8	-0.06767398
5	0xbdd9938b	-0.10623845
6	0xbe209efd	-0.15685649
7	0x3dc9e10f	0.0985738
8	0x3e1f35e3	0.155479
9	0xbe3a907a	-0.18219176
10	0xbe0a7ae4	-0.13523442
11	0x3e18b396	0.14912257
12	0xbcfebc65	-0.031095693
13	0x3d834991	0.06410516
14	0x3e0e7445	0.13911541
15	0xbdcbccdb	-0.099511825
16	0xbe1cf837	-0.15329061
17	0x3dd10ea5	0.10207871
18	0xbdcffb81	-0.101553924
19	0xbe3d00a7	-0.1845728
20	0xbe19be5d	-0.15014024
21	0xbe03f8cb	-0.12887876
22	0x3e8d652f	0.2761626
23	0x3d5610ec	0.05226223
24	0x3df3090e	0.118669614
25	0x3d1898b0	0.03725499
26	0xbe40ed46	-0.18840513
27	0x3e50856f	0.20363401
28	0xbd48d690	-0.049032748
29	0xbd813de3	-0.06310632
30	0x3e771bdc	0.24131721
31	0xbe0d61f7	-0.13806902
32	0x3d5db6fd	0.05412959
33	0xbe704682	-0.23464397
34	0x3e11880c	0.14212054
35	0x3df3ad4f	0.1189829
36	0xbe73972d	-0.23788138
37	0x3e1e83ba	0.15479937
38	0x3cc3dd57	0.023909254
39	0xbe12a6a8	-0.14321387
40	0x3e6f5994	0.23374015
41	0x3df7501e	0.12075828
42	0x3da77350	0.08176291
43	0xbdd2f97e	-0.10301493
44	0xbe1bc857	-0.15213142
45	0xbe18d115	-0.14923508
46	0x3ddd1fca	0.10797079
47	0x3da23b5b	0.079214774
48	0xbe26a35a	-0.16273251
49	0x3e81073b	0.2520083
50	0x3e2231e8	0.1583935
51	0xbdd89d2e	-0.10576855
52	0x3e157fcb	0.1459953
53	0xbdf0c79e	-0.11756824
54	0x3d97de32	0.07415427
55	0x3e6da627	0.23207913
56	0xbe79909f	-0.24371575
57	0xbe07b060	-0.13250875
58	0xbc806810	-0.01567462
59	0x3d9eeff0	0.07760608
60	0xbe68f551	-0.22749831
61	0xbe36a722	-0.17837194
62	0xbcd192a2	-0.025582615
63	0xbd149d6e	-0.03628295
64	0x3d7508e0	0.059822917
65	0x3d1e9001	0.03871155
66	0x3d690bf0	0.05689615
67	0x3c92b9d7	0.017910881
68	0x3d0e8bf5	0.034801442
69	0xbc50df45	-0.012748544
70	0x3dba684d	0.09101925
71	0x3e39485a	0.18094006
72	0xbe0dbbc8	-0.13841164
73	0xbe17d61c	-0.1482777
74	0x3de675ad	0.112529136
75	0xbe5c0e05	-0.21489723
76	0x3e38bc8e	0.18040678
77	0x3e03a5d6	0.1285623
78	0x3d22d077	0.03974959
79	0xbde0c5a3	-0.10975196
80	0xbd5b8d19	-0.053601358
81	0xbe80c7d4	-0.25152457
82	0xbe7bee58	-0.2460264
83	0x3e6f9e7c	0.234003
84	0xbe7ff252	-0.24994782
85	0xbe6ace75	-0.2293032
86	0xbdf5c64b	-0.12000712
87	0x3c83b93e	0.016079541
88	0x3d979f60	0.07403445
89	0xbde166f6	-0.11005966
90	0xbda66e72	-0.081265345
91	0xbd720b34	-0.059092715
92	0x3e38fd72	0.18065432
93	0x3e75d8a9	0.2400843
94	0x3dfb931c	0.12283918
95	0x3b48a8cb	0.0030618187
96	0x3e54fc6a	0.20799413
97	0xbe651a2a	-0.22373262
98	0x3ded501b	0.115875445
99	0xbe235fbf	-0.15954493
100	0x3e6106f0	0.21975303
101	0xbe810948	-0.25202394
102	0x3dd2f938	0.10301441
103	0xbe699050	-0.22808957
104	0x3e25ac78	0.16179073
105	0x3d32e402	0.043674476
106	0x3e8cc699	0.27495268
107	0xbe5633e0	-0.20918226
108	0x3e370772	0.17873934
109	0xbe479d04	-0.1949349
110	0xbe210135	-0.15723117
111	0x3de7f789	0.113265105
112	0xbd7331c9	-0.05937365
113	0xbe59f568	-0.21285021
114	0xbe7700aa	-0.24121347
115	0xbd9c0b63	-0.07619359
116	0x3d9d4534	0.07679215
117	0x3e7b1cd3	0.24522714
118	0x3e50dfde	0.20397899
119	0xbc0c0b72	-0.008547651
120	0xbe33107a	-0.17486754
121	0xbe7ec168	-0.24878466
122	0x3e7e81eb	0.24854247
123	0xbe17ea43	-0.14835458
124	0xbca42b1a	-0.020040084
125	0xbe6528f4	-0.22378904
126	0xbe412d5a	-0.18864956
127	0x3d41fb95	0.047359068
128	0xbd93143f	-0.07181596
129	0x3d025560	0.0318197
130	0xbc790098	-0.0151978955
131	0x3c6783e0	0.014130563
132	0xbd7abb2a	-0.06121365
133	0xbc96f13b	-0.018425575
134	0x3df6e5a4	0.12055519
135	0x3e4f78d8	0.20260942
136	0x3e6f8004	0.23388678
137	0xbe67b636	-0.22628102
138	0xbe63db72	-0.2225168
139	0xbd22f6f0	-0.03978628
140	0xbcb79f66	-0.022414874
141	0x3e1bd8d1	0.15219428
142	0x3e858f83	0.26086053
143	0x3d91dd44	0.07122281
144	0xbe47e28e	-0.19520018
145	0xbd009628	-0.0313932
146	0x3e3dc392	0.18531635
147	0x3e05ad97	0.130545
148	0xbe48d738	-0.1961335
149	0x3cd22bda	0.025655676
150	0xbe92ca97	-0.2867019
151	0xbdc403cd	-0.095710374
152	0x3e478ccc	0.19487303
153	0xbdfc2bb8	-0.12313026
154	0x3e31ea5f	0.17374562
155	0xbe65adb7	-0.22429548
156	0x3e7b1945	0.24521358
157	0x3e093f34	0.13403016
158	0x3e16a2ce	0.14710543
159	0x3d9b4080	0.07580662
160	0x3ce2bdc3	0.027678376
161	0xbe0f1a7d	-0.13974948
162	0xbe1cb678	-0.15303981
163	0xbe430703	-0.19045644
164	0x3e7744e0	0.24147367
165	0xbdb84728	-0.08997947
166	0x3a926a00	0.0011170506
167	0xbe849b16	-0.2589957
168	0x3dc91e0e	0.098201856
169	0xbdbed465	-0.09317855
170	0xbe572fcf	-0.21014331
171	0x3d0e376a	0.034720816
172	0xbe82d0c0	-0.2554989
173	0xbce21b7a	-0.027600992
174	0xbe67ee8e	-0.22649595
175	0x3e33908d	0.1753561
176	0xbe630e26	-0.22173366
177	0x3d66c84e	0.05634337
178	0x3e0c9fea	0.13732877
179	0xbe7d23ae	-0.24720642
180	0x3e37ba0c	0.17942065
181	0x3e709c65	0.2349716
182	0xbe2e350c	-0.17012423
183	0x3d0cbe1c	0.03436099
184	0x3dac3efc	0.08410451
185	0x3e6bbd64	0.23021466
186	0x3e5f9da8	0.21837485
187	0xbe873dc6	-0.26414317
188	0xbe637170	-0.22211242
189	0xbe82f87f	-0.25580212
190	0xbdfdc09d	-0.12390254
191	0xbd565835	-0.052330215
192	0xbdcbce06	-0.09951405
193	0x3e3a2195	0.18176873
194	0xbe407827	-0.18795834
195	0xbe5fb134	-0.21844941
196	0xbe45016b	-0.19238822
197	0xbe43ee01	-0.1913376
198	0x3e8aa0f8	0.27075934
199	0x3d0f7580	0.035024166
200	0xbd289c17	-0.041164484
201	0xbd8c9aa6	-0.06865434
202	0xbe557ac8	-0.20847619
203	0xbdc37c67	-0.09545212
204	0x3e159f1e	0.1461148
205	0x3e3ff244	0.18744761
206	0x3e3e97aa	0.18612543
207	0x3c8a7a45	0.016904006
208	0xbe0a9d80	-0.13536644
209	0xbe1e3b36	-0.15452275
210	0x3e8a01a1	0.26954368
211	0xbe802c0f	-0.25033614
212	0x3d6b8e68	0.057508856
213	0xbcd684f0	-0.026186436
214	0x3e83e0d8	0.2575748
215	0x3e2a45e3	0.16628222
216	0xbd5794d3	-0.052632164
217	0xbe69f4a9	-0.22847237
218	0xbca45985	-0.020062217
219	0xbe433192	-0.19061878
220	0xbcc3ad55	-0.023886362
221	0x3d8e3824	0.06944302
222	0x3dd102ec	0.102056354
223	0xbdd10b18	-0.10207194
224	0xbe3fb6c4	-0.18722063
225	0xbe73b469	-0.2379929
226	0xbe864806	-0.26226825
227	0x3d6a6a6c	0.057230398
228	0xbe2cdb85	-0.16880615
229	0x3cd6217a	0.02613901
230	0xbdfc8d00	-0.12331581
231	0xbe536c72	-0.20646837
232	0x3e43b863	0.19113307
233	0x3e265db8	0.16246688
234	0x3e2aee33	0.16692428
235	0x3e86d227	0.2633221
236	0xbe511974	-0.20419866
237	0xbe2dcd72	-0.16972902
238	0xbe4d96cb	-0.20077054
239	0x3e403c8e	0.187731
240	0x3e299b64	0.16563183
241	0x3e663a12	0.2248309
242	0xbe479be4	-0.19493061
243	0xbe1e0bdf	-0.15434216
244	0x3e8f92e2	0.2804175
245	0xbe574c45	-0.21025188
246	0xbe3d266e	-0.18471691
247	0x3dd0e842	0.1020055
248	0xbe79b446	-0.24385175
249	0xbdc4d5c5	-0.09611086
250	0x3e1f2920	0.15543032
251	0x3e68a7d9	0.22720279
252	0xbd00e61b	-0.031469446
253	0xbe805c34	-0.25070345
254	0x3e1f0626	0.15529689
255	0x3e8d9187	0.2765009

mlp_extractor.policy_net.2.weight f4 [256, 256]
0	0xbd3dfe98	-0.046385378
1	0xbb3495f4	-0.00275552
2	0xbd3921f2	-0.04519839
3	0xbd02b596	-0.031911455
4	0x3cac314d	0.021019602
5	0x3cef160d	0.02918532
6	0x3cd39c38	0.025831327
7	0xbd712d3c	-0.05888103
8	0xbc787745	-0.015165155
9	0x3cda1a2e	0.026623812
10	0xbbbe8632	-0.005814337
11	0xbc9e657e	-0.019335505
12	0xbd044af0	-0.03229803
13	0x3d72ab3a	0.059245326
14	0xbd4d736c	-0.050158903
15	0xbd49a412	-0.049228735
16	0x3d3a9aef	0.045557912
17	0xbd1b8cc2	-0.037976034
18	0x3d1aa440	0.037754297
19	0xbd0d2c19	-0.034465883
20	0xbc0a7373	-0.008450377
21	0xbcf77d59	-0.030211138
22	0x3d5374f2	0.0516252
23	0x3d31421e	0.043275945
24	0x3b72b465	0.0037033793
25	0x3ac2af9b	0.001485336
26	0xbcc1555c	-0.023600273
27	0xbd08e66e	-0.03342288
28	0xbcc291d9	-0.023751186
29	0x3ca809fc	0.020512573
30	0xbc560fcb	-0.013065289
31	0x3d2e05c4	0.042485967
32	0x3c13a6ec	0.009011965
33	0x3a2fdfec	0.0006709087
34	0xbd1f23e0	-0.038852572
35	0x3cc9fd27	0.024656845
36	0xbd6ce229	-0.05783287
37	0x3c6f7746	0.014615839
38	0x3cb7d2f7	0.022439463
39	0x3c39189a	0.011297369
40	0x3d343793	0.043998312
41	0x3c757b9c	0.014983084
42	0xbc8128e9	-0.015766578
43	0xbd33310c	-0.043747947
44	0xbd6da455	-0.058018047
45	0x3d0124f6	0.03152939
46	0x3d0b4bfa	0.034008004
47	0xbd2532ea	-0.04033176
48	0x3cf54afd	0.029942984
49	0xbcbc61b6	-0.022995811
50	0x3d5790c0	0.05262828
51	0xbcb05e92	-0.02152947
52	0x3d270f04	0.040785804
53	0x3d352078	0.044220418
54	0x3d0da5c2	0.034581907
55	0x3d2f0181	0.042726044
56	0x3c9fc3dd	0.019502575
57	0x3cb0884e	0.02154937
58	0xbd59b188	-0.053147823
59	0xbc6c16fe	-0.014409779
60	0xbbed2815	-0.007237444
61	0x3cfdf579	0.03100084
62	0xbcc64afb	-0.024205675
63	0x3ce9b6b1	0.028529497
64	0x3d2dc368	0.042422682
65	0x3cdc9529	0.026926594
66	0x3d03d0da	0.0321816
67	0xbc0844b1	-0.008317159
68	0x3cf8d803	0.03037644
69	0xbcad1e98	-0.021132752
70	0x3d5da8ea	0.054116167
71	0xbbaf8226	-0.005356091
72	0xbb6fcc14	-0.0036590146
73	0xbd618098	-0.055054277
74	0x3d6ce8af	0.057839092
75	0xbc2454a2	-0.010029944
76	0x3d3e9902	0.04653264
77	0xbd2787e4	-0.04090108
78	0xbd563afd	-0.05230235
79	0xbc23beb9	-0.009994202
80	0xbd4a141f	-0.049335595
81	0x3c4504fa	0.012025112
82	0x3a180a72	0.00057998963
83	0xbca22aff	-0.019795893
84	0x3d1e6568	0.038670927
85	0x3d264723	0.040595185
86	0xbd588606	-0.05286219
87	0xbd4d2426	-0.050083302
88	0x3d15d16e	0.03657668
89	0xbd1b92d8	-0.037981838
90	0x3c40fc5a	0.011778915
91	0xbc1fc83d	-0.00975233
92	0x3c54ea50	0.012995318
93	0xbd0d36fe	-0.034476273
94	0x3c904da7	0.017615153
95	0xbcb52fbb	-0.022117486
96	0xbce689ce	-0.028141882
97	0xbcfbce8f	-0.030738143
98	0x3c648232	0.013947057
99	0x3ccba67e	0.024859663
100	0xbabec8f2	-0.0014555736
101	0xba253a22	-0.0006302913
102	0x3d534597	0.051580038
103	0x3d4e4efc	0.050368294
104	0xbc14def8	-0.009086363
105	0xbd5194ef	-0.051167425
106	0x3c6ef7e7	0.014585472
107	0x3c98c37a	0.018647898
108	0xbd4d1cbb	-0.050076228
109	0xbd65e8dc	-0.056130275
110	0xbc20c74c	-0.009813141
111	0x3d7a0008	0.061035186
112	0xbd64dd52	-0.05587513
113	0xbd0158a2	-0.031578667
114	0xbd07064b	-0.032964986
115	0xbd622ecd	-0.055220414
116	0xbd1d9254	-0.038469627
117	0x3d48fed9	0.049071167
118	0x3d43da26	0.047815464
119	0xbd475c1c	-0.048671827
120	0x3aaec523	0.0013333898
121	0xbd508d9a	-0.05091629
122	0x3cd48bee	0.02594563
123	0xbd2e4ae0	-0.042551875
124	0xbd00803d	-0.031372298
125	0xbced6d1a	-0.028982688
126	0x3c16d35e	0.009205667
127	0x3d2fe207	0.042940166
128	0xbcd62e15	-0.02614502
129	0x3c4aa2e4	0.012367938
130	0x3d4b1d5e	0.049588554
131	0xbb7751cc	-0.0037737964
132	0x3bdc0524	0.00671448
133	0x3bcdddee	0.0062825596
134	0xba4dd23a	-0.00078514556
135	0x3d19a3f2	0.037509866
136	0x3d0a7737	0.0338051
137	0xbd0928bc	-0.033486113
138	0x3d746d82	0.059674747
139	0x3d14a609	0.036291156
140	0xbc28ae3c	-0.010295447
141	0x3d7839bc	0.060601935
142	0x3b5d2923	0.0033746443
143	0x3d21d312	0.039507933
144	0xbd59262b	-0.053014915
145	0x3d65bcc8	0.05608824
146	0x3d6fc3d0	0.05853635
147	0xbd4a12e6	-0.04933443
148	0xbd652faf	-0.055953678
149	0xbc9520c0	-0.018204093
150	0xbd1d568b	-0.038412612
151	0x3c659542	0.014012637
152	0x3ca46a0b	0.020070096
153	0xbc02b08e	-0.007976664
154	0x3d33959a	0.043843843
155	0x3b1b720e	0.0023719105
156	0xbc969769	-0.018382745
157	0xbd5a75bb	-0.053334933
158	0x3ca2683e	0.019825097
159	0xbd712711	-0.058875147
160	0xb950ec9d	-0.00019924571
161	0x3c0e4c9c	0.008685257
162	0xbd0f516a	-0.034989752
163	0x3c99ec7e	0.018789526
164	0x3c512eff	0.012767552
165	0x3d2b5fdb	0.04183946
166	0x3d20edfe	0.039289467
167	0xbd4f2688	-0.050573856
168	0xbd3c28fd	-0.045937527
169	0xbcba7dd5	-0.02276508
170	0xbd32faf8	-0.043696374
171	0x3ca06c37	0.01958285
172	0xbd27c86c	-0.04096262
173	0xbd4380fd	-0.047730435
174	0x3c953c1a	0.018217135
175	0x3d1a7244	0.03770663
176	0xbcd5c2b4	-0.026093818
177	0xbd7f0dbd	-0.06226896
178	0x3c10f0ce	0.008846475
179	0x3d02f9dd	0.03197657
180	0x3d47ecf5	0.048809964
181	0x3bc1e7af	0.0059175114
182	0x3d31ab17	0.043376055
183	0xbd6638da	-0.05620656
184	0x3d74daf4	0.059779122
185	0xbd27a4f4	-0.040928796
186	0xbd2eaf3c	-0.042647585
187	0x3d371f61	0.04470766
188	0xbc635400	-0.013875008
189	0x3d2583cf	0.040408906
190	0xbd548705	-0.051886577
191	0x3d6a7937	0.057244506
192	0x3d72bc20	0.05926144
193	0x3c9b23eb	0.018938025
194	0x3d4e79fe	0.05040931
195	0xbd16ae6e	-0.036787443
196	0xbc2cb0ae	-0.010540171
197	0x3c9bee96	0.019034665
198	0x3d165f37	0.036711898
199	0xbd08a39a	-0.033359148
200	0x3d22f459	0.03978381
201	0xbca89e1d	-0.020583207
202	0xbd089647	-0.03334644
203	0x3c48171e	0.012212543
204	0xbd4bf5d6	-0.049794994
205	0xbd6b02c0	-0.05737567
206	0x3a63c32b	0.0008688445
207	0x3caf5dfe	0.021407124
208	0x3cc552ca	0.024087328
209	0xbc068187	-0.008209593
210	0xbd3b2ae4	-0.0456952
211	0xbd4d9996	-0.0501953
212	0x3d74e760	0.05979097
213	0xbd5dfd0a	-0.054196395
214	0x3c9a345e	0.018823799
215	0x3d4f7ea2	0.050657876
216	0x3d438374	0.047732785
217	0xbd21910b	-0.039444964
218	0xbca507cb	-0.020145318
219	0xbd520ba5	-0.051280636
220	0x3d24bb74	0.04021783
221	0xbd704b76	-0.058665715
222	0xbd6c654c	-0.05771379
223	0xbd217743	-0.039420377
224	0x3d50df88	0.050994426
225	0x3d25e1b3	0.040498447
226	0x3d2b95fa	0.041891076
227	0x3d445822	0.047935612
228	0xbceee54e	-0.029162075
229	0xbd1a0ce3	-0.037609946
230	0xbd1d369b	-0.038382154
231	0x3cbb0307	0.022828592
232	0x3cc6845c	0.024233036
233	0x3c5445b7	0.012956074
234	0xbd43970e	-0.04775148
235	0x3bb58fa5	0.0055408054
236	0xbd07e5ee	-0.033178262
237	0xbc435a42	-0.011923375
238	0xbc2c10e5	-0.010502075
239	0x3b4abc6b	0.003093506
240	0xbd60632c	-0.054782078
241	0x3d5a778a	0.053336658
242	0xbcd9c221	-0.026581826
243	0x3c9fdab1	0.01951346
244	0x3d303d8e	0.043027453
245	0x3d158cdf	0.0365113
246	0x3d33560e	0.04378324
247	0x3d10747d	0.035267342
248	0x3d3bdc2c	0.04586427
249	0x3c6c2774	0.014413703
250	0x3d237824	0.039909497
251	0xbcdea96f	-0.027180402
252	0xbd09e3d0	-0.033664525
253	0x3cf45fc5	0.029830823
254	0x3c867349	0.016412394
255	0xbb1a77f4	-0.0023570033

mlp_extractor.policy_net.2.bias f4 [256]
0	0xbd2be138	-0.041962832
1	0x38e2c983	0.00010814054
2	0x3ac824de	0.0015269776
3	0xbd5bce25	-0.05366339
4	0xbd590942	-0.052987345
5	0xbd2bb6ac	-0.041922256
6	0xbd6d1561	-0.057881717
7	0xbd4ae8a5	-0.049538273
8	0x3d104d3b	0.035229903
9	0xbcf29336	-0.029611211
10	0x3d701d88	0.058621913
11	0xbd5576e4	-0.052115336
12	0xbc67cf1f	-0.014148503
13	0xbb954eea	-0.0045565264
14	0x3d4fccfc	0.050732598
15	0x3d01c72a	0.03168408
16	0x3c1f71e8	0.009731747
17	0xbceb5217	-0.028725667
18	0x3d0810fe	0.03321933
19	0xbd3bd48a	-0.04585699
20	0x3c5da5af	0.013528272
21	0x3d1face3	0.038983237
22	0x3c98b217	0.018639607
23	0x3d189eec	0.037260935
24	0xbc6ef546	-0.014584845
25	0x3d4fc342	0.05072332
26	0x3b3534e4	0.0027649933
27	0x3d0121c7	0.031526353
28	0x3b1e6660	0.0024169907
29	0x3c0d5b8d	0.008627784
30	0xbd3ade0d	-0.04562192
31	0x3d25b688	0.04045728
32	0xbd78295d	-0.060586322
33	0xbce0f4fc	-0.027460568
34	0x3c3253e0	0.010884255
35	0x3cb29bea	0.021802861
36	0xbd0fbc2a	-0.035091557
37	0xbcc525bb	-0.024065843
38	0xbcc725e8	-0.024310067
39	0xbd7db4db	-0.061940055
40	0xbd5d2565	-0.05399074
41	0x3c9c159d	0.019053275
42	0x3bba9bcd	0.0056948424
43	0xbc981cb1	-0.018568369
44	0x3cf693f6	0.03009985
45	0x3ca3b5da	0.019984175
46	0xbd5fbc40	-0.05462289
47	0xbc27d431	-0.0102434615
48	0x3bfa2659	0.007633966
49	0xbc87283c	-0.016498677
50	0x3d415f03	0.04720975
51	0xbd27d4a4	-0.040974274
52	0x3d0a3fa0	0.033752084
53	0x3d144791	0.036201064
54	0xbd3be462	-0.0458721
55	0xbd499942	-0.049218424
56	0x3d08720f	0.0333119
57	0xbcea3362	-0.028588954
58	0x3d379978	0.044824094
59	0x3bc7612b	0.0060845814
60	0xbbd4fbda	-0.0064997496
61	0x3d57157b	0.05251072
62	0xbc7bac1d	-0.015360859
63	0x3b36e704	0.0027908692
64	0xbd2b3d12	-0.041806288
65	0xbb8b8611	-0.0042579253
66	0x3d675b4b	0.056483548
67	0x3d644159	0.055726383
68	0xbcc949c8	-0.024571314
69	0xbccf6bf2	-0.025320027
70	0x3d6352f1	0.05549902
71	0x3d556bd9	0.052104805
72	0xbc0d4da5	-0.008624469
73	0xbbc5c432	-0.006035351
74	0xbd394471	-0.045231286
75	0xbd5990df	-0.053116675
76	0x3b7821cb	0.003786194
77	0xbd493791	-0.049125258
78	0x3ce18013	0.02752689
79	0x3d48e072	0.049042173
80	0xbcd27a7f	-0.025693176
81	0xbd1c5963	-0.038171183
82	0xbd771ee9	-0.060332213
83	0xbb8982ae	-0.0041964864
84	0xbcec647a	-0.028856505
85	0x3d807f77	0.06274312
86	0x3cffb9c3	0.031216508
87	0x3d57056c	0.052495405
88	0x3d64e40c	0.055881545
89	0x3bbe3047	0.005804095
90	0xbd173624	-0.036916867
91	0xbc3883fe	-0.011261938
92	0xbd4dd673	-0.050253343
93	0xbd0dd39b	-0.03462563
94	0xbd66a676	-0.056311093
95	0x3c8a073e	0.016849156
96	0xbd470f39	-0.0485985
97	0x39dc63f7	0.0004203615
98	0x3d3d6b3c	0.046244845
99	0xbbee90ee	-0.0072804606
100	0x3d479dab	0.04873435
101	0x3c1b6267	0.00948391
102	0xbc8d5b46	-0.017255437
103	0x3c8f2ae6	0.01747651
104	0x3d66568d	0.056234885
105	0x3cf76b39	0.030202495
106	0xbd567060	-0.052353263
107	0xbc6ccaf2	-0.014452683
108	0xbc94f81e	-0.018184718
109	0xbcf3f96e	-0.029782023
110	0xbb33f0d1	-0.002745677
111	0xbd5d7e60	-0.0540756
112	0x3d3c5aea	0.04598514
113	0xbd2db100	-0.04240513
114	0x3cff0dc5	0.031134496
115	0x3c9b9f49	0.018996852
116	0x3c9c6778	0.019092306
117	0xbd3ff65c	-0.046865806
118	0xbd2ff6af	-0.042959865
119	0xbd4971cc	-0.04918079
120	0x3d1ba9b5	0.038003642
121	0x3d24d957	0.040246334
122	0x3c68dbf6	0.014212599
123	0x3cbcc8ec	0.023045026
124	0x3ce285b6	0.027651649
125	0x3cb63343	0.02224124
126	0xbd05e335	-0.032687385
127	0x3c6dccf0	0.014514193
128	0xbc4d8794	-0.012544531
129	0x3ce65942	0.028118733
130	0x3d4380ca	0.047730245
131	0x3c8a6d1b	0.016897729
132	0xbc655cdb	-0.013999189
133	0x3d45412f	0.048157867
134	0x3d51592e	0.05111044
135	0xbb88df6a	-0.0041770237
136	0x3d468213	0.048463892
137	0xbd23bdfc	-0.039976105
138	0x3cfcabed	0.0308437
139	0xb99953d0	-0.0002924488
140	0xbb50aedd	-0.0031842508
141	0xbc90ade2	-0.017661039
142	0x3d727ede	0.05920302
143	0xbc3c688a	-0.011499533
144	0xbd34ea81	-0.044168953
145	0xbce7bfb0	-0.028289646
146	0xbcbb3b0c	-0.022855304
147	0x3d2229e4	0.03959073
148	0x3d519c82	0.051174648
149	0x3c89289b	0.016742995
150	0xbc16db4d	-0.009207559
151	0x3b51b24c	0.0031997142
152	0xbb816fed	-0.00395011
153	0xbd7f0101	-0.062256817
154	0xbca3e669	-0.020007329
155	0x3d48b0c7	0.048996713
156	0xba16ac75	-0.0005747744
157	0xbd40c833	-0.047065925
158	0xbd6dd40d	-0.058063556
159	0x3a051242	0.0005076268
160	0xbccaf002	-0.024772648
161	0xbd13b5d8	-0.03606209
162	0xbc88e0c1	-0.016708734
163	0x3d4b2da0	0.04960406
164	0x3d16a9cd	0.03678303
165	0xbcb44b0e	-0.022008445
166	0x3d5deaab	0.054178875
167	0x3d5216d4	0.0512913
168	0x3c8a9aef	0.016919581
169	0x3cc0f3f6	0.02355383
170	0xbccbc437	-0.024873836
171	0x3d3c5a61	0.04598463
172	0xbd57f2ec	-0.052721903
173	0xbd547cf8	-0.051876992
174	0xbd59a6e0	-0.05313766
175	0xbd1309fe	-0.0358982
176	0xba713e0f	-0.0009202668
177	0xbcabaed1	-0.020957382
178	0xbd160bfc	-0.036632523
179	0x3d30a31f	0.043124314
180	0x3c82db9f	0.015973864
181	0x3cdfb9ae	0.027310219
182	0xbb5f1f43	-0.0034045733
183	0x3be8e80d	0.0071077407
184	0x3ce42b6f	0.027852742
185	0xbc95a230	-0.018265814
186	0xbbb92132	-0.005649709
187	0xbcb28b87	-0.021795047
188	0xbd13efd8	-0.036117405
189	0x3b182017	0.0023212486
190	0x3d064b39	0.03278658
191	0xbcc92064	-0.024551578
192	0x3ce6d3d3	0.028177178
193	0x3cf64191	0.030060561
194	0xbca6b200	-0.020348549
195	0xbd578169	-0.05261365
196	0x3d2f4c79	0.04279754
197	0x3d383e56	0.044981323
198	0xbcfd2267	-0.030900193
199	0xbbc0077d	-0.0058602677
200	0x3b064ed3	0.002049376
201	0xbd1a4aba	-0.03766892
202	0xbc8de061	-0.017318906
203	0xbcdfb74a	-0.027309079
204	0x3d7a02ce	0.06103783
205	0x3d521dfb	0.051298123
206	0xbbf64129	-0.007515092
207	0x3cad87cc	0.021182917
208	0xbc6564a0	-0.014001042
209	0x3d0f3bfa	0.034969307
210	0x3d023c14	0.031795576
211	0xba8bdf41	-0.0010671393
212	0x3d391d66	0.045194052
213	0xbd11f236	-0.03563138
214	0x3c255f9c	0.010093596
215	0xbd313dca	-0.043271817
216	0xbd41c79f	-0.047309514
217	0x3c82901b	0.015937855
218	0x3cfc221d	0.030777985
219	0x3d27f7f5	0.041007955
220	0xbd0a5686	-0.03377392
221	0x3acbb32a	0.0015541066
222	0xbccd04c1	-0.02502668
223	0x3d00a792	0.031409808
224	0x3d3bda1a	0.045862295
225	0x3cb6d954	0.022320427
226	0xbcf3d59f	-0.029764948
227	0x3d5b7aac	0.053583786
228	0x3c95f35b	0.018304517
229	0x3c8f5f94	0.01750163
230	0x3b8c2907	0.004277352
231	0x3b462310	0.0030233301
232	0x3d63b8cf	0.05559617
233	0x3d0b5e5e	0.034025542
234	0x3d18f9b0	0.037347496
235	0xbc51ca82	-0.012804629
236	0x3d7b3f5e	0.06133973
237	0x3d4e2ff7	0.05033871
238	0xbc671ece	-0.0141064655
239	0xbcaa1a6b	-0.02076455
240	0xbd4d607b	-0.05014084
241	0x3d4b4b09	0.049632106
242	0xbc82e2c2	-0.015977267
243	0xbb0c796e	-0.0021434682
244	0xbcda8d2b	-0.026678642
245	0x3d36b3a6	0.04460492
246	0xbc0646cb	-0.008195589
247	0xbd31afc3	-0.04338051
248	0xbc8d1009	-0.01721956
249	0x3c02ce12	0.007983701
250	0xbce3239f	-0.027726946
251	0x3cc317c3	0.023815041
252	0xbd690828	-0.056892544
253	0x3c8ee5d0	0.017443568
254	0xbd100df4	-0.035169557
255	0x3c5255f7	0.012837878

action_net.weight f4 [7, 256]
0	0x3bd40bc1	0.0064711277
1	0x3d25e6a6	0.040503167
2	0xbd69caa7	-0.05707803
3	0xbc8ec7e6	-0.017429303
4	0xbc51412b	-0.012771885
5	0xbd3e9242	-0.0465262
6	0x3d394748	0.045233995
7	0xbd3fe640	-0.046850443
8	0xbba5be4e	-0.0050580865
9	0xbb517a3a	-0.0031963722
10	0x3d2f05ca	0.04273013
11	0xbd4f0090	-0.050537646
12	0x3ce21106	0.027596008
13	0xbd3bbe51	-0.045835797
14	0xbbe77fd1	-0.0070647974
15	0xbd50ba4f	-0.050958928
16	0x3ccf6c81	0.025320293
17	0x3c3ce702	0.011529686
18	0xbca78eb7	-0.020453794
19	0xbd4c94f3	-0.049946737
20	0x3d73477c	0.059394345
21	0xbc091e35	-0.008369018
22	0x3cba1781	0.022716286
23	0x3d18e3ae	0.037326507
24	0x3cdd4254	0.027009167
25	0x3d109ea3	0.035307538
26	0x3ce7db55	0.028302828
27	0x3d53f934	0.05175133
28	0x3d574456	0.052555405
29	0x3cf9eb96	0.030507844
30	0xbd3bf94f	-0.045892056
31	0x3c79653f	0.015221893
32	0x3d49cc1a	0.049266912
33	0x3cfadfa7	0.030624224
34	0xbd012b92	-0.031535693
35	0xbcda5e4d	-0.026656294
36	0x3d48f5e7	0.049062636
37	0xbcfb28c5	-0.030659089
38	0xbd04cb8d	-0.032420684
39	0x3b088c7b	0.0020835686
40	0xbd28a41a	-0.041172124
41	0xbca2d34c	-0.019876145
42	0xbafc9827	-0.0019271419
43	0x39da8019	0.0004167564
44	0x3c9d3306	0.019189369
45	0x3d28e921	0.041237954
46	0x3d04a846	0.03238704
47	0x3d36c23a	0.044618823
48	0x3c0f8c4a	0.008761475
49	0xbd4491df	-0.047990676
50	0x3c7df9b8	0.015501432
51	0x3c69718b	0.014248262
52	0xbc390553	-0.011292773
53	0x3c41bc4f	0.011824681
54	0x3ae9ab14	0.0017827475
55	0xbcbc7130	-0.02300319
56	0x3ce1a210	0.027543098
57	0xbd24c3f6	-0.040225945
58	0x3c50f8c6	0.012754625
59	0xbd246cfe	-0.040143006
60	0x3d0c4d25	0.03425326
61	0xbd2dce7f	-0.04243326
62	0xbd060a8c	-0.032724902
63	0xbbb768e4	-0.0055972207
64	0xbd0c2c86	-0.03422215
65	0x3d595ec4	0.05306889
66	0xbd0792ad	-0.033098865
67	0xbd12d542	-0.03584791
68	0x3b6695f5	0.0035184596
69	0xbd6366a3	-0.055517804
70	0xbc921a9c	-0.017834954
71	0x3d212ed2	0.039351292
72	0x3d1e5aa6	0.038660668
73	0xbc3979d5	-0.011320551
74	0x3d176bfb	0.036968213
75	0xbcd526b1	-0.026019426
76	0x3b7d7703	0.0038675673
77	0x3d0c1f38	0.03420946
78	0xbd35008a	-0.044189967
79	0xbd774565	-0.060368914
80	0x3d278778	0.040900677
81	0x3d3c4bb0	0.04597062
82	0xbd05a054	-0.032623604
83	0x3cf5da9a	0.030011464
84	0x3d37b7be	0.044852965
85	0xbd4561da	-0.04818902
86	0x3d29134d	0.041278172
87	0x3cc91378	0.024545416
88	0x3d190feb	0.037368696
89	0xbc86f023	-0.016471928
90	0x3d06482c	0.032783672
91	0x3c592ef9	0.013255828
92	0xbcad7e41	-0.021178367
93	0xbd083b27	-0.033259537
94	0x3c22fe38	0.009948306
95	0xbc87744d	-0.016534949
96	0x3cfb9b78	0.030713782
97	0x3cbc0ce9	0.022955375
98	0xbd32b189	-0.043626342
99	0xbd02f79c	-0.03197442
100	0xbd314d89	-0.043286834
101	0x3d3b505f	0.045730945
102	0x3aa48641	0.0012552218
103	0xbcb48396	-0.022035401
104	0xbd3781c4	-0.04480149
105	0x3d35549e	0.04427015
106	0xbc95b389	-0.018274086
107	0xbcb05871	-0.021526547
108	0xbd496ce5	-0.049176116
109	0x3d2cc57a	0.042180516
110	0x3b3c0ae9	0.0028693026
111	0x3c48de89	0.012260088
112	0x3c318aee	0.010836346
113	0x3c7115fe	0.014714716
114	0xbd6a213d	-0.057160605
115	0x3d7057b0	0.058677375
116	0xbca5074a	-0.020145077
117	0x3cbafb68	0.022824958
118	0xbcd2eefe	-0.025748726
119	0x3c9064b8	0.017626151
120	0x3c99fabe	0.018796321
121	0x3915971e	0.00014266043
122	0x3c2243ce	0.009903861
123	0xbbb0448d	-0.0053792656
124	0xbcd43545	-0.025904307
125	0x3d3e84fc	0.046513543
126	0xbd6871a7	-0.056749012
127	0x3cd29c19	0.025709199
128	0xbcb938a0	-0.022610009
129	0x3d605f48	0.054778367
130	0xbd8093b0	-0.06278169
131	0x3c95da0e	0.018292453
132	0xbce8c18f	-0.028412608
133	0xbcd2ae9b	-0.025718024
134	0xbcfdfa07	-0.031003011
135	0xbd4503b9	-0.048099253
136	0x3c83787b	0.01604866
137	0x3c2887a4	0.0102862455
138	0x3cea0699	0.0285676
139	0xbcc5d8b6	-0.024151187
140	0xbc184273	-0.0092931865
141	0xbd370f39	-0.04469225
142	0x3cee23d9	0.029069828
143	0x3c56e92d	0.013117117
144	0xbce08e71	-0.027411671
145	0x3c7d2664	0.015451048
146	0xbd43caf7	-0.047800984
147	0x3d594718	0.053046316
148	0xbceb5c9f	-0.028730689
149	0x3d0096ce	0.03139382
150	0xbd36bfc2	-0.04461647
151	0xbd559a6d	-0.052149225
152	0x3c85c0b0	0.016327232
153	0xbcbdd649	-0.023173468
154	0x3cf47d76	0.02984498
155	0x3d167d61	0.036740664
156	0x3d68c450	0.056827843
157	0x3cbf1408	0.023324981
158	0xbc269e44	-0.010169569
159	0x3ce0dc83	0.027448898
160	0xbd66e22f	-0.05636805
161	0x3c7e2c74	0.015513528
162	0x39bbdafa	0.0003583057
163	0xbd3a720d	-0.045518924
164	0x3d016fee	0.031600885
165	0xbbb7b61d	-0.0056064264
166	0xbaeaa71a	-0.0017902583
167	0xbc2d0926	-0.010561263
168	0xbc02c26b	-0.007980923
169	0x3d0a26e1	0.033728484
170	0x3d6c4857	0.057686176
171	0xb9b35e68	-0.0003421188
172	0xbb9661ad	-0.0045892806
173	0xbd1a34ae	-0.037647896
174	0xbc12e1f7	-0.008965007
175	0x3c643860	0.0139294565
176	0x3d325a5e	0.043543212
177	0x3d5d4ca9	0.054028187
178	0x3c2b2c68	0.010447599
179	0x3bdf69d7	0.006818037
180	0xba21c441	-0.00061709067
181	0xbd27ce7b	-0.0409684
182	0x3cb6986a	0.022289474
183	0xbb9d2eac	-0.0047968235
184	0xbce91da9	-0.028456526
185	0x3d03b873	0.032158326
186	0x3c3827cf	0.01123996
187	0x3cd91942	0.026501302
188	0x3c382a15	0.011240502
189	0x3d38bb0a	0.04510025
190	0xbd005000	-0.031326294
191	0xbd2ecb8e	-0.042674594
192	0xbca94c4a	-0.02066626
193	0x3d094412	0.033512183
194	0xbc8a798a	-0.016903657
195	0x3d2e247e	0.04251527
196	0x3d058b66	0.032603644
197	0xbccff0f9	-0.02538346
198	0xbd147300	-0.036242485
199	0x3c6c3047	0.014415807
200	0x3ca58b40	0.020208001
201	0x3c308953	0.010774928
202	0xbc038c76	-0.008029094
203	0x3cb8729e	0.022515591
204	0xbbfe259b	-0.0077559478
205	0x3cd055df	0.025431572
206	0x3d120341	0.035647634
207	0x3cc99620	0.024607718
208	0xbcca5592	-0.024699006
209	0x3cf072ca	0.02935161
210	0x3c99cdf1	0.018774958
211	0xbd3c26cf	-0.04593545
212	0x3d4e50d4	0.050370052
213	0xbd7735bf	-0.06035399
214	0x3d27c2fd	0.04095744
215	0xba43c0a0	-0.0007467363
216	0x3d2e2c2b	0.04252259
217	0x3d4f2a0b	0.050577205
218	0x3d59221a	0.053011037
219	0xbcc9ab28	-0.024617746
220	0xbcb52a6d	-0.022114957
221	0x3c4c7ce3	0.012480947
222	0xbc2bc32d	-0.010483545
223	0xbd7919e7	-0.060815718
224	0xbc89cd8b	-0.016821643
225	0xbd442f3a	-0.0478966
226	0xbc35ac12	-0.011088388
227	0x3d7e2259	0.062044475
228	0x3d5be2d0	0.053683102
229	0x3d54e403	0.05197526
230	0xbb7752c8	-0.003773855
231	0xbd5409d8	-0.0517672
232	0xbca9370a	-0.020656127
233	0x3d2a44a8	0.041569382
234	0x3b909db0	0.004413329
235	0x3ce3a9de	0.02779096
236	0x3b1130f2	0.0022154418
237	0x3c61bc04	0.013777737
238	0xbd6e02d4	-0.058108166
239	0xbc4f1cc2	-0.012641134
240	0x3c462ba9	0.01209537
241	0x3c91413b	0.0177313
242	0x3b994fe6	0.004678714
243	0xbca3043e	-0.019899484
244	0x3d0183de	0.0316199
245	0x3cbd6bae	0.023122635
246	0x3ca41a69	0.020032125
247	0x3d1d290b	0.03836922
248	0xbcb9de9e	-0.02268916
249	0x3d31f5c8	0.043447286
250	0x3c67d975	0.014150967
251	0xbd6af92a	-0.057366528
252	0x3d169ef2	0.036772676
253	0x3d352040	0.04422021
254	0xbc09f349	-0.00841982
255	0x3d739ac9	0.059473787

action_net.bias f4 [7]
0	0x3ccb24aa	0.024797756
1	0xbcab0c2a	-0.020879824
2	0xbd732e49	-0.059370313
3	0xbcbb86e8	-0.022891477
4	0xbc9b2d0d	-0.01894238
5	0x3d564db7	0.05232021
6	0x3c6d057c	0.01446664
