bc_policy.pt (torch, 288045 bytes, 6 tensors)

mlp_extractor.policy_net.0.weight f4 [256, 13]
00000000: 4822 593e 46ba 6b3e e011 85bd 1f72 823e
00000010: 48e8 78bd 503d 653d 1e45 0abe c6ca 263e
00000020: 2a5d 7a3e ec5a 50be 7edb 763e 289e 543d
00000030: 96d3 513e bc2b 233d 5fd7 0b3e 738b 1cbd
00000040: 3ed2 5b3e f8d1 213d 3998 0abe 7a09 8b3d
00000050: 897b 01be a59e 02bd f10a e5bd 793c 3d3e
00000060: bdf1 5ebe 738d 01be a71e cdbd 7e80 40be
00000070: a656 423c 9f57 93be 5960 873e f50b 5abe
00000080: 7f52 743e d906 f63c 4beb d3bd c271 213e
00000090: 101b f23c 27cc 513e cbb5 6d3c 99b6 17bd
000000a0: 6126 073d 3036 d4bd 2cb7 083e d15e 893e
000000b0: 83b2 be3d 6eb6 02be 20d7 0d3e 14c8 e23c
000000c0: 82c2 ec3d b8ee 45be b9eb a0be a502 1bbe
000000d0: 28b1 5cbe b5d0 853e 08da a73d 9542 f63d
000000e0: b06e ac3d 0357 09bd feb3 483e faff 43be
000000f0: dd4e 9f3c e7c8 3fbe a353 b33d cffb d1bd
00000100: 1d16 b83d f692 67bd b769 6f3e 0e94 27be
00000110: 3643 28be a021 2bbe 525b 813e 06c0 fd3d
00000120: 28fc 893e 0f5e 67be 8b57 8bbe a623 5bbe
00000130: 95a0 41be 14d6 ea3d 1e12 f43d ae14 5f3e
00000140: b38a 0fbe de34 4cbe 589a f83d 196a ecbd
00000150: 7d6b 443e a3d7 6fbd f09d 263e 0e99 58be
00000160: 3303 0abe e45e af3d 34db 813d 71d3 90bd
00000170: a049 293e d810 413e 36f4 4dbe 2f9d 17be
00000180: 1303 823e b5c9 bfbd 64dc cabd 0dab 89be
00000190: bd31 23be e0b7 8c3d d41d 16bd d22f 4ebe
000001a0: 0287 6bbb fb2f 32be d7c2 79be 83ee 0fbe
000001b0: 0ea1 6bbe e688 47be 1931 843e c663 253d
000001c0: fec2 953d bac1 8abe a75e 47be e515 d5bd
000001d0: 9909 023d 44e7 79be d2bd f4bd 9806 2abe
000001e0: 007c 493a 065c d3bd 9071 9dbc 8473 40be
000001f0: d1f0 42be 9eb0 25be ec6d c2bd 3129 60be
00000200: 8221 6e3e d875 61bd 139a 6b3e 33d4 9d3d
00000210: 3525 7abe 633c 3a3e 939c b0bd e190 c5bd
00000220: 4803 6fbe 50fd 91be 044a 8f3d ca4c 8fbd
00000230: 77eb c93d 3c87 71be 0310 493e 24a8 51be
00000240: 3d4a 58bd 7837 503d f9ea 093e 954b 5b3e
00000250: 063e 843e ad2d 5ebe 3722 813d cd6e 01be
00000260: 1980 19bd fed2 5bbe e49c 7c3e 9dc8 57be
00000270: b389 173e 23b6 c73d 3364 b83d e963 1abe
00000280: 8cf1 803e a78b 773d 7645 0e3d 6498 7cbe
00000290: 31ec e73d 692a 37bd 242b 05be ff4b 733e
000002a0: 27b8 7c3d 54c9 08be 76b8 dbbd 051f 5dba
000002b0: 27d4 303e d0c7 74bd 77a0 42be dd32 0abe
000002c0: b53e 46be da83 e23d 47d0 673e bc65 7fbe
000002d0: e834 583d fc19 213e 8efe 1e3d 7cea efbd
000002e0: 3632 103e 6fca 043e 2904 ca3d 3469 1cbd
000002f0: 1d65 8abd ff21 cf3c 7c9a 5cbd 9488 b2bd
00000300: 5243 313e a9c9 7b3e d663 f1bc 06aa 68bd
00000310: 6bf6 3bb9 38d6 15bc 46ca 943d c799 ac3d
00000320: 6d8a 79be f4d0 c1bd 9df2 763e 8e94 ec3d
00000330: 9e63 cebb 4b85 23be 676c 25be 0403 76be
00000340: 0424 b9bd 04d2 bf3d ab1a 353e ae2b 043e
00000350: 74da 7abe f3bc 2abe 037d 32bd de13 8a3e
00000360: 8d0d 2b3d 7ccf 8fbd 4b29 ee3d a739 d8bd
00000370: 57cc 37be 674a 4f3e 6523 01be 9ebf 63bd
00000380: f443 8dbe 3415 3e3e f326 573e 93ec ce3d
00000390: 9393 46be af57 8cbe df10 67be 355b 533e
000003a0: 404f 083e 8ff8 6e3e f5cb 143e 78c2 8f3d
000003b0: 46d6 31bb 18fd 57be bc58 73be 67d2 84be
000003c0: cb96 e83d bdee 0abe 1e76 63bd 1c25 23be
000003d0: 88ac 4dbd c8e4 47be c68e 39be 33a0 bc3d
000003e0: 49a4 a8bd 2352 2f3e f90d b6bd c55e 50be
000003f0: 465e 49bd 8a00 0abe 31b4 aebd e49a 87be
0.21204484 0.23020276 -0.0649755 0.25477692 -0.060768396 0.055966675 -0.13502929 0.1628829
0.24449602 -0.20347184 0.24107167 0.051908642 0.2049087 0.03983663 0.13656376 -0.038218927
0.2146692 0.039506882 -0.13534631 0.06788917 -0.12644781 -0.031889576 -0.111837275 0.184801
-0.21771903 -0.12651615 -0.10015612 -0.18799016 0.011861479 -0.28777787 0.26440695 -0.21293624
0.23859595 0.030032562 -0.10347613 0.15766051 0.02955392 0.20488034 0.014508675 -0.037039373
0.032995585 -0.10361898 0.13351125 0.26830152 0.09311392 -0.12764904 0.13851595 0.027683295
0.11560537 -0.19329345 -0.31429842 -0.15137728 -0.21551955 0.26135793 0.08195883 0.12024418
0.084195495 -0.033530246 0.19599912 -0.19140616 0.019446785 -0.18728982 0.08756187 -0.10253107
0.08988593 -0.056536637 0.23380171 -0.16365072 -0.16431889 -0.16712046 0.25264984 0.12390141
0.26950192 -0.22594474 -0.27215227 -0.21400318 -0.18908913 0.114666134 0.11917518 0.21785232
-0.14017753 -0.19942042 0.12138814 -0.11543674 0.19181629 -0.058555257 0.16271186 -0.21152136
-0.13477783 0.08563021 0.06340638 -0.07071579 0.16531992 0.18854082 -0.2011269 -0.14806055
0.2539297 -0.093646444 -0.099053174 -0.26888314 -0.15936942 0.06871009 -0.03664954 -0.2013543
-0.0035938625 -0.17401116 -0.24390732 -0.14055829 -0.23010656 -0.19485816 0.2581871 0.040378354
0.073125824 -0.27100927 -0.19469701 -0.10404567 0.031747434 -0.24404627 -0.11950268 -0.16604078
0.0007686019 -0.103202865 -0.01921919 -0.18794066 -0.19037177 -0.16180655 -0.09493622 -0.21890713
0.2325497 -0.055044025 0.23007993 0.077064894 -0.24428256 0.18187098 -0.08623614 -0.09646774
-0.23341095 -0.28513575 0.06996539 -0.06997068 0.098593645 -0.23586744 0.19635014 -0.20474297
-0.052805174 0.05083415 0.13468541 0.21415551 0.2582857 -0.21697111 0.06305354 -0.12639923
-0.03747568 -0.21467206 0.24669224 -0.21072622 0.14798622 0.09751537 0.090034865 -0.15077175
0.25184286 0.060435917 0.03473421 -0.24667507 0.11324347 -0.04471818 -0.13004738 0.23759459
0.06169906 -0.1335805 -0.107285425 -0.0008435103 0.1726843 -0.05976087 -0.19006525 -0.13495965
-0.19359858 0.11060305 0.22638045 -0.24941152 0.05278483 0.15732569 0.03881698 -0.11714646
0.14081654 0.12967847 0.09864075 -0.038186267 -0.06757567 0.025284765 -0.053858265 -0.087174565
0.17310837 0.24588646 -0.02946655 -0.056802772 -0.00017925508 -0.009145312 0.07265143 0.08427768
-0.24369211 -0.09463683 0.24115987 0.11551772 -0.0062984964 -0.15968816 -0.16154633 -0.24024588
-0.090400726 0.09366229 0.17685954 0.12907287 -0.24497396 -0.16673641 -0.04357625 0.26968282
0.04176097 -0.070219964 0.1162897 -0.10557871 -0.17949043 0.20243226 -0.12611158 -0.055602662
-0.27590907 0.18562776 0.21010952 0.10103717 -0.19392233 -0.27410647 -0.2256503 0.20640261
0.13311481 0.23337005 0.14530928 0.07019514 -0.0027135774 -0.21092641 -0.23764318 -0.25941774
0.113568865 -0.13567634 -0.055532567 -0.15932125 -0.050213367 -0.19520867 -0.1812087 0.09210243
-0.0823446 0.17121176 -0.08889384 -0.20348652 -0.04916217 -0.13476768 -0.085304625 -0.2648536

mlp_extractor.policy_net.0.bias f4 [256]
00000000: 0ddc 8b3e fd39 81be 3958 793e 19af 7cbe
00000010: 370f 84bd 84ed e3bd 8db3 13be 44e3 c93d
00000020: 8bb9 183e 7a90 3abe 67ef 0dbe 54b0 093e
00000030: fc6a 0bbd 7bbf a33d eb72 103e cc54 c2bd
00000040: c883 1dbe 4c0a d13d 6df8 cfbd 911a 3dbe
00000050: 6339 1cbe efa7 03be 2f65 8d3e 677f 7c3d
00000060: 2cc7 023e b098 183d 77a3 3fbe e750 4b3e
00000070: c680 44bd f9cb 98bd c0de 6d3e c30d 10be
00000080: 5fea 743d ccd3 71be 0c88 113e 8951 e53d
00000090: 5bb3 69be ba83 1e3e 57c9 7fbc a8a6 12be
000000a0: f471 6f3e c8d6 f03d df78 ca3d 7ef9 d2bd
000000b0: 9f4e 15be 15d1 18be 1396 d13d ecec a73d
000000c0: 24f4 23be fef0 803e 1d04 213e 8214 d9bd
000000d0: 0bb7 0f3e 9ec7 f0bd 24fd bc3d cafe 6d3e
000000e0: 5df0 81be 1420 05be 1068 80bc 4d98 223d
000000f0: 6fe7 6bbe ea3a 2dbe 3f54 81bd 66c9 1dbd
00000100: 0b08 753d c25c 263d 701b 693d f6f6 963c
00000110: 86b5 e83c 76cc 3fbc 1b50 c33d c693 333e
00000120: c8bb 0dbe 95f3 0dbe dc40 ff3d 0baa 52be
00000130: ca1d 4a3e d518 033e eb2d 153d 258e d8bd
00000140: a3be 103c 7bc6 89be c45c 75be dbad 8a3e
00000150: 56bc 78be a7f9 70be e121 ffbd 83c1 9b3c
00000160: 0042 903d d5ae 09be a17e 60bd 298e 79bd
00000170: ddb0 5d3e c27f 733e e5bf f53d bf0a 543b
00000180: 4c21 5f3e 4d2b 62be 644d e53d d017 26be
00000190: 4ba2 5e3e 1670 81be 6633 d33d a291 6abe
000001a0: 54a1 253e 291d 573d ede5 903e e033 56be
000001b0: 7dea 3b3e f739 32be c2e8 1fbe 3dcc da3d
000001c0: a95e 86bd 249a 60be 722c 73be 7ee7 71bd
000001d0: 3445 9d3d c6d9 793e dedf 503e 3b89 19bc
000001e0: b6c1 32be 36b3 7dbe eff0 773e 001f 1dbe
000001f0: 23eb e5bc bdf3 65be 1f54 44be 6abf 593d
00000200: fa4e 85bd 6ad4 223d 5c6d e0ba e083 673c
00000210: 9252 71bd ec85 3bbc a4e5 f63d d878 4f3e
00000220: 1213 6f3e 36b6 67be 2ed3 66be de27 2fbd
00000230: 6aad 94bc 550e 1d3e a3d2 693e 44dd 913d
00000240: ca3c 3ebe ee83 03bd 00cb 473e e46d 0e3e
00000250: 09db 48be dab0 983c d0f5 86be f82d e5bd
00000260: 4975 3e3e 74a1 e3bd 4618 353e fefd 63be
00000270: 959a 903e 6cab 093e 7fef 213e 6272 ab3d
00000280: fe21 cf3c e372 0bbe 78b6 1cbe 6009 43be
00000290: 3f0f 6d3e 42ca a8bd dd6b 0b3c a61a 83be
000002a0: 99be a53d efa1 c5bd 2e54 72be 9aef 0c3d
000002b0: c0d0 82be 56b0 e0bc 8eee 67be ac5d 333e
000002c0: 8850 5fbe ad24 5d3d fa11 103e 6959 64be
000002d0: 36d0 383e fb43 6c3e 220b 0dbe 9ae3 db3c
000002e0: fc3e ac3d 5c96 753e 27ca 4d3e 9f9a 70be
000002f0: 2d9d 64be 0a70 7ebe fd02 fabd 3329 57bd
00000300: 06ce cbbd e3d6 423e b0ed 45be 1a4f 57be
00000310: fe24 52be dd80 1ebe bdbf 873e 8075 0f3d
00000320: 936e 71bd 2aab b7bd 3431 51be d6ff d2bd
00000330: 1e9f 153e 44f2 3f3e 8653 453e fea8 c33c
00000340: 3319 1dbe 2c41 26be a101 8a3e 0f2c 80be
00000350: 8c59 673d f084 d6bc cdfb 833e 70bb 2c3e
00000360: 17b9 6abd 293b 6fbe a028 353d 0b50 49be
00000370: 05cc dabc 2438 8e3d aae4 123e 8fde 99bd
00000380: c4b6 3fbe 4ea1 71be 8778 8cbe 0e81 393d
00000390: 85db 2cbe c9f0 3cbb e717 febd ebeb 47be
000003a0: f009 413e 17cc 323e 25b7 293e 5dbf 873e
000003b0: b4f3 51be 9d70 27be b841 51be 81e6 473e
000003c0: 17b3 283e 123a 663e b01a 5fbe e5ed 17be
000003d0: d93f 8c3e cf01 5bbe 6e26 3dbe 1cb8 e83d
000003e0: cd8a 80be 44b7 85bd 451d 013e 5667 693e
000003f0: 98e7 00bd 8a22 56be 8b64 143e 8791 8d3e
0.27316323 -0.25239554 0.2435006 -0.2467617 -0.064482145 -0.11129287 -0.14423962 0.098578006
0.14914529 -0.18219176 -0.13860856 0.1344617 -0.034037575 0.079955064 0.14106338 -0.0948883
-0.15382302 0.10207042 -0.10154805 -0.18467166 -0.15256266 -0.1285703 0.2761626 0.061644938
0.1277129 0.03725499 -0.187147 0.1985508 -0.04797437 -0.0746078 0.23229504 -0.1406775
0.059793826 -0.2361595 0.14212054 0.11197192 -0.22822325 0.15479937 -0.015611968 -0.14321387
0.23383313 0.11759716 0.098863356 -0.10301493 -0.14580773 -0.14923508 0.102337025 0.08199486
-0.16011101 0.25183862 0.15724225 -0.10599615 0.14034669 -0.11756824 0.0922797 0.23241726
-0.25378695 -0.13000518 -0.01567462 0.039696027 -0.23037504 -0.16917005 -0.06314897 -0.038522147
0.059822123 0.040615804 0.056910932 0.018428307 0.02840687 -0.011706462 0.09536763 0.1753684
-0.13841164 -0.1386245 0.12463543 -0.20572679 0.19737926 0.12802441 0.036420744 -0.10573987
0.008834514 -0.2690924 -0.23961169 0.27085766 -0.24290594 -0.23532735 -0.12457634 0.019013172
0.070438385 -0.134456 -0.054808263 -0.06092659 0.21649499 0.23779204 0.119994916 0.0032355038
0.21790045 -0.2208683 0.11196402 -0.16220021 0.21741597 -0.25280827 0.10312538 -0.22907117
0.16174823 0.052518044 0.2830042 -0.20918226 0.18351169 -0.17404924 -0.15616134 0.106834866
-0.06561024 -0.219338 -0.23747423 -0.05905866 0.07679215 0.2439948 0.20397899 -0.009371097
-0.17456707 -0.24775395 0.24213003 -0.15343857 -0.028066223 -0.2245626 -0.19172715 0.053161062
-0.06509204 0.039753355 -0.0017122435 0.014130563 -0.058916636 -0.011445504 0.12055519 0.20260942
0.23347118 -0.22628102 -0.22541496 -0.04276263 -0.018149097 0.15337498 0.22834258 0.07122281
-0.18577877 -0.03210824 0.19511032 0.13909107 -0.19614805 0.018639017 -0.26359415 -0.111904085
0.18599428 -0.11114779 0.17685041 -0.22264859 0.28242937 0.13444299 0.15814017 0.08371426
0.025284763 -0.13618045 -0.15303981 -0.19046545 0.23150347 -0.082417026 0.008509603 -0.2560627
0.08092994 -0.09650027 -0.23664925 0.03440819 -0.2554989 -0.027427834 -0.22649595 0.17516202
-0.21808064 0.053990055 0.14069358 -0.22299732 0.18048176 0.23072807 -0.13773778 0.026841927
0.08410451 0.23983139 0.20096646 -0.23496483 -0.22325583 -0.24847427 -0.12207601 -0.052529525
-0.09951405 0.19027285 -0.19328952 -0.21026269 -0.20521924 -0.15478845 0.26513472 0.035024166
-0.058943342 -0.08968194 -0.20428926 -0.10302703 0.1461148 0.18744761 0.19270143 0.023884293
-0.15341644 -0.16235799 0.26954368 -0.25033614 0.056481883 -0.026186436 0.25778046 0.16868377
-0.05730542 -0.23362412 0.044228196 -0.1965944 -0.026708612 0.06944302 0.14345041 -0.07513153
-0.18722063 -0.23596689 -0.27435705 0.04528909 -0.16880615 -0.0028830043 -0.12406903 -0.1952359
0.18851447 0.17460667 0.1657377 0.26513186 -0.20503122 -0.16351552 -0.20435226 0.19521524
0.16474567 0.2248309 -0.21787524 -0.14836843 0.27392462 -0.21387409 -0.18471691 0.11363241
-0.25105897 -0.06529096 0.12608822 0.22793326 -0.031470865 -0.20911613 0.14491479 0.2765009

mlp_extractor.policy_net.2.weight f4 [256, 256]
00000000: 1fc9 3cbd e903 bfba f4dd 32bd 7629 01bd
00000010: bdce a93c a7ab ec3c 5331 d13c b562 72bd
00000020: b64b 7dbc 3eaf d73c 1026 c7bb c46c a0bc
00000030: 3380 05bd 02b3 703d 8910 4cbd 876f 48bd
00000040: 69d0 3b3d 3bc2 1cbd c76e 193d 9361 0ebd
00000050: 9666 0fbc 49e8 f9bc 793f 523d 7274 303d
00000060: ea8a 513b a200 9c3a 7bc0 c3bc 221a 0abd
00000070: 05c3 c4bc aa7f 073c bb77 6abc 10f7 473d
00000080: dd73 183c 0a20 cf39 5959 20bd c963 c73c
00000090: ffd3 6ebd 274d 743c fe01 bb3c b942 343c
000000a0: ef6c 353d c3be 703c 08fd a1bc 8566 34bd
000000b0: b8d9 6ebd fade ff3c 1f17 0a3d e002 29bd
000000c0: 8b81 cf3c a5cc bebc ed5b 563d a2f3 adbc
000000d0: 0270 1b3d f155 363d c198 0e3d f336 303d
000000e0: 8abb 073d 560c ae3c 01e7 5abd 1598 6ebc
000000f0: 01e2 e1bb f322 fa3c eed9 c0bc a92c df3c
00000100: ef8d 2c3d c317 da3c 5406 053d d26e 03bc
00000110: 1274 f33c 547a d4bc 04ca 5c3d 3112 b9bb
00000120: c791 81bb 94f7 50bd 5512 6e3d f112 0dbc
00000130: ddd9 3c3d 5fbd 28bd 6f70 57bd e6e6 1ebc
00000140: 386f 4bbd ab27 543c 2c05 783a 6ce5 d1bc
00000150: c6dd 1e3d a45f 1a3d 9bfb 4ebd 3a56 4ebd
00000160: 3271 153d 5bd2 1cbd aaa2 4a3c 713a 23bc
00000170: d712 4b3c 8e01 0cbd 68a3 8a3c 74c3 b2bc
00000180: f61e e4bc 0e73 e8bc 62ac 5f3c 8a20 063d
00000190: 09c7 cbba 968c 71ba 117b 543d 8219 4d3d
000001a0: d6b4 19bc 3148 44bd 61e9 693c 8a58 963c
000001b0: 5969 4cbd 7ac2 67bd 16f6 caba e02f 7b3d
000001c0: 031d 66bd 1e89 ffbc f417 cbbc 9517 62bd
000001d0: db5c 1cbd 5334 4a3d 9f0f 453d 564b 5ebd
000001e0: a6d6 ca3a 14c3 51bd f820 d23c bd0d 0dbd
000001f0: 63a2 03bd 0ad8 efbc 5d89 0f3c 0d55 2d3d
00000200: a4c3 d3bc 6706 443c 1ea2 3c3d 50fa 63bb
00000210: 2035 cc3b 8f38 d23b 4774 00ba 796e 183d
00000220: b241 093d 355e 0abd f917 733d 8317 133d
00000230: 6c61 23bc 4fde 6a3d 08d5 7f3b 8b08 233d
00000240: b064 5abd 4e87 643d 8d7d 6c3d c846 44bd
00000250: 2965 66bd bfbf 8bbc af21 1cbd c1da 823c
00000260: cc8b 733c 3a35 02bc 6560 323d 4d04 1f3b
00000270: 9fc4 9abc 3c40 59bd 04a5 a53c 76fc 6fbd
00000280: 6ca6 5cba dcbe 1d3c f11b 0ebd 6e57 9c3c
00000290: eef7 4c3c 5495 2c3d 6400 203d 4520 4cbd
000002a0: 9183 49bd ba1e b9bc 1f65 13bd 4601 9e3c
000002b0: e5fd 28bd 76b6 44bd 0aa7 973c cb3c 193d
000002c0: a56b edbc 64d7 7dbd 8cc6 153c 9079 043d
000002d0: 7bb7 463d 60ee cf3b e163 313d 1a30 45bd
000002e0: 7ba5 733d 06fb 43bd e30e 2dbd 855b 373d
000002f0: 217e 5ebc 37c4 1e3d 419a 52bd aaf8 823d
00000300: a786 713d ff8f 9d3c 9fd7 4f3d 5c5e 04bd
00000310: ebcc 6cbc eb52 9e3c 4fd8 143d 216e 07bd
00000320: ef12 243d d109 abbc 4a63 07bd 6246 433c
00000330: 4f2b 4dbd 3938 6cbd f7e1 383c 2ffd a63c
00000340: 1861 c93c eb56 0bbc 6bf5 39bd 1d64 4cbd
00000350: 9fb1 733d 8332 5fbd 6ec9 973c 0a0e 373d
00000360: c550 423d 1363 36bd 3c86 a3bc 4dc5 67bd
00000370: 2a50 243d ef80 71bd bc43 6abd f40a 22bd
00000380: 0115 523d edb2 243d 5acb 2c3d 0e2a 433d
00000390: 3e50 f1bc b120 e1bc 4a03 1cbd 792f d13c
000003a0: 1552 c53c 77f2 4e3c c881 43bd e0e5 ab3b
000003b0: 4f1a 09bd 17ce 36bc 327f 73bc 2d65 373b
000003c0: 7c2b 5fbd 1142 593d daa2 d6bc ea73 9d3c
000003d0: b203 2f3d ffa6 1f3d 878b 343d 69db 1b3d
000003e0: 141d 3d3d 7594 b23b 9a3e 223d 5f14 e1bc
000003f0: 57ae 08bd 77dd f13c 6ddd 883c 70cf 2dbb
-0.04609024 -0.0014573309 -0.043668702 -0.03153368 0.020728463 0.028890444 0.025536215 -0.059176166
-0.015459945 0.02632868 -0.0060775355 -0.019583113 -0.032592963 0.058764465 -0.049820457 -0.048934486
0.045853052 -0.03827117 0.03745916 -0.034761023 -0.008752486 -0.03050627 0.051330063 0.0430798
0.0031973668 0.0011902044 -0.023895493 -0.03371633 -0.024018774 0.008270184 -0.0143107725 0.0488196
0.009304968 0.00039505988 -0.03914771 0.024339573 -0.058307644 0.014910973 0.022828098 0.011002236
0.04429334 0.014693919 -0.019773975 -0.044043083 -0.0583131 0.031234253 0.033713456 -0.041262507
0.025330326 -0.023290941 0.05233376 -0.021234337 0.037948616 0.044515554 0.034813646 0.043021154
0.033137836 0.021246117 -0.05344296 -0.014562626 -0.006893397 0.030534243 -0.023541417 0.027242975
0.042127546 0.026622659 0.032476738 -0.008022027 0.029718433 -0.025937237 0.053903595 -0.0056479205
-0.0039541456 -0.05101736 0.05812295 -0.008610473 0.046106208 -0.041196223 -0.05259746 -0.009698605
-0.049666613 0.012948911 0.000946122 -0.025622092 0.03878572 0.037688866 -0.05053292 -0.0503752
0.036484905 -0.038286548 0.012367884 -0.009962664 0.0123946285 -0.03418117 0.016923621 -0.021821715
-0.027846795 -0.028375175 0.013651939 0.032745875 -0.0015546988 -0.00092143693 0.051875178 0.050073154
-0.009381494 -0.04792041 0.014276833 0.018352766 -0.049905155 -0.05658195 -0.0015484716 0.061324954
-0.05618001 -0.031193312 -0.024791695 -0.05519827 -0.03817449 0.049366307 0.0481106 -0.054271065
0.0015475347 -0.05121143 0.025650486 -0.03443693 -0.032137286 -0.02927782 0.008760777 0.04231744
-0.025850125 0.011964417 0.046053044 -0.003478665 0.006231919 0.0064154337 -0.0004900139 0.03721473
0.033509918 -0.03378125 0.059349034 0.035911094 -0.009971958 0.057340916 0.0039036889 0.03980307
-0.05331868 0.0557931 0.057736922 -0.047919065 -0.056248818 -0.017059205 -0.03811806 0.01597345
0.014864873 -0.0079472605 0.04354896 0.0024264038 -0.018892584 -0.053039774 0.020220287 -0.058590375
-0.0008417133 0.009628024 -0.034694616 0.019084658 0.012510283 0.042134598 0.039062873 -0.049835462
-0.049197737 -0.02259766 -0.03598511 0.019287717 -0.041257758 -0.04802557 0.018512268 0.037411492
-0.028981993 -0.06197299 0.009141576 0.032342494 0.048514824 0.006345555 0.043308143 -0.048141576
0.059483986 -0.047846816 -0.042250525 0.044765014 -0.013579876 0.038761344 -0.05141664 0.06395085
0.058966305 0.019233702 0.05074274 -0.03231655 -0.014453153 0.019326648 0.0363391 -0.03306401
0.04005712 -0.020878704 -0.033053674 0.011918636 -0.05009013 -0.057670806 0.011284343 0.0203844
0.02458243 -0.00850461 -0.045400064 -0.049900163 0.059495565 -0.05449153 0.018528666 0.044691123
0.04744031 -0.04452808 -0.019961469 -0.056584645 0.040115513 -0.05896085 -0.057193503 -0.039561227
0.051289562 0.0402097 0.04218612 0.04764753 -0.029457208 -0.027481409 -0.038089074 0.025535332
0.024086991 0.01263105 -0.04773119 0.005245909 -0.033472355 -0.011157534 -0.014861869 0.002798389
-0.05448483 0.05304152 -0.0262007 0.019220311 0.042728133 0.03897762 0.044078376 0.038051043
0.04617031 0.0054498264 0.039610483 -0.027475534 -0.03336939 0.029524548 0.016707147 -0.0026521347

mlp_extractor.policy_net.2.bias f4 [256]
00000000: beab 2abd eadf b03a 0179 fb39 6789 73bd
00000010: f32c 5abd 614e 2bbd b494 6abd ebd9 4dbd
00000020: f5cd 1a3d fa75 18bd 7440 723d 7fa7 53bd
00000030: 6625 61bc e434 f6bb 64ed 4e3d cb33 f33c
00000040: f86b 243c b941 eabc 6179 053d 3c25 3abd
00000050: 13ea 553c 3a9b 1e3d 4630 973c a0c4 1a3d
00000060: 5800 6abc 6786 523d 097c 393b 2654 043d
00000070: f444 1a3b 7457 0c3c 03f9 41bd cd90 1b3d
00000080: 28c6 75bd f0a9 dbbc ba42 3a3c 2457 b53c
00000090: b390 0fbd d0ce c1bc d8ee cabc e622 7dbd
000000a0: f202 60bd 4824 993c a0b5 a73b be2f a1bc
000000b0: 52b7 f33c 0be4 ab3c e7bb 60bd b5ea 29bc
000000c0: 1ab4 ef3b 9863 85bc 9e85 3f3d 9cc3 20bd
000000d0: f20f 053d aaa8 0b3d a668 40bd 611b 4abd
000000e0: 7c51 083d 67fa f0bc 68cd 3a3d 673f 893b
000000f0: 62f9 debb f1d9 553d acf7 76bc 0658 803b
00000100: 931d 2bbd 19e9 8abb 52c8 6a3d e6ec 603d
00000110: 2bd4 cdbc a58d d9bc 35f9 5e3d dbe0 503d
00000120: cbb3 22bc 1fd7 b5bb a0de 37bd 628d 56bd
00000130: 3ad5 6b3b 4963 47bd 34a1 dc3c 5b9b 4a3d
00000140: 65a4 d7bc 342e 25bd 1287 73bd fe04 a4bb
00000150: 5889 e4bc dd16 813d d66e ff3c 0d57 4e3d
00000160: 416e 5c3d 11e6 cb3b 9faa 18bd b3e3 52bc
00000170: 4b6e 4cbd 5ce4 10bd 6b4a 61bd 47e3 673c
00000180: b514 4bbd 23e3 5cb9 318d 393d 8b5b 01bc
00000190: 0e97 443d 88ac 243c d072 89bc 5477 933c
000001a0: 0b5d 673d 5181 003d a4e7 55bd 1247 79bc
000001b0: df7b a4bc c868 eebc 00a2 99bb 5579 6ebd
000001c0: 4009 413d c6ce 2bbd 6968 fd3c e437 a13c
000001d0: dc27 983c 1fe7 46bd fba6 35bd 1fd2 48bd
000001e0: 411f 203d da56 293d 49ae 653c 8066 bb3c
000001f0: 97ff db3c 21ab ac3c a964 05bd 73bf 5f3c
00000200: e0aa 56bc 3f43 e83c c8e0 413d 5dc5 8f3c
00000210: 79f1 79bc 3374 453d 7f8f 4d3d fe27 ccbb
00000220: 4d23 453d 6fbd 1dbd d5ce 043d 55d1 a839
00000230: 78d4 27bb a66e 91bc a6bd 763d 4a7e 48bc
00000240: 609b 33bd 87b3 e5bc aa9e bfbc 9ae5 213d
00000250: 8bb1 573d cbfa 8e3c 3bce 28bc a9ae f13a
00000260: fb40 93bb da3e 7dbd 5714 a7bc 12d5 463d
00000270: 2a81 0b39 3872 41bd 70d6 6cbd 8e0e 943a
00000280: b57c c8bc a100 0cbd a6e6 8bbc 00c8 473d
00000290: 6be7 213d 8f04 b9bc a2cb 5e3d 568b 4c3d
000002a0: 9fd8 8a3c 092f bf3c 6895 cdbc cab0 3b3d
000002b0: 674a 5bbd 4856 4bbd dff3 55bd 59ea 16bd
000002c0: f2cd 8fba c8d5 aabc 241f 1ebd 91c2 2b3d
000002d0: b4f5 803c 9542 e43c d622 48bb 3fb0 f83b
000002e0: f953 b53c 33ab 95bc c966 aebb 27fc b4bc
000002f0: ea86 13bd 6091 213b 9747 0a3d 6d51 c0bc
00000300: c58e df3c 2495 f63c de6a a8bc 94d3 4abd
00000310: acc8 2b3d 43d2 373d a7dd fbbc ebe3 aebb
00000320: e1cc ff3a 634c 19bd cc1a 88bc eb02 e8bc
00000330: a0d2 7a3d b1d4 4b3d d606 04bc 9f85 b73c
00000340: 1855 14bc 4427 103d 0e40 ff3c c783 a4ba
00000350: 8f96 393d de09 16bd 73b3 4c3c 5067 32bd
00000360: 1e96 44bd 6d9e 773c 8e6f ff3c f80d 273d
00000370: efa3 0bbd f4f4 023b 7ad1 c3bc 03b1 093d
00000380: d543 393d 011d c73c 6a89 f0bc eb4c 593d
00000390: cd5d 983c e3ac 923c 2390 913b 1a87 203b
000003a0: 1185 683d 21c8 0f3d 9011 173d 7fa1 56bc
000003b0: d734 783d fb67 503d 460e 81bc f86f b4bc
000003c0: 54ed 58bd e5ac 493d 555d 85bc cc82 8c39
000003d0: e12b d8bc c5fc 3a3d b319 0abc 3083 30bd
000003e0: f2c5 85bc eb19 0f3c d058 e6bc c927 c03c
000003f0: f260 62bd f66c 913c b5f5 0ebd d4a8 373c
-0.041667692 0.0013494466 0.00047964606 -0.05945721 -0.053265523 -0.041822795 -0.05727072 -0.05025665
0.037794072 -0.037221886 0.0591435 -0.05167341 -0.013741827 -0.0075136293 0.050519362 0.029687783
0.010035507 -0.028595792 0.03258646 -0.045445666 0.013056296 0.038722254 0.018455636 0.037785172
-0.0142823085 0.051397707 0.002830269 0.032306813 0.0023539634 0.008565772 -0.047356617 0.03797989
-0.06000343 -0.026814431 0.011368448 0.022136278 -0.035050105 -0.023658186 -0.024772093 -0.06180086
-0.05469031 0.018694058 0.005118087 -0.019676086 0.0297505 0.020982763 -0.054866698 -0.0103709
0.007315171 -0.016282842 0.046758287 -0.039249048 0.03248591 0.034096397 -0.0469748 -0.049342517
0.033280835 -0.029416276 0.045606047 0.0041884664 -0.006804631 0.0522098 -0.015073698 0.003916743
-0.04177625 -0.004239213 0.057319947 0.054913424 -0.025125584 -0.0265568 0.05443688 0.05099569
-0.009930561 -0.005549326 -0.044890046 -0.052380927 0.0035985247 -0.04867867 0.026932336 0.049464565
-0.026323507 -0.040327266 -0.059454985 -0.005005478 -0.027897522 0.06303189 0.03118078 0.050375987
0.053816084 0.0062224944 -0.037272092 -0.012871671 -0.04990987 -0.03537403 -0.05500261 0.014153308
-0.049580295 -0.0002106545 0.045300666 -0.007895361 0.04799562 0.0100509 -0.01677838 0.018001236
0.056485217 0.031373326 -0.052222863 -0.015214698 -0.020078598 -0.029102698 -0.0046885014 -0.05822118
0.047127962 -0.04194524 0.030933576 0.019679971 0.018573694 -0.048560258 -0.044348698 -0.049028512
0.039092306 0.041342594 0.014018604 0.022876024 0.026855273 0.021077694 -0.0325667 0.013656485
-0.013102263 0.028352378 0.04733351 0.017550165 -0.0152553255 0.04820652 0.050185677 -0.0062303534
0.04812937 -0.038510736 0.032423813 0.00032199422 -0.002560882 -0.017752957 0.060239457 -0.012237141
-0.04384935 -0.028039707 -0.023391087 0.039525606 0.052659553 0.017453572 -0.010303075 0.0018438894
-0.0044938303 -0.061827518 -0.020395441 0.048543043 0.0001330419 -0.047228068 -0.05782169 0.0011295842
-0.024473527 -0.034180287 -0.017077755 0.04877472 0.039527338 -0.022585182 0.054393418 0.04993757
0.016948996 0.023337858 -0.025095657 0.045822896 -0.053537752 -0.04964283 -0.052234527 -0.036844585
-0.0010971411 -0.020853892 -0.038603917 0.0419336 0.01574216 0.02786378 -0.0030538342 0.0075893695
0.022134768 -0.01827011 -0.0053223115 -0.022092892 -0.036017336 0.00246533 0.03375968 -0.023476327
0.027289758 0.030100413 -0.02055877 -0.049518183 0.041939422 0.044878256 -0.03074534 -0.0053372285
0.0019516015 -0.037426364 -0.01661434 -0.028321704 0.061236024 0.049763385 -0.00805827 0.022402583
-0.009053491 0.035193697 0.031158473 -0.001255148 0.0453096 -0.036630504 0.012493956 -0.043555558
-0.047994725 0.015113455 0.031181123 0.040784806 -0.034091886 0.001998243 -0.023903597 0.033616077
0.045230705 0.024305822 -0.0293624 0.05305187 0.018599415 0.017904704 0.0044422313 0.002449459
0.056767527 0.035102967 0.036881983 -0.013100027 0.060597267 0.050880414 -0.015753876 -0.022026047
-0.05296071 0.04923715 -0.016279856 0.00026800332 -0.02638811 0.045651216 -0.008428979 -0.04309386
-0.01632974 0.008734207 -0.028118521 0.023456471 -0.055268236 0.017752152 -0.034902293 0.011209685

action_net.weight f4 [7, 256]
00000000: 8c56 8d3b a770 2b3d 2b1e 6abd 8b50 94bc
00000010: f361 80bc e765 2cbd 2611 3d3d 2ef9 55bd
00000020: 87b3 7ebb 3043 8cbb 51b4 1f3d 705b 58bd
00000030: 2a6b ef3c feba 36bd 8541 f0bb fa76 58bd
00000040: d14a a73c 6e3a 2d3c 8eb3 afbc db5d 4ebd
00000050: 7129 743d 06d4 08bc 0f52 c63c 147b 143d
00000060: aec7 bc3c bb2e 1b3d 95a1 ff3c b3ea 573d
00000070: d3ac 463d c833 053d 831d 3cbd 560a af3c
00000080: 4990 4a3d bee9 fb3c 5ff8 fdbc 0615 dabc
00000090: bcb0 513d 7bcc febc 645f 2cbd 15c1 6d3c
000000a0: 6976 ffbc 4005 cdbc 6fe6 baba 4519 633a
000000b0: 8e66 9e3c 84a7 293d e8c6 043d 95e3 2e3d
000000c0: 4603 133c 1ff1 46bd 83af aa3c cdcc 923c
000000d0: d916 39bc 4bac 823c 9563 86ba 0b9a b2bc
000000e0: 1983 a03c 9d88 20bd d202 943c efc3 24bd
000000f0: b51a 133d 4626 49bd 6b4d 00bd 4afc 35bc
00000100: 9335 1ebd 7a20 483d 22fc 04bd 7a45 0dbd
00000110: deab c73b 9ec1 55bd 7be7 adbc b7d2 203d
00000120: 63e1 233d 2274 28bc 5bd8 153d 616f dcbc
00000130: 6c30 453b 9fb2 193d 5720 32bd 1edf 73bd
00000140: 2cf3 2b3d 54fe 373d bf7b edbc 0601 c73c
00000150: 5b77 393d 9383 57bd 79a0 283d 392d ce3c
00000160: 78c6 0f3d 47b0 81bc 63e5 313d e7c9 943c
00000170: f399 b0bc 1756 06bd 61da 3c3c 1af4 9fbc
00000180: 28f1 f03c a1ad fc3c a917 32bd 6f49 03bd
00000190: ee9c 1bbd c0c6 4f3d 8ecb 9038 c4a9 7abc
000001a0: 9b9f 35bd 8b15 353d 36a4 52bc b681 abbc
000001b0: f7e3 4cbd a5ab 313d ab69 d33b 8d79 433c
000001c0: e3d9 363c 515f 733c 7b6c 61bd 3666 6f3d
000001d0: 7ae8 95bc 9b00 e03c d646 d2bc db7c af3c
000001e0: 2c9d 9b3c 319b 83ba d2af ea3a 8583 2fbb
000001f0: ce1e e6bc 7824 5c3d 9aff 67bd 806d 083d
00000200: 098b 4fbc 9b48 5e3d acb4 52bd 29cc 7e3c
00000210: ecb6 f3bc 4097 d6bc c023 f2bc 6fd5 43bd
00000220: 84c0 803c 9962 fd3b f844 053d 9296 c6bc
00000230: 5dd0 1ebc 9f11 1bbd 46f4 083d b2ff a73c
00000240: ed7e eabc 079a 7d3c 7220 4bbd 58e0 5d3d
00000250: e565 f7bc 8f16 0d3d 50db 32bd 16c6 52bd
00000260: b337 d63b acc6 21bc 119c c13c dbe9 163d
00000270: e26e 683d 7ab1 b53c cead 35bc 2ec2 9f3c
00000280: 97e8 65bd fd9c 803c ae16 bb3a d98d 3fbd
00000290: da7e 033d 1ce8 2cbc aa3a 7fba fe22 4abc
000002a0: 52b1 02bc e11d fb3c 960f 653d 7834 1fbc
000002b0: 62d8 a0bb cba9 0fbd aa2f 8abc 3ac5 333c
000002c0: 2934 473d 2237 5f3d 27cf 2d3c ffcd 003c
000002d0: 8235 2abb fbea 28bd ebd2 ba3c 27f2 71ba
000002e0: 6734 eabc 1108 e73c fd39 553c 2cda eb3c
000002f0: ecf8 473c 8fd6 123d d993 0abd 7b59 37bd
00000300: 6184 c0bc 425e 0d3d a7e9 93bc ef93 3a3d
00000310: 6670 e53c 45dd aabc 9709 fcbc 484a 6c3c
00000320: 75b1 493c eb05 213c ddf2 7bbc ca71 ea3c
00000330: 2f33 7abb 1398 e13c e2ed 0d3d 2adf d73c
00000340: a762 c2bc a066 f43c 9db5 ba3c d329 1ebd
00000350: 5f96 503d 593b 71bd b73b 2b3d 309c a9bb
00000360: 12b7 2e3d 8082 4b3d 0fac 4b3d d657 d0bc
00000370: 90e5 5fbc 7bc3 6d3c ad6a 23bc d504 7cbd
00000380: f108 87bc 1714 49bd dc31 12bb 3633 7d3d
00000390: 7256 583d 7ab9 523d 2416 f239 4b15 55bd
000003a0: 5f24 90bc 4d5d 1a3d 8c7a 0f3c 0257 e73c
000003b0: e3ac 4639 0087 df3c 7ba9 63bd 137a d3bc
000003c0: aec4 423c af80 843c eec9 293c 1dba adbc
000003d0: 37dd 053d 1c99 723c f149 ac3c b9bb 213d
000003e0: 46a1 60bc 538f 353d 2d4c 453c 65b9 6dbd
000003f0: 17c8 203d 6f0a 413d a2e6 a43b 3ecc 6d3d
0.0043132957 0.04185548 -0.057157677 -0.018104812 -0.015671706 -0.04208937 0.046158932 -0.05223959
-0.003886433 -0.0042804703 0.038990323 -0.052821577 0.029225904 -0.044611923 -0.0073320293 -0.05284784
0.020421417 0.010573013 -0.021447923 -0.050382476 0.059609834 -0.008351332 0.02420905 0.03625019
0.023044433 0.037886363 0.031204978 0.05271406 0.04850466 0.032520086 -0.045926582 0.021367233
0.049454007 0.030751105 -0.031002222 -0.026621353 0.051193938 -0.031103363 -0.04208316 0.014511366
-0.031184392 -0.025026917 -0.0014259348 0.0008663128 0.019336011 0.04141952 0.032416254 0.042697508
0.008972948 -0.048569795 0.020835644 0.017919922 -0.011296951 0.015951296 -0.0010253066 -0.021801969
0.019593762 -0.039192785 0.018067751 -0.04022592 0.03591414 -0.049108766 -0.03132383 -0.011107514
-0.03862531 0.048859097 -0.032467015 -0.034490086 0.006093486 -0.0521866 -0.021228543 0.039263453
0.040009867 -0.0102815945 0.036583286 -0.026908578 0.0030088676 0.037523862 -0.043487873 -0.059538953
0.041979954 0.04492028 -0.02898967 0.02429248 0.045279842 -0.052615713 0.041168664 0.025168048
0.035101384 -0.015831126 0.04343165 0.01816268 -0.021557784 -0.032796945 0.011526675 -0.019525576
0.029411867 0.030844511 -0.043479595 -0.032052454 -0.037991457 0.050726652 6.90437e-05 -0.015299264
-0.044341665 0.044209998 -0.012856534 -0.020935874 -0.05002209 0.043376584 0.0064518056 0.011930835
0.011160347 0.014854268 -0.055035096 0.058447085 -0.01829933 0.027344039 -0.025668543 0.02142184
0.018995844 -0.0010040757 0.0017905182 -0.0026781273 -0.02809086 0.053745717 -0.056640245 0.033307552
-0.012667426 0.05426846 -0.051441833 0.015551605 -0.02975031 -0.026195168 -0.029558063 -0.047810968
0.015716799 0.007732701 0.032536477 -0.02424172 -0.009693232 -0.0378586 0.033436082 0.020507667
-0.028624976 0.0154786175 -0.04959149 0.05416903 -0.030199954 0.03444534 -0.043666184 -0.05145844
0.0065374016 -0.009874027 0.023633989 0.036844116 0.05674637 0.022179354 -0.011088802 0.019501772
-0.056130018 0.015699858 0.0014273727 -0.046766136 0.032103397 -0.010553386 -0.00097362197 -0.012337444
-0.007976847 0.030653896 0.055923067 -0.009717099 -0.0049086073 -0.035074037 -0.016868431 0.010972315
0.04863373 0.054495938 0.010608471 0.007861613 -0.0025971835 -0.04123972 0.022805652 -0.0009229504
-0.02858944 0.028202089 0.013014314 0.028790556 0.012205344 0.03584915 -0.033832405 -0.04476307
-0.023500623 0.03451372 -0.01805575 0.045551237 0.028007697 -0.020857463 -0.030766292 0.014422007
0.012310375 0.009828071 -0.015377727 0.028618712 -0.003817748 0.027538335 0.03465069 0.02635153
-0.023728682 0.029834092 0.022791678 -0.038614105 0.050924655 -0.05889449 0.041804995 -0.0051760897
0.04265506 0.049685 0.049724635 -0.025432508 -0.013665572 0.014511938 -0.009974164 -0.061528046
-0.016483756 -0.049091425 -0.002230755 0.061816417 0.052816816 0.051446415 0.00046174333 -0.05202226
-0.017595468 0.037686635 0.008757245 0.02823973 0.00018947157 0.027286053 -0.05558155 -0.025815045
0.011887712 0.016174642 0.010363085 -0.02120691 0.03268167 0.014807012 0.021031352 0.039485667
-0.013710326 0.044326138 0.0120420875 -0.058038134 0.03925332 0.04712909 0.0050323764 0.05805611

action_net.bias f4 [7]
00000000: 621b cc3c 347c b0bc d61a 74bd fe3e babc
00000010: fe74 8fbc e210 583d 932e 703c
0.0249154 -0.0215436 -0.059595905 -0.022735115 -0.01751184 0.052750476 0.014659542
