backend/bc_policy.pt (torch, 25389 bytes, 6 tensors)

mlp_extractor.policy_net.0.weight f4 [64, 13]
00000000: 4822 593e 46ba 6b3e e011 85bd 1f72 823e
00000010: 48e8 78bd 503d 653d 1e45 0abe c6ca 263e
00000020: 2a5d 7a3e ec5a 50be 7edb 763e 289e 543d
00000030: 96d3 513e 318c a03d cef1 083e a7dc 38bd
00000040: c4ef 5a3e b388 af3d 5771 13be 78d7 813d
00000050: 3acd 0abe b728 17bd 9645 febd 0a9e 303e
00000060: b48e 74be 3e7a 0fbe 0f34 52be eac3 2abe
00000070: 7e83 83bd ef40 8cbe c064 4b3e f1ba 98be
00000080: 63fe 9a3e 484c 8b3c 2fc2 08be 7c8d f03d
00000090: b767 2fbc 64f7 fd3d 0a8d f93d 696e 97bd
000000a0: a89d 983d f1c3 69bd 740d ef3d 1600 7c3e
000000b0: cdd2 403e e05a cabd 64d8 353e edd1 8b3d
000000c0: 525c 243e a2f8 18be f70c 80be 9ffa bcbd
000000d0: 82fe 57bd d209 693e bd16 5e3e 5847 eb3d
000000e0: d5d5 633e dbae 953e 1b8d dc3e 4190 53be
000000f0: f610 2d3e a76a 17be d200 023e 57a6 c8be
00000100: 736c 983e 6cae 6cbd 7a8d 6b3e c954 28be
00000110: 8361 29be 2164 29be 9672 7f3e 7c4a bd3d
00000120: 89a4 883e 4262 6abe 82d9 8cbe 4732 5ebe
00000130: 4e0c 3fbe 6c11 e63d 90e1 5b3e eafc 6b3e
00000140: f833 97bd 4f9c 41be 6d15 bc3e 12c8 6dbe
00000150: 6bf5 8a3e c0d5 91bb cc5e 5b3e b604 2fbe
00000160: 415b c3bd 4c05 843e 574d 213e e4d1 90bd
00000170: a049 293e fa11 413e 36f4 4dbe 3e9f 17be
00000180: e706 823e 82aa bfbd b25e c9bd ce66 89be
00000190: 5ea4 22be 48e4 8d3d 9cf2 15bd 0628 4ebe
000001a0: 082e 9f3d e5ff 41be 9b63 2ebe 4b64 1cbe
000001b0: fd3f 22bd eb4e 46be 4e1a e33e 7966 b83d
000001c0: 4734 153e 0dea 5bbe ca8d 0dbe 4877 8fbd
000001d0: dbbd 273e 44e7 79be d2bd f4bd 9806 2abe
000001e0: 007c 493a 065c d3bd 9071 9dbc 8473 40be
000001f0: d1f0 42be 9eb0 25be ec6d c2bd 3129 60be
00000200: 8221 6e3e d875 61bd 61b5 3e3e 90fb b03d
00000210: b7da 20be e08a 443e 374d 073e fa4f 923d
00000220: db68 cdbd ddb2 9dbe 3b3d c33d f026 ac3c
00000230: f820 423e 4fe8 9bbe ca03 933e fc30 64bd
00000240: 5429 44bd 17e2 163e 6e9e 123e d4c0 843e
00000250: d3c4 bd3e 89b5 8ebe e5f3 f53d b061 1ebd
00000260: 7a0c 6d3d d961 f4bd c165 b63e 3f3b b1be
00000270: 7e51 143e 4c9f c73d 4497 b33d 0a8c 19be
00000280: 1fdb 833e acee 363d a183 f33c d7d3 7fbe
00000290: 4a5e e23d 6b99 46bd 3727 09be 2dc7 5d3e
000002a0: afb2 833d c01a fdbd 2bbf 0fbe 8c83 9f3d
000002b0: 0894 1e3e d70c e33d f221 553c 058f 07bc
000002c0: 050d 85be 0a8f f53d ca3d 9c3e 96b9 2ebe
000002d0: 2aab fb3d dd66 bc3d 1500 d93d 8e48 cabd
000002e0: b9a7 2d3e c83f 153e 0068 833e abc0 2bbd
000002f0: 1d4f 48be f622 493c aed4 9cbd 57eb babd
00000300: a8b6 2c3e ae05 653e 2c3b c4bd 6de8 41be
00000310: 409e 843b 0ac4 aebd 888e 883d d897 12be
00000320: c368 dcbe 1dd6 44be 7355 7c3e 375f 963d
00000330: cd5e 4fbd 27f2 50be 8ce8 69be 2ddc 66be
00000340: 2144 afbd 04d2 bf3d 3f32 363e 0220 033e
00000350: e01a 77be f585 26be 32e2 10bd 265d 923e
00000360: 9ac3 6c3d c1cb 5ebd 2559 073e cfed d5bd
00000370: c119 33be f04a 4f3e 6523 01be 44bc 63bd
00000380: f443 8dbe c413 3e3e 542c 573e e402 cf3d
00000390: c907 46be 1026 8cbe 03aa 66be a2c8 533e
000003a0: 685a 083e 22fe 6e3e 4ec8 143e 78c2 8f3d
000003b0: 00ff 31bb 18fd 57be 3154 73be 92d2 84be
000003c0: dc85 e83d 2770 0bbe d0a0 64bd 7e72 23be
000003d0: bc02 4fbd c8e4 47be 0693 39be 846a bc3d
000003e0: b8cf a8bd 5854 2f3e 3a39 b6bd 7e56 50be
000003f0: 7070 48bd e2ab 09be 60c7 adbd bd2f 87be
0.21204484 0.23020276 -0.0649755 0.25477692 -0.060768396 0.055966675 -0.13502929 0.1628829
0.24449602 -0.20347184 0.24107167 0.051908642 0.2049087 0.078392394 0.13373491 -0.045132305
0.21380526 0.08570995 -0.14398704 0.063399255 -0.1355485 -0.036904063 -0.12415616 0.17247787
-0.23882562 -0.14011475 -0.20527671 -0.16676298 -0.064215645 -0.2739329 0.19862652 -0.29830125
0.30272207 0.017004147 -0.13355325 0.11745736 -0.01070588 0.12400702 0.12185104 -0.07394106
0.074519455 -0.05707163 0.11672488 0.24609408 0.18830414 -0.09880614 0.17758328 0.068271495
0.16050842 -0.14938596 -0.2500989 -0.0922749 -0.052732952 0.22757652 0.21688361 0.11488217
0.22249539 0.29234967 0.43076405 -0.20660497 0.16901001 -0.14786778 0.12695625 -0.39189407
0.2977024 -0.05778353 0.23003188 -0.16438593 -0.16541104 -0.16542102 0.24946055 0.092427224
0.2668803 -0.22889045 -0.27509695 -0.21698867 -0.18657038 0.11233792 0.21472764 0.23045698
-0.07382959 -0.18907283 0.36735097 -0.23220852 0.27140364 -0.00445053 0.21422881 -0.17091641
-0.0953889 0.2578529 0.15752159 -0.070712835 0.16531992 0.18854514 -0.2011269 -0.1480684
0.2539589 -0.09358694 -0.09832515 -0.26836246 -0.15883014 0.06928307 -0.036608323 -0.20132455
0.07772452 -0.18945272 -0.17030184 -0.15272634 -0.039611805 -0.19366042 0.44356006 0.0900392
0.14570723 -0.21476002 -0.1382362 -0.07005173 0.16381018 -0.24404627 -0.11950268 -0.16604078
0.0007686019 -0.103202865 -0.01921919 -0.18794066 -0.19037177 -0.16180655 -0.09493622 -0.21890713
0.2325497 -0.055044025 0.18623878 0.08641732 -0.15708433 0.19193602 0.13213049 0.071441606
-0.10029765 -0.30800524 0.09533163 0.02101466 0.18957889 -0.30450675 0.28713828 -0.055710778
-0.047890976 0.14734684 0.14318249 0.25928366 0.37064227 -0.27872875 0.1200941 -0.03866738
0.057873227 -0.119327255 0.35624507 -0.34615514 0.14484212 0.0974718 0.08769086 -0.14994827
0.25753114 0.04466121 0.029725851 -0.24983154 0.110531405 -0.048486155 -0.13393866 0.21658011
0.064305656 -0.12358618 -0.14037769 0.077887625 0.15486157 0.110864334 0.0130085815 -0.008273845
-0.25986496 0.11990173 0.3051589 -0.17062983 0.12288506 0.09199307 0.10595719 -0.0987712
0.16958512 0.14575112 0.25665283 -0.04193179 -0.1956143 0.012276402 -0.07657753 -0.09126919
0.16866553 0.22365448 -0.09581599 -0.1893632 0.004047185 -0.08533485 0.06667811 -0.14315736
-0.43048677 -0.19222303 0.24641971 0.073423795 -0.05062752 -0.20404874 -0.22842616 -0.22544928
-0.085579164 0.09366229 0.17792605 0.12805179 -0.24131346 -0.16262038 -0.035371967 0.28586692
0.057803728 -0.054393534 0.132176 -0.10445749 -0.17490293 0.2024343 -0.12611158 -0.055599466
-0.27590907 0.18562227 0.21013004 0.10107973 -0.19338907 -0.2737279 -0.22525792 0.20682004
0.13315737 0.23339131 0.14529535 0.07019514 -0.0027160048 -0.21092641 -0.23762585 -0.25941902
0.11353657 -0.13617001 -0.055817425 -0.15961644 -0.050539717 -0.19520867 -0.18122491 0.09200004
-0.08242744 0.17122018 -0.08897634 -0.20345494 -0.048935354 -0.13444474 -0.084852934 -0.2640361

mlp_extractor.policy_net.0.bias f4 [64]
00000000: 7cd0 78be 5464 22be 7015 95be 4cf8 1f3e
00000010: 3263 2ebd b04d bdbc 30d2 083e 66bf 1bbe
00000020: c3fd 173e c1a7 8abe a1c2 f6bd 41eb 16be
00000030: 4499 b5bd 371f 20bc 4a2e 843d 64e5 f5bd
00000040: 8c08 0b3e 1b30 823e 4ccc cb3d 56c7 dfbd
00000050: cd41 91be 6a78 cd3d 98b6 0cbe 1f97 233e
00000060: fe31 433e 2018 db3d 1a19 bf3e 1096 783e
00000070: 8166 513d f7b2 45be 9699 6d3e e2a0 ebbd
00000080: 9b95 7fbe 3667 5e3e 1a0d 5c3e cd78 953d
00000090: 14cc 4c3c 86e5 6ebe cd57 1ebe f532 883e
000000a0: f8ef ae3d 5429 a93d d0aa 71bd e61c c6bd
000000b0: 93fc 623e 301d 8c3c 7abe 373e 3d70 77bd
000000c0: cce6 ed3d dc01 e93d ef1b d23c 4876 323e
000000d0: d4cb 303e 49a0 833e 09ea 5c3e 17e8 54be
000000e0: 9321 6dbe d0e9 803d 00a6 1ebb a1ca b2bd
000000f0: 3170 abbd eb2d 033d 0515 523e 22cc 263d
-0.2429828 -0.15858585 -0.29117918 0.15622061 -0.04257507 -0.023108333 0.1336143 -0.15209731
0.14842896 -0.2708111 -0.12048841 -0.1473818 -0.08867124 -0.009773067 0.064541414 -0.120066434
0.13577479 0.25427327 0.09951076 -0.10926692 -0.28370515 0.10032733 -0.13741529 0.15975617
0.1906204 0.10697961 0.37323838 0.24275994 0.051123146 -0.19306551 0.2320312 -0.11505295
-0.24959414 0.2171906 0.21489373 0.072984315 0.012499828 -0.23329744 -0.15463181 0.26601377
0.08541864 0.08259836 -0.05900079 -0.09673481 0.22166662 0.017103761 0.17943755 -0.060409773
0.11616287 0.11377308 0.025648085 0.17427933 0.17265254 0.25708225 0.21573652 -0.2079166
-0.23157339 0.06294596 -0.002420783 -0.08730055 -0.08371008 0.032026213 0.20515831 0.04072202

mlp_extractor.policy_net.2.weight f4 [64, 64]
00000000: 8094 32bd 39bf 5abd b071 43ba 659c 42bd
00000010: f630 973d 9df9 853d 5a4d f33d aee9 cbb9
00000020: e375 1f3d b850 2e3d db94 4cbe d2e0 003c
00000030: 9dea 15bc 350c 05be 534f b3bd 5064 463e
00000040: 4ec2 d13d 5811 6a3d 80ac f23d 7800 53bd
00000050: 9964 b7bc e09f 3e3d 01a6 afbc 3e6c 84bd
00000060: 3305 f8bd 8c53 063d 8075 96bd 429e 6a3b
00000070: 4b06 f83d f8e8 8cbd ff71 1fbd 5ef3 9b3d
00000080: c2b4 40bb a51d 3fbc 466c ed3d 7993 54bd
00000090: c9c1 b8bd 9aa7 8dbd e790 27bd e42b 76bd
000000a0: 0e3b 83bd 409d da3b 79d0 813d 8819 27bd
000000b0: cb51 0bbe bc6f 24bd 6aa3 1cbd 4560 20bd
000000c0: f528 e9bd 9124 d63c 29b7 bdbd 2cc2 c5bd
000000d0: 0624 82bd bced 583d 3381 98bd 2150 35bc
000000e0: 00a8 3e3e 1f88 893d 8e2c 913d 0cb0 f4bd
000000f0: 1fd7 d5bc 2731 95bd 5718 d53d a6ee be3d
00000100: 38b3 99bd 545f 91bc c4dc e6bd 869b 12bc
00000110: 208e 34bd 08d9 b73d 114d 4d3c 16cd 24bd
00000120: 4323 10bc e351 5fbd 806e 833d 0ef7 933d
00000130: d4e3 773c 5cbc 30bd c9a2 113e 0e88 3cbd
00000140: 2f9d f7bc 4a26 753d 96e4 aa3d d2ff d83d
00000150: 684b 983c 8f0f 7abd 8184 383d ea16 a23d
00000160: d57d bcbd 07f4 0abd 0244 d2bd e5ec 9e3b
00000170: 3a38 083d 1229 6cbd 363c edbc 2b06 993d
00000180: 4d8c 07bd 5de7 fcbd be12 a73d 2380 a6bd
00000190: 5bc5 03bd f1a2 f73c f8fe 5c3c e249 0bbe
000001a0: e536 9b3d 6a6a 6ebd af95 913b d134 3b3c
000001b0: 3044 74bd 0e13 9cbd 3083 9cbd 56dd 133c
000001c0: 2c14 08bd 2e9a 55bd 9821 663c f065 a9bd
000001d0: cfc4 c3bb ebfc a53c ddb9 123d d9ef 793d
000001e0: 55bd 09be 60f4 6e3d 0f7e 573d 1bc5 503d
000001f0: 7613 02be e31f ddbd 8849 b6bd 6f5e b3bd
00000200: 96b9 923d cd0a a8bc 7134 a73c 4425 92bd
00000210: 5543 843c 20fb 9ebd 784e 323d 7836 68bd
00000220: c503 5bbd 3e40 e2bd 22f4 4f3c 2885 213e
00000230: 583d 703d ab0c 67bd 4c27 293d 523f 15bd
00000240: 30f6 c9bd 0a97 c43d 5945 acb6 0f1a c73c
00000250: d2fc 56bd 6bd9 77bd 194c 983c c8a7 023d
00000260: 678c d83c cf07 7fbd 819e e53d 23c5 a6bc
00000270: 47eb a0bd 5fd9 69bd fa0c f93d a705 043b
00000280: 89dc 0fbd 9821 5dbd 497e 0ebd 7484 dbbd
00000290: 7593 cfbd b0f8 993d 4c41 f33d e029 f03d
000002a0: 4fae b4bd c692 9f3d 6396 f63c 0495 943d
000002b0: 1160 ee3d 40f9 c13d 9be8 373d dcc8 213e
000002c0: 26bb a93b ebfa 623d d670 3fbd a137 673d
000002d0: 5777 973d 3a0c a5b8 fead dabd 560b 14bd
000002e0: 721b 0cbe d86f 24bd 909d a7bd 2165 eabd
000002f0: 3a94 d7bc 3cc5 06ba 074a ed3d 089f 473d
00000300: 97a0 60bd f765 09be fe71 313e b7d7 a33d
00000310: f6b2 35be aed5 0e3d ab08 183e 97f0 1bbb
00000320: 0901 c1bc ef81 bd3d 4035 42bc dd24 4f3d
00000330: 3a83 c1bd 3c3a d83b bf4a e1bc ca8f f93d
00000340: 432c 30bd 5be0 853d 840c 773c 0ad9 bd3c
00000350: 8fc1 eebc fe88 293d 0826 7ebd e33f 2cbe
00000360: 4e5d e0bc 8134 b43d 4c39 b53b d342 ed3c
00000370: 7402 66bd 6f61 073d 79ed 853d f84c 5d3d
00000380: 6e49 d4bd 84b5 e5bd 2be1 abbb 3745 aabd
00000390: 6e1a be3d 07a1 e1bd 19a2 583b 47d4 ea3d
000003a0: 7c98 943d 6bd3 04bc 445b e9bd 27dd e13d
000003b0: 12b0 0dbe 6ccb 01be 8d88 003e 3a33 26be
000003c0: 4602 ecbb 46ee d53d 7ddb c5bd 95bc a0bd
000003d0: 1e65 6a3d a02c debb 53b2 1e3d 51d9 3cbe
000003e0: 8ddc e33d 04f9 3abd 8e3b 92bd a6c8 febd
000003f0: 76c1 333e 16c2 3ebc 7d0d c4bd 6707 4d3e
-0.043598652 -0.05340502 -0.00074556004 -0.04751243 0.073823854 0.065417506 0.11879988 -0.00038893282
0.038930785 0.04255745 -0.19978659 0.007866101 -0.009150174 -0.12992938 -0.08755364 0.19374204
0.10242139 0.057145447 0.11849308 -0.05151412 -0.022386836 0.046539187 -0.021441462 -0.06465958
-0.12110367 0.03279452 -0.0734663 0.0035799895 0.12110575 -0.06880373 -0.038927075 0.07614778
-0.0029404615 -0.011664783 0.11592917 -0.051898453 -0.090213366 -0.06916733 -0.040909674 -0.06010045
-0.06407748 0.0066715777 0.06338591 -0.040795833 -0.1360542 -0.04014562 -0.03824178 -0.03915431
-0.11384765 0.026140483 -0.09263451 -0.09656176 -0.06354527 0.052961096 -0.07446518 -0.0110664675
0.18618774 0.06715416 0.07088576 -0.11947641 -0.026103554 -0.07284766 0.10405033 0.09322862
-0.075048864 -0.017745651 -0.112725765 -0.0089482125 -0.044080853 0.08976942 0.012530581 -0.040234648
-0.00879747 -0.054521453 0.064175606 0.07224856 0.015130002 -0.043148383 0.14222254 -0.04602819
-0.030226318 0.05985097 0.083443806 0.10595669 0.018590644 -0.061049994 0.04504824 0.07914527
-0.09203688 -0.03392413 -0.10266878 0.0048500174 0.033256747 -0.057656355 -0.028959375 0.074718796
-0.033092786 -0.123488165 0.08157872 -0.08129909 -0.032170635 0.030229064 0.013488524 -0.13602403
0.0757883 -0.058206953 0.0044428925 0.011426167 -0.05963534 -0.07620822 -0.076422095 0.009024939
-0.033222362 -0.05214899 0.014046095 -0.08271396 -0.005974389 0.020262202 0.035821784 0.061019752
-0.1345113 0.058338523 0.052610453 0.050969224 -0.12702736 -0.107970975 -0.08900744 -0.08758246
0.07164304 -0.020512963 0.020410748 -0.07136014 0.016145388 -0.07762742 0.043531865 -0.05669257
-0.05347039 -0.110474095 0.012692483 0.15773451 0.058652252 -0.056408565 0.041297242 -0.03643734
-0.0986141 0.09599121 -5.1340726e-06 0.024304418 -0.052487202 -0.06051008 0.018590974 0.03189829
0.026434137 -0.062263306 0.11211873 -0.020357674 -0.078573756 -0.057092067 0.12160678 0.002014497
-0.035122428 -0.053987116 -0.034788404 -0.10718623 -0.10135547 0.075181365 0.11877689 0.11726737
-0.08822309 0.07791667 0.030101007 0.07254985 0.11639417 0.09471369 0.044899564 0.15799278
0.0051797805 0.055415075 -0.046738468 0.056449536 0.07395809 -7.8700905e-05 -0.106777176 -0.036143623
-0.13682345 -0.040145725 -0.081843495 -0.1144507 -0.026315797 -0.00051410845 0.11586385 0.04873565
-0.05484065 -0.13417803 0.17328641 0.08000129 -0.1774405 0.03487175 0.14847057 -0.0023794526
-0.023560064 0.092532985 -0.011853516 0.050572265 -0.094488576 0.006598739 -0.027501462 0.12185629
-0.04301096 0.06536933 0.015078668 0.023174781 -0.02914503 0.04139041 -0.06204799 -0.16821246
-0.027388241 0.08799077 0.005530512 0.028962528 -0.056154683 0.033051904 0.06539435 0.05402848
-0.10365568 -0.11216262 -0.005245348 -0.08313983 0.09282385 -0.11017042 0.0033055602 0.1146627
0.072556466 -0.008107047 -0.11394361 0.110285096 -0.13836697 -0.12675256 0.1255209 -0.16230479
-0.0072024195 0.10445838 -0.09661005 -0.07848469 0.05722534 -0.006780222 0.038744282 -0.18442275
0.11126051 -0.045647636 -0.071402654 -0.124406144 0.17554268 -0.011642953 -0.09572885 0.20022355

mlp_extractor.policy_net.2.bias f4 [64]
00000000: 18bb 923d 98de b63d 4242 c43c 6a08 053e
00000010: 71c7 d7bd 8bda 893d d867 0bbd 7d5b 25bb
00000020: 65f6 b63d 5a29 dbbd f594 8a3d ea2e 71bc
00000030: 2fb0 b23d 17ce 633c 1cd4 423d 4f4a f13d
00000040: 95b8 40bd bb60 14be 416d ec3d 74b6 84bd
00000050: 2610 a93c 720f a43d 73ba c8bc 78e1 c13d
00000060: e162 ba3d dc93 ffbc 06d3 b53c 3daf 0a3c
00000070: c0a4 f13d 59a6 c33d 5944 bdbd c69e 423c
00000080: 6b8b 733d 241d af3d 31a3 fa3c 974c 423d
00000090: 3d88 94bc 6576 713b 8bd3 b5bd b4a7 da3d
000000a0: 5da4 d43d b6b1 9abd 08c2 efbd a450 bf3d
000000b0: 4c1c f4bd 105c 663d 4b83 e8bd 8eb3 6abd
000000c0: 41a4 86bd 8eb3 0b3e 5fae 2abd d94d d93d
000000d0: 9751 ee3c e082 f03d 5ffc 833d 304e b03d
000000e0: 3dfa bb3d 2b4b 07bd 5980 2bbd c3ca 283d
000000f0: 46b1 c33d adf6 43bd 9d5f dcbd 8af6 babd
0.071645916 0.08929175 0.023957375 0.12991491 -0.10536087 0.06731137 -0.03403458 -0.0025231533
0.08933715 -0.107012466 0.067666925 -0.014720658 0.087250106 0.013904116 0.047565565 0.11781751
-0.04705103 -0.14490025 0.11544276 -0.06480113 0.020637583 0.080107585 -0.024502968 0.09466833
0.09100891 -0.031198435 0.02219535 0.008464632 0.11799002 0.09553213 -0.09241552 0.011878675
0.05945913 0.0855048 0.030595394 0.047436323 -0.01813137 0.003684425 -0.08878239 0.10676518
0.10382912 -0.07553427 -0.117069304 0.09341553 -0.1191946 0.05624014 -0.11353167 -0.057300143
-0.06574298 0.13642713 -0.0416702 0.106105514 0.02909164 0.117437124 0.0644462 0.08608663
0.091785885 -0.03303067 -0.04187045 0.041208994 0.095552966 -0.04784267 -0.10760424 -0.09129055

action_net.weight f4 [7, 64]
00000000: 219c c2bd 761b 0e3d 98d8 203d 6ca5 b6bc
00000010: acc3 78bd f3be 363d a236 d6bd 2dca 1a3e
00000020: f63a 8e3c b4dd cb3c 6ff8 6a3c e22e bfbc
00000030: 07ee c53d 9ad1 023c 5787 c73c 3c51 07be
00000040: f50c 783c a71f 5f3d 2d38 4dbc a38f c3bc
00000050: 7a30 133e fe82 be3d f826 b83d 6882 54bc
00000060: 66f3 c93c b1b7 c1bd 5e21 c2bd 5ec0 f7bc
00000070: 90b0 2337 9ede 94bd cb93 cabd ce07 813d
00000080: c3db dd3c 86e9 9ebd 56cb a73d 5177 fdbd
00000090: 6eec e93d de62 cb3d 4e96 d2bc cb4f e33d
000000a0: bc93 afbd a547 85bd 7f14 f03d e1e5 a9bd
000000b0: ee34 69bd dad5 ba3c 64b5 f5bc 4c42 833d
000000c0: ca6d ec3d 8e6a 9a3d f8cb e73c 9baa a9bc
000000d0: 2ea6 853d d9d4 dd3c b939 12bb b7cd 913d
000000e0: ee19 9f3d 677a 3b3a 0030 433d 3858 a93c
000000f0: 1a68 473d 5a05 e43d 90fb 9bbd 608c 1f3d
00000100: 8b32 c03b 1c8a febd 3504 18be 07bd 503c
00000110: cc07 e53d 4f42 b4bd 4d34 313d 8926 0c3d
00000120: 9ab8 b9bd 7101 843d 9fb9 c93c 5ba7 e6bd
00000130: e35f d3bc 7d53 0bbe 888f 4d3e fd9c 353d
00000140: 1578 643d dc36 ed3d e260 9b3d 866b fc3d
00000150: 7dd8 903d f040 bdbd d61e 0d3e 5ab2 8d3d
00000160: b5de d3bc 8849 40bd 9b29 003e 7124 8f3d
00000170: 9dae 153e fe48 bf3c 3bf8 173e 6b49 d6bd
00000180: 6387 b03c 8f3f f239 1aa0 473c 6b22 f93d
00000190: 7ec6 fe3c dae8 3b3d 458d 523d 36f0 c6bc
000001a0: 78e1 d6bc daae 4abe 9471 cc3c 9c63 ddbd
000001b0: 235b ab3d 3988 083e 1ace 27be 05d6 27bd
000001c0: 5ed9 043e d1c1 98bd 96f8 df3d b822 143e
000001d0: 7576 f0bc 20a3 f5bd 4d65 563d 854d 653d
000001e0: 075f e73d 0c64 c43c 4ec7 943d 03cb b3bd
000001f0: 6c5b b8b7 f3bf 30bc c8a4 a23d 19e8 98bd
00000200: ce88 adbd 82c7 2ebd efda 87bd 67eb 393d
00000210: c215 fe3c e782 983d fcea 3cbd 79e7 8d3d
00000220: 1f0b 893d 08cd 8e3d a40f 2ebe 8690 9c3d
00000230: 5d19 003e 1216 dd3d c12f 30be 4a54 a63d
00000240: 8983 13be 15b4 743a 9d4d fb3d afa4 e23c
00000250: cf4c 8e3d acf8 0dbe 8eeb 47bd 1781 c73c
00000260: a426 08be 34c7 9bbd 999c c83d 187c 98bd
00000270: c88f a23d da14 0fbe 1ada 893c 7e06 f83d
00000280: 2f38 993d 9dd4 5bbd fc1f e3bd b4ea c8bd
00000290: 96db d33d 261e 853d 66e6 193e 5a4e c1bd
000002a0: 591b d3bd a129 393d 6f5e 933d ad0a dcbd
000002b0: 38e9 033e c873 c4bd 2028 70bd 5c0e 6f3c
000002c0: c110 ecbd c200 2fbd 363b 04be 2fb4 8dbd
000002d0: 9548 b33b 952c db3d 8974 a0bd 0d34 71bd
000002e0: 8c7e e43d 8f32 01bd a267 5dbd 401a 9fbd
000002f0: d7ac 18be c24d f8bd 7a42 a93d 7337 753a
00000300: 37ee 20bd d3b3 983d e3cf ad3d 5f2f b23d
00000310: 54fd d23d 9a85 883d 5324 803d 2ec5 f23d
00000320: a69a 393d a33b 7b3c d629 0cbe b6d8 4fbd
00000330: faeb 233e 5d57 83bd c7b2 1bbe 545e 07be
00000340: bc95 0fbe 6e69 abbc c47c 913d 62ef b0bd
00000350: 9f5f 023d 1bc2 dabd a11a d63c 6047 1a3e
00000360: d63f 5ebd c888 b9bd b6b4 b63d 59e9 09be
00000370: ecf6 3bbd b157 f8bd c2fc 963d 38aa 5d3d
00000380: f1ef bcbd a332 a23d 2d16 f73d 0501 a33b
00000390: c74f 9bbd 82c9 eb3c aa1b f63d 2825 b13d
000003a0: c0d1 82bd eeb2 4a3d 49fe 4bbd 9b6d b7bb
000003b0: 34c8 f53d fe18 74bc 892d a9bd e562 f03c
000003c0: 47f7 d33c 5677 c83d bafe 09be 41c2 bebd
000003d0: e51b 81bd afee 9f3b 1207 0fbd 106a 8fbd
000003e0: 01fd 2a3d 3c9e ab3d c2a3 ecbc 3fc2 4f3d
000003f0: 45d7 01bd 87ec 303a 1ca8 f73a f961 86bd
-0.095024355 0.034694158 0.03926906 -0.022295676 -0.060733482 0.044615697 -0.10459639 0.15116186
0.0173621 0.02488599 0.014341458 -0.023337785 0.09664541 0.007984543 0.024356527 -0.13214582
0.015139808 0.054473545 -0.0125256 -0.023872202 0.14373961 0.093023285 0.08991808 -0.012970544
0.024652194 -0.094588645 -0.094790205 -0.030243095 9.756666e-06 -0.07269023 -0.098914705 0.06300317
0.02708233 -0.07759385 0.0819308 -0.123762734 0.114220485 0.09930967 -0.025706436 0.11099204
-0.085731 -0.06507806 0.11722659 -0.08295799 -0.056935243 0.02280705 -0.02999372 0.064091295
0.11544378 0.07539855 0.028295502 -0.020711234 0.06525837 0.027079033 -0.0022312237 0.07119315
0.077686176 0.0007151723 0.0476532 0.020671949 0.048683263 0.11133833 -0.07616341 0.03895223
0.0058654 -0.12428686 -0.14845355 0.01274038 0.11183128 -0.0880171 0.04326277 0.034216437
-0.09068413 0.064455874 0.024624644 -0.11262389 -0.025802558 -0.13606067 0.20074284 0.04433917
0.05577858 0.11582729 0.07586838 0.12325196 0.07072542 -0.092409015 0.13781294 0.069187835
-0.02586303 -0.046945125 0.12515871 0.069893725 0.14617391 0.023350235 0.14840786 -0.10463222
0.021548932 0.00046205192 0.012184167 0.12164768 0.031100508 0.04587636 0.051404256 -0.024284463
-0.026230559 -0.19793263 0.024956502 -0.108100146 0.08366992 0.13333215 -0.16387215 -0.04097559
0.12973544 -0.074588425 0.10936086 0.14466369 -0.02935336 -0.11994004 0.0523427 0.05598213
0.11297422 0.023973487 0.07264577 -0.08778956 -2.197708e-05 -0.010787952 0.07941586 -0.07466144
-0.08473359 -0.042670734 -0.06633555 0.045390513 0.031016234 0.07446843 -0.046122536 0.069289155
0.06691574 0.069727 -0.16998154 0.07644753 0.12509675 0.10795225 -0.17205717 0.081215456
-0.14405645 0.00093346956 0.12270663 0.027666418 0.06948244 -0.13864392 -0.048808627 0.024353547
-0.1329599 -0.07606354 0.09795494 -0.07445544 0.0793758 -0.13972798 0.016827632 0.12110613
0.07481419 -0.05366956 -0.11090085 -0.09810391 0.10344617 0.06499891 0.15029296 -0.094387725
-0.103079505 0.045205716 0.07195746 -0.10744224 0.12881935 -0.09592396 -0.058632016 0.014590826
-0.11526633 -0.042725332 -0.12913212 -0.06919133 0.005471299 0.10701863 -0.07834727 -0.05888753
0.111569494 -0.031542357 -0.05405391 -0.07768679 -0.14909683 -0.12124206 0.082646325 0.0009354271
-0.03928968 0.07456174 0.08486917 0.087004416 0.10302225 0.066661075 0.06256928 0.11854015
0.0453135 0.015334043 -0.13687834 -0.05074378 0.16007987 -0.064131476 -0.15204917 -0.13219577
-0.14021963 -0.020924296 0.07103875 -0.08639409 0.031829473 -0.10681554 0.026135745 0.1506629
-0.054260097 -0.09059292 0.089211866 -0.13467921 -0.04588978 -0.12126101 0.073724285 0.05411741
-0.09225453 0.079198144 0.120647766 0.004974487 -0.07583576 0.02878261 0.12016995 0.08649665
-0.06387663 0.049487047 -0.049803052 -0.005597783 0.12001076 -0.014898537 -0.08260638 0.029344032
0.025874747 0.097883865 -0.13476077 -0.09314395 -0.063041486 0.004880748 -0.034918852 -0.07002652
0.04174519 0.0837979 -0.02888668 0.050722357 -0.031699438 0.00067491125 0.0018894705 -0.065616556

action_net.bias f4 [7]
00000000: e8d9 9f3b fa9d 60bd 3551 21bd 8761 f83a
00000010: 6c51 b53d a8da 0abd 77b2 00bd
0.0048782714 -0.05483816 -0.039384086 0.0018949964 0.088534206 -0.033899933 -0.031420197
