backend/bc_policy.pt (torch, 22940 bytes, 6 tensors)

net.0.weight f4 [64, 10]
0	0x3e91d0e7	0.28479692
1	0x3e9122f6	0.28346986
2	0xbcdb2f9e	-0.026756104
3	0x3e9bcb3b	0.3042849
4	0xbdada997	-0.08479612
5	0x3ddd4063	0.108032964
6	0xbdd5e980	-0.10444927
7	0x3e65ac55	0.2242902
8	0x3e8ebab9	0.27876833
9	0xbe6d8fba	-0.23199359
10	0x3e850ae8	0.25984883
11	0x3d36a7ef	0.044593748
12	0x3e6126ef	0.21987508
13	0x3cf4a4bb	0.029863706
14	0x3e1dfb82	0.15427974
15	0xbcf544cc	-0.029940031
16	0x3e6c65b7	0.23085676
17	0x3d04d0ad	0.03242557
18	0xbe172bba	-0.14762774
19	0x3da514b8	0.080605924
20	0xbe1531c8	-0.14569771
21	0xbd17e660	-0.037084937
22	0xbe038565	-0.12843855
23	0x3e56cf9a	0.20977631
24	0xbe7f9c96	-0.24962077
25	0xbe154879	-0.14578427
26	0xbdb6e028	-0.08929473
27	0xbe42b3cf	-0.19013904
28	0x3cf480c0	0.029846549
29	0xbe9fe9ec	-0.31233156
30	0x3e86a91a	0.2630089
31	0xbe94c9a3	-0.29060087
32	0x3e62974a	0.22128025
33	0x3cfafb21	0.030637326
34	0xbdb0f8f0	-0.08641231
35	0x3e358040	0.17724705
36	0x3cd884f8	0.026430592
37	0x3e6e7325	0.23286112
38	0x3d0d9930	0.03456992
39	0xbdcc3f1e	-0.09972976
40	0x3dfc6c88	0.12325388
41	0xbd581355	-0.05275281
42	0x3e3351b2	0.17511633
43	0x3ea35b57	0.31905624
44	0x3e392903	0.18082051
45	0xbdb72460	-0.08942485
46	0x3e67e952	0.22647598
47	0x3dc40e16	0.09572999
48	0x3e24721c	0.16059154
49	0xbe455e45	-0.19274242
50	0xbe7f9c96	-0.24962077
51	0xbda175f7	-0.07883828
52	0xbe326beb	-0.1742398
53	0x3e9d6395	0.30740038
54	0x3e07c8bd	0.1326017
55	0x3e3bbb15	0.18333085
56	0x3e2d22a7	0.1690775
57	0x3d5f69aa	0.05454413
58	0x3e7d6c0a	0.24748245
59	0xbe661398	-0.22468412
60	0x3ca31c20	0.019910872
61	0xbe5d04ae	-0.21583816
62	0x3dc7b30c	0.09750947
63	0xbddf08aa	-0.108903244
64	0x3dc6721c	0.096897334
65	0xbd86eddc	-0.06588337
66	0x3e864923	0.26227674
67	0xbe3fed56	-0.1874288
68	0xbe411fbb	-0.1885976
69	0xbe4122b7	-0.18860899
70	0x3ea1038d	0.31448022
71	0x3e05e8d5	0.130771
72	0x3eade35a	0.33962518
73	0xbe6c925f	-0.23102711
74	0xbe940958	-0.2891338
75	0xbe82509a	-0.2545212
76	0xbe34886e	-0.17630169
77	0x3e2a87b7	0.16653334
78	0x3de7e6fc	0.11323354
79	0x3e8688a9	0.26276138
80	0xbe273a39	-0.16330804
81	0xbe5cc002	-0.2155762
82	0x3e2bcf72	0.16778353
83	0xbe02e36d	-0.12782069
84	0x3e44884a	0.19192615
85	0xbd99af20	-0.075041056
86	0x3e393d02	0.18089679
87	0xbe7b987b	-0.24569885
88	0xbe236a0f	-0.15958427
89	0x3dc572d0	0.09641039
90	0x3da1a6d8	0.07893151
91	0xbd8fbf48	-0.07018906
92	0x3e4d6c2a	0.20060793
93	0x3e6856c1	0.22689344
94	0xbe5e5ef9	-0.21715917
95	0xbe3794b2	-0.17927817
96	0x3e9a759d	0.30167857
97	0xbdc1cae8	-0.094625294
98	0xbde598d6	-0.11210792
99	0xbe9ca973	-0.3059803
100	0xbe3970c4	-0.18109423
101	0x3da1c80c	0.07899484
102	0xbd2af778	-0.04173991
103	0xbe6b0dec	-0.2295453
104	0x3bf30fc0	0.007417649
105	0xbe5d318e	-0.21600935
106	0xbe895cdc	-0.2682866
107	0xbe325066	-0.17413482
108	0xbe8db452	-0.27676636
109	0xbe4e2fcf	-0.20135425
110	0x3ea1d865	0.31610408
111	0x3d74a4d8	0.05972752
112	0x3dc79328	0.09744865
113	0xbe970277	-0.29494068
114	0xbe54acb8	-0.20769012
115	0xbdd791a4	-0.105258256
116	0x3d4a8ae8	0.049448878
117	0xbe8e7783	-0.27825555
118	0xbe0b862c	-0.13625401
119	0xbe41dbf5	-0.18931563
120	0x3a65ba00	0.0008763373
121	0xbdf0fca4	-0.117669374
122	0xbcb38360	-0.02191323
123	0xbe5b6d9d	-0.21428533
124	0xbe5e443e	-0.2170572
125	0xbe3cea62	-0.18448785
126	0xbdddaf02	-0.10824396
127	0xbe7f952f	-0.24959253
128	0x3e87c169	0.26514748
129	0xbd80883c	-0.06275985
130	0x3e8b4e3f	0.27208135
131	0x3dc9ca94	0.09853092
132	0xbe891a8e	-0.26778072
133	0x3e6017ca	0.21884075
134	0xbdb2317a	-0.08700843
135	0xbdf84152	-0.12121834
136	0xbe866544	-0.26249135
137	0xbea0f693	-0.3143812
138	0x3db94b8c	0.090476125
139	0xbd8d78c6	-0.06907801
140	0x3e271dd3	0.16319971
141	0xbe600a91	-0.21879031
142	0x3e90b701	0.2826462
143	0xbe372bb6	-0.17887768
144	0xbc7ff6c1	-0.015622796
145	0x3decadc1	0.115565784
146	0x3e5cbf30	0.21557307
147	0x3e9a2c08	0.30111718
148	0x3e937dfd	0.2880706
149	0xbe806184	-0.250744
150	0x3d8d65c3	0.06904175
151	0xbe19a247	-0.1500331
152	0xbd31b605	-0.043386478
153	0xbe7f4f2d	-0.24932547
154	0x3e99400a	0.2993167
155	0xbe607ebb	-0.21923344
156	0x3e2575ea	0.16158262
157	0x3dce7982	0.100817695
158	0x3dd273e0	0.10276008
159	0xbe2f1210	-0.17096734
160	0x3ea3b3fb	0.31973252
161	0x3dc12dd8	0.09432572
162	0x3d9764fa	0.073923066
163	0xbe815c28	-0.25265622
164	0x3e1fa949	0.15591921
165	0xbd24eb37	-0.04026338
166	0xbde2b792	-0.110701695
167	0x3e9c0d9e	0.3047914
168	0x3d9063ac	0.07050261
169	0xbe332912	-0.17496136
170	0xbe35487e	-0.17703435
171	0xbd096f29	-0.033553276
172	0x3e24f01a	0.16107216
173	0xbdc8f30b	-0.09811982
174	0xbe2c8384	-0.16847044
175	0xbda99c97	-0.0828182
176	0xbe805715	-0.25066438
177	0x3dc4ce74	0.0960969
178	0x3e7aa5c6	0.244773
179	0xbe986d64	-0.29770958
180	0x3d9669e0	0.07344413
181	0x3e274804	0.16336066
182	0x3d6adec8	0.057341367
183	0xbde6a37a	-0.112616494
184	0x3e29038c	0.1650526
185	0x3e2a2b94	0.16618186
186	0x3df22b0c	0.11824617
187	0xbd639b40	-0.05556798
188	0xbdab7e92	-0.08373751
189	0x3d0a91b0	0.033830345
190	0xbd5c8a17	-0.05384263
191	0xbdbd775c	-0.092512816
192	0x3e55cd61	0.20879127
193	0x3e8d4a64	0.27595818
194	0xbcc882c8	-0.024476424
195	0xbd8967ab	-0.06709226
196	0x3c3f5b4b	0.011679481
197	0xbc72106c	-0.014774423
198	0x3d9bb2d8	0.07602471
199	0x3db57d2c	0.08861765
200	0xbe930dfa	-0.287216
201	0xbdef0066	-0.11669998
202	0x3e885917	0.2663047
203	0x3dfc4a0c	0.12318811
204	0xbc80d8e0	-0.015728414
205	0xbe433b35	-0.19065554
206	0xbe461cf0	-0.19346976
207	0xbe91084a	-0.28326637
208	0xbdd31ac0	-0.103078365
209	0x3ddab578	0.10679144
210	0x3e4e790e	0.20163366
211	0x3e15816c	0.14600152
212	0xbe8f1e3f	-0.27952763
213	0xbe42bb45	-0.1901675
214	0xbd4c6a40	-0.049906015
215	0x3e9c9f49	0.30590275
216	0x3d3b5ed0	0.045744717
217	0xbda7b7e8	-0.08189374
218	0x3e05f7d6	0.13082823
219	0xbdf6ac0a	-0.120445326
220	0xbe27f1e8	-0.16400874
221	0x3e889d45	0.26682487
222	0xbdcbf9cb	-0.099597536
223	0xbcbfa66f	-0.023394791
224	0xbe94cd6c	-0.29062974
225	0x3e8237eb	0.25433287
226	0x3e92405f	0.28564736
227	0x3e20a5bd	0.15688224
228	0xbe61ca16	-0.22049746
229	0xbe9fcb48	-0.3120978
230	0xbe837fb0	-0.25683355
231	0x3e71787a	0.23581114
232	0x3e1b776e	0.15182278
233	0x3e883f2f	0.26610705
234	0x3e29a35a	0.1656622
235	0x3da3e944	0.08003476
236	0xbb4af280	-0.0030967295
237	0xbe7643d4	-0.24049312
238	0xbe8ab803	-0.27093515
239	0xbe9770e5	-0.2957832
240	0x3e2fdd2e	0.17174217
241	0xbdf368c0	-0.11885214
242	0xbc84f4f5	-0.016230086
243	0xbe0ebb75	-0.13938697
244	0xbd41fa78	-0.047358006
245	0xbe3b6ddf	-0.18303631
246	0xbe200b21	-0.15629245
247	0x3e1892ff	0.14899825
248	0xbdc07980	-0.09398174
249	0x3e47e806	0.19522104
250	0xbdcfc44e	-0.10144864
251	0xbe6d8aae	-0.23197433
252	0xbd648930	-0.055794895
253	0xbe1cf835	-0.15329058
254	0xbdc62368	-0.09674722
255	0xbe9a22e4	-0.30104744

net.0.bias f4 [64]
0	0x3dd525eb	0.10407623
1	0xbe9eb0b2	-0.30994183
2	0x3e8d5d57	0.27610275
3	0x3e33ed7b	0.1757106
4	0xbe89b820	-0.2689829
5	0xbdb61f99	-0.088927455
6	0x3dd33ab4	0.10313931
7	0xbcbf83be	-0.02337825
8	0xbd0d2760	-0.03446138
9	0xbe05cc89	-0.13066305
10	0x3e820c55	0.25400034
11	0xbe350365	-0.17677076
12	0x3e86445d	0.26224032
13	0x3ca725c0	0.020403743
14	0x3de7830f	0.11304294
15	0x3e72c1ab	0.23706691
16	0xbc8916fb	-0.01673459
17	0xbe48ef0a	-0.19622436
18	0xbd517d40	-0.05114484
19	0x3e85f28e	0.26161617
20	0xbe7044ae	-0.23463699
21	0x3d930018	0.07177752
22	0xbe8904f9	-0.26761606
23	0x3e29c730	0.1657989
24	0x3e27114f	0.16315196
25	0x3c5ba340	0.013405621
26	0x3dee5747	0.116377406
27	0x3d760386	0.060061954
28	0x3e64d26b	0.22345893
29	0xbe802b91	-0.2503324
30	0xbd41c443	-0.04730631
31	0x3e39e20c	0.18152636
32	0x3ea13b39	0.31490496
33	0x3e14536e	0.14484951
34	0xbe6b78bb	-0.22995274
35	0x3e97b47e	0.29629892
36	0xbd906bde	-0.07051824
37	0xbda3b478	-0.07993406
38	0xbe93290a	-0.28742248
39	0xbd3989e4	-0.04529752
40	0x3e650b6a	0.22367635
41	0x3dcd93f7	0.10037988
42	0xbe3c9bcf	-0.18418811
43	0x3da04679	0.078259416
44	0xbde5dd04	-0.11223796
45	0x3e9dcd57	0.30820724
46	0xbe8c8782	-0.27447134
47	0xbdcc9266	-0.09988861
48	0xbe9c55ad	-0.30534115
49	0xbdc3da63	-0.09563138
50	0x3dcc2a4c	0.09969005
51	0x3e9bdb09	0.30440548
52	0x3dcda097	0.10040396
53	0x3eb00274	0.34376872
54	0x3df0951f	0.117471926
55	0x3e77d255	0.24201329
56	0x3e81cbc7	0.25350782
57	0x3e822ec2	0.25426298
58	0xbe09aa1b	-0.13443796
59	0x3e94db6f	0.29073665
60	0x3e442846	0.19155988
61	0xbe1768ff	-0.14786147
62	0xbe33797f	-0.17526816
63	0xbe87ccdc	-0.26523483

net.2.weight f4 [64, 64]
0	0x3d009510	0.031392157
1	0xbdcf8028	-0.10131866
2	0x3d58480c	0.052803084
3	0x3d21b03c	0.03947471
4	0xbdde69d2	-0.108600274
5	0x3d0b853c	0.03406261
6	0xbc2690a0	-0.010166317
7	0x3d69e404	0.05710222
8	0x3d92e3e0	0.0717237
9	0xbdfe804a	-0.12426813
10	0x3deac6fe	0.11463736
11	0x3dd6b13e	0.10483025
12	0x3d4bb768	0.049735457
13	0xbde9f95a	-0.11424513
14	0xbd36e5a4	-0.044652596
15	0xbd1461d4	-0.03622611
16	0xbd03953c	-0.032124743
17	0x3d905d44	0.07049039
18	0x3d3a25ec	0.04544632
19	0x3dcacc40	0.09902239
20	0xbd3fc180	-0.046815395
21	0x3d2c4ef0	0.04206747
22	0x3d362ac8	0.044474393
23	0xbdd524ac	-0.10407385
24	0xbdf85338	-0.12125248
25	0xbd84d5ea	-0.06486113
26	0x3daf3e84	0.08556846
27	0xbdf10380	-0.11768246
28	0xbdded4c0	-0.108804226
29	0x3d8f694e	0.07002507
30	0x3d8a1e92	0.06744112
31	0x3dd28854	0.10279909
32	0xbdc143aa	-0.09436734
33	0xbdbb5dc8	-0.09148747
34	0x3d835318	0.06412333
35	0x3ddea016	0.10870378
36	0x3d992cbc	0.074792355
37	0x3ca06968	0.019581512
38	0x3d28be04	0.041196838
39	0x3df2f9f8	0.11864084
40	0xbda52c1c	-0.08065054
41	0xbd68743c	-0.056751475
42	0x3db31044	0.08743337
43	0xbdaf2a54	-0.08552995
44	0xbd8d2960	-0.06892657
45	0x3dbae0b2	0.091248885
46	0x3d218c1c	0.03944026
47	0x3d256970	0.040383756
48	0xbd59019c	-0.05298005
49	0xbae21b80	-0.0017250627
50	0x3dea4cb2	0.1144041
51	0xbd99a806	-0.07502751
52	0x3a80d080	0.0009827763
53	0x3d7381c8	0.05944994
54	0xbdb0bb30	-0.08629453
55	0x3df89f0c	0.12139711
56	0xbd7fccf4	-0.062451318
57	0xbcf5e638	-0.030017003
58	0xbd0a8830	-0.033821285
59	0xbda6d31e	-0.08145736
60	0xbdfb3428	-0.122658074
61	0x3d905894	0.07048145
62	0x3d080670	0.033209264
63	0xbdefc512	-0.1170751
64	0xbdc22d46	-0.094812915
65	0x3de04973	0.10951509
66	0x3d43b450	0.04777938
67	0x3d13df3d	0.03610157
68	0xbdb7c024	-0.08972195
69	0xbd90f250	-0.070774674
70	0xbc9a93b8	-0.018869266
71	0xbd14a03b	-0.03628562
72	0xbdaf6c70	-0.08565605
73	0xba3a2f4f	-0.00071023864
74	0x3c4b8bf0	0.0124235
75	0xbc81a8f0	-0.015827626
76	0x3c8df580	0.017328978
77	0xbd4aee78	-0.049543828
78	0x3c993f92	0.01870707
79	0x3d09dd14	0.033658102
80	0xbda35543	-0.07975247
81	0xbe0cdf83	-0.13757138
82	0x3d85ffcc	0.0654293
83	0x3c6be6d9	0.0143983
84	0xbd8232d2	-0.063573495
85	0x3df6b52c	0.120462745
86	0xbd90729a	-0.070531085
87	0x3dacfdbe	0.08446835
88	0x3d4b789e	0.049675576
89	0xbdd6a1ea	-0.104801014
90	0x3d8d19a4	0.06889656
91	0xbe04c0b8	-0.12964141
92	0xbdaa7410	-0.083229184
93	0xbcaab750	-0.020839363
94	0xbdc68a6e	-0.09694372
95	0x3ddcddd2	0.10784496
96	0xbccd64c0	-0.025072455
97	0x3d13e0f6	0.03610321
98	0xbde495e0	-0.11161399
99	0x3d6760fe	0.056488983
100	0xbd1f1f0c	-0.038847968
101	0xbddf345b	-0.10898658
102	0x3c95bb78	0.018277869
103	0x3d3beaec	0.045878336
104	0x3ddd8aaa	0.10817464
105	0xbdba02ca	-0.09082563
106	0xbd7bf518	-0.061513036
107	0x3c1d3f08	0.009597547
108	0x3ca0746a	0.01958676
109	0x3d0b05c2	0.033941038
110	0x3d8c8316	0.0686094
111	0xbce83220	-0.028344214
112	0x3d8e39d0	0.069446206
113	0x3d9fefe7	0.078094296
114	0xbd05bed4	-0.03265269
115	0x3db62210	0.08893216
116	0x3d3dcf50	0.046340287
117	0x3dc201f8	0.09473032
118	0xbdaeaf6c	-0.08529553
119	0xbd9c0799	-0.07618637
120	0xbd140a04	-0.036142364
121	0xbc020c7f	-0.00793755
122	0x3d71c124	0.059022084
123	0xbd92240e	-0.07135783
124	0x3d802adc	0.06258175
125	0xbd377dc4	-0.044797674
126	0x3d7e00fd	0.06201266
127	0xbbc27780	-0.0059346557
128	0xbe071376	-0.13191018
129	0xbdb80932	-0.08986129
130	0xbdb947d0	-0.090469
131	0x3d23abd7	0.0399588
132	0xbddad8f3	-0.10685911
133	0xbd0c01a6	-0.03418126
134	0x3cdcef18	0.026969478
135	0xbdbb08ca	-0.09132536
136	0x3d13b258	0.036058754
137	0xbe0b11dc	-0.13581032
138	0xbdb72b90	-0.08943856
139	0xbde7f7b4	-0.113265425
140	0xbd1ade50	-0.03780967
141	0xbd3a8530	-0.045537174
142	0xbb946c7d	-0.0045295344
143	0xbd37b6f4	-0.044852212
144	0x3d14b6b0	0.036307037
145	0x3dbeecfe	0.093225464
146	0x3d37b378	0.04484889
147	0xbd90e4af	-0.07074868
148	0xbdefb6f8	-0.117048204
149	0x3d397288	0.04527524
150	0xbdae0554	-0.0849711
151	0x3d8245b8	0.06360954
152	0x3d771b38	0.060328692
153	0x3d457d28	0.04821506
154	0x3dcca5f8	0.099925935
155	0x3dc5bc37	0.0965504
156	0x3b800bf2	0.003907674
157	0xbdba87f0	-0.09107959
158	0x3db8af76	0.090178415
159	0xbda79278	-0.081822336
160	0xbd71d854	-0.059044197
161	0x3da9c68b	0.08289822
162	0x3dc659f8	0.09685129
163	0x3c4fe799	0.0126894945
164	0x3c006060	0.007835478
165	0xbe021030	-0.12701488
166	0xbc549740	-0.012975514
167	0x3dcbc103	0.099489234
168	0x3d0262a4	0.031832352
169	0xbc46936a	-0.012120107
170	0xbcd4a278	-0.025956377
171	0xbd7f2288	-0.06228879
172	0x3d5726db	0.05252729
173	0xbc6c0fc7	-0.0144080585
174	0x3da68c08	0.081321776
175	0xbcb53f20	-0.022124827
176	0x3d5fb290	0.05461365
177	0x3cf05bc2	0.029340629
178	0x3ca34a90	0.019933015
179	0x3da0dd0e	0.07854663
180	0x3d633dbf	0.055478808
181	0x3dbd3b7d	0.09239862
182	0x3d96dfa3	0.07366874
183	0xbd5e8bd8	-0.054332584
184	0xbdd8bc1a	-0.105827525
185	0x3a7ab65d	0.00095639174
186	0xbcccb904	-0.024990566
187	0xbd058ae8	-0.032603174
188	0xbcab7940	-0.02093184
189	0x3bc0a580	0.005879104
190	0x3d8ed8e6	0.06974964
191	0x3d1f9c8c	0.038967654
192	0xbd4e67af	-0.05039185
193	0xbd6b2356	-0.057406746
194	0xbcfd9310	-0.030953914
195	0xbd5e7c98	-0.05431804
196	0x3dd9e7c0	0.10639906
197	0x3d8796d6	0.066205665
198	0x3de7296a	0.11287196
199	0xbbb7b031	-0.0056057204
200	0x3cce82d0	0.02520886
201	0x3d318b24	0.043345585
202	0xbdf2514e	-0.11831914
203	0x3c36e120	0.011162072
204	0xbc08fda0	-0.00836125
205	0xbd8f8706	-0.070081756
206	0xbdd2f0e6	-0.10299854
207	0x3dd65529	0.10465462
208	0x3dc3d8a9	0.09562809
209	0x3d54b362	0.051928885
210	0x3df449b6	0.11928122
211	0xbd4fc60c	-0.05072598
212	0xbcb0de38	-0.021590337
213	0x3d41da4c	0.047327325
214	0xbcda61ff	-0.026658056
215	0xbcc8f1c8	-0.024529353
216	0xbddfe5b7	-0.109324865
217	0x3d098df8	0.033582658
218	0xbd9ab530	-0.0755409
219	0xbabf2893	-0.0014584236
220	0x3ded4b93	0.1158668
221	0xbd1d99f8	-0.038476914
222	0xbd39f8e9	-0.045403395
223	0x3d8e2641	0.0694089
224	0xbd3c3d0c	-0.045956656
225	0xbc892191	-0.016739639
226	0x3def097c	0.11671731
227	0xbd51e814	-0.051246718
228	0xbdb72520	-0.08942628
229	0xbd9b912b	-0.07596048
230	0xbd0df324	-0.034655705
231	0xbd85c3ec	-0.0653151
232	0xbd84d8b6	-0.06486647
233	0x3d363966	0.044488333
234	0x3cae0428	0.021242216
235	0xbd3c725c	-0.0460075
236	0xbdd33015	-0.10311905
237	0xbd39ce36	-0.045362674
238	0xbd581584	-0.052754894
239	0xbd269d50	-0.04067737
240	0xbde6f188	-0.11276537
241	0x3cab6796	0.020923417
242	0xbdbc16d8	-0.091840446
243	0xbdc75f62	-0.0973499
244	0xbddd7502	-0.10813333
245	0x3d3d1eb1	0.046171848
246	0xbda66ad4	-0.081258446
247	0xbd6bebd1	-0.05759794
248	0x3dc8a9c8	0.09798008
249	0x3d7741e7	0.060365584
250	0x3d92c9c4	0.0716739
251	0xbdf312dc	-0.118688315
252	0xbdb793da	-0.08963747
253	0xbd414920	-0.047188878
254	0x3dc72ee7	0.09725743
255	0x3c5182e0	0.012787551

net.2.bias f4 [64]
0	0xbd9c54ac	-0.076333374
1	0x3d6880d9	0.056763504
2	0xbd6d0e76	-0.05787512
3	0x3d20217b	0.03909443
4	0x3dbae0fa	0.09124942
5	0x3baac71d	0.0052117244
6	0x3d2fccc0	0.042919874
7	0x3dd856e0	0.10563445
8	0xbd837ca1	-0.064202555
9	0x3dbc447e	0.09192751
10	0xbdd74d78	-0.10512823
11	0x3e15556d	0.14583369
12	0xbd812690	-0.06306183
13	0xbc382873	-0.011240113
14	0x3d8f9ce6	0.07012348
15	0xbc687609	-0.014188298
16	0x3db77da9	0.08959515
17	0xbd61086c	-0.054939672
18	0xbda4192c	-0.08012614
19	0x3de4883c	0.11158797
20	0xbd9a84fa	-0.075448945
21	0x3e065b9a	0.1312088
22	0x3e2a534e	0.1663334
23	0x3d8e6846	0.06953482
24	0xbd719532	-0.058980174
25	0xbaf23180	-0.0018477887
26	0xbde6b512	-0.11265005
27	0xbdb34d40	-0.08754969
28	0xbd476def	-0.048688825
29	0xbdd01f2e	-0.10162197
30	0x3d93b094	0.07211414
31	0x3dcc7ca6	0.09984712
32	0xbd41e9b2	-0.04734201
33	0xbd33f01a	-0.04393015
34	0x3df74934	0.12074509
35	0xbc8c83cf	-0.017152695
36	0x3e15bb14	0.14622146
37	0x3e1e290b	0.15445344
38	0xbd339904	-0.0438471
39	0xbe14c18f	-0.14526962
40	0x3de102fe	0.10986899
41	0xbcfcfab6	-0.030881267
42	0x3e25d2ec	0.16193742
43	0xbdafba8f	-0.08580505
44	0x3cb9b9d0	0.02267161
45	0x3da66cab	0.081261955
46	0xbcf1e390	-0.029527456
47	0x3dc7a1e8	0.09747678
48	0xbdbbae26	-0.091640756
49	0xbd54c15c	-0.051942214
50	0xbca130e0	-0.019676626
51	0x3dc410f2	0.095735446
52	0x3d6d21f0	0.057893693
53	0x3d8e3d75	0.06945316
54	0x3cf7b4d1	0.030237587
55	0x3e6c8936	0.23099217
56	0xbcf674ca	-0.030084986
57	0x3b4029fa	0.0029321895
58	0xbcb8912b	-0.022530159
59	0x3d496a14	0.04917343
60	0xbd1624f4	-0.036656335
61	0x3da19001	0.07888795
62	0x3d89911c	0.067171305
63	0x3d79d7d8	0.06099686

net.4.weight f4 [3, 64]
0	0x3dd092e0	0.10184264
1	0x3bf22bec	0.00739049
2	0x3d835b7a	0.06413932
3	0xbd2756c4	-0.04085423
4	0xbde60ca4	-0.1123288
5	0x3d8626e5	0.06550387
6	0x3d5457cc	0.051841542
7	0x3dd70f20	0.10500932
8	0x3ce44cbd	0.027868623
9	0x3b23b7c0	0.002498135
10	0xbdb8c822	-0.09022547
11	0xbe1e23b8	-0.15443313
12	0x3be81e6a	0.0070837038
13	0x3dc5501f	0.096344225
14	0xbc1f35c0	-0.009717405
15	0xbd72343e	-0.059131853
16	0x3d30af29	0.043135796
17	0xbd77e1d0	-0.060518086
18	0x3d0de7f7	0.034645047
19	0xbdcfbd28	-0.101435006
20	0xbde80156	-0.1132838
21	0xbdd76d91	-0.10518945
22	0xbd59d78f	-0.05318409
23	0x3cf36d44	0.029715188
24	0x3d5b7968	0.05358258
25	0xbda208fc	-0.0791187
26	0xbcd24eb8	-0.025672302
27	0x3cc958fe	0.024578568
28	0xbd3a8412	-0.04553611
29	0xbc587cf3	-0.013213384
30	0x3da5bc64	0.08092573
31	0xbd91b781	-0.07115079
32	0x3d5ff9dd	0.054681648
33	0x3da8ba88	0.08238703
34	0x3d2aaeb4	0.041670516
35	0xbcf838c3	-0.030300504
36	0xbe01e558	-0.12685144
37	0xbe0fa236	-0.14026722
38	0xbcc6f6a8	-0.024287537
39	0x3c98adda	0.018637586
40	0x3d7edfab	0.062225025
41	0xbd63b271	-0.055590097
42	0x3d361d13	0.04446132
43	0xbd6362e9	-0.05551425
44	0x3ccc32d8	0.024926588
45	0xbdf6dc22	-0.12053706
46	0x3d09945c	0.033588752
47	0x3dda7cf8	0.10668367
48	0x3c64d5b3	0.0139669655
49	0x3c0938c0	0.008375347
50	0xbd3c6e48	-0.04600361
51	0xbdd2093e	-0.10255669
52	0xbdaf2eec	-0.085538715
53	0xbdee08ab	-0.11622747
54	0x3d8d58f4	0.06901732
55	0xbe2af0a0	-0.16693354
56	0xbd344699	-0.04401264
57	0xbe1774c8	-0.14790642
58	0xbd24baa0	-0.040217042
59	0x3dd9bea2	0.106320634
60	0x3cbc4338	0.022981271
61	0xbd7ae8f1	-0.061257306
62	0x3d037804	0.032096878
63	0x3d87347f	0.0660181
64	0x3dc735f2	0.09727086
65	0xbdd712c6	-0.105016276
66	0xbc25dfba	-0.010124141
67	0xbdde841a	-0.1086504
68	0xbdb08158	-0.0861842
69	0x3dae3006	0.085052535
70	0xbdcbf5ca	-0.0995899
71	0xbd7b17f0	-0.061302125
72	0x3d22b32f	0.039721664
73	0x3df914c8	0.12162167
74	0xbdf8aeba	-0.121427014
75	0xbdeb29f1	-0.11482609
76	0xbd896a6e	-0.06709753
77	0x3dbacac9	0.091207094
78	0x3d95307e	0.0728464
79	0x3d726365	0.05917682
80	0x3d778e5d	0.060438503
81	0xbd00227c	-0.031282887
82	0x3da94df4	0.082668215
83	0xbb6632c0	-0.0035125464
84	0x3c406ac0	0.011744201
85	0xbd83580d	-0.06413279
86	0x3cb8e4a9	0.022569971
87	0x3d31d3d0	0.04341489
88	0xbcbbf1df	-0.022942482
89	0x3de15dea	0.11004241
90	0xbd0499d8	-0.03237328
91	0x3c706a9a	0.014673853
92	0x3dc33dff	0.09533309
93	0x3d612842	0.054970033
94	0xbd3a70c0	-0.045517683
95	0xbdb84c19	-0.089988895
96	0x3c6bd632	0.01439433
97	0xbca769e2	-0.020436231
98	0x3c1022d0	0.008797362
99	0x3d94606d	0.07244954
100	0xba8c2423	-0.0010691922
101	0xbdfbe64b	-0.12299784
102	0xbdd103e0	-0.10205817
103	0x3dc7786e	0.09739767
104	0xbca308de	-0.01990169
105	0xbdc23de2	-0.094844595
106	0xbe13db20	-0.14439058
107	0x3de98861	0.11402965
108	0x3d812dd6	0.06307571
109	0xbe0706f2	-0.13186243
110	0xbddd1942	-0.10795833
111	0x3dde648a	0.1085902
112	0x3cd1b392	0.025598321
113	0xbc966a50	-0.01836124
114	0xbdd4c20e	-0.103885755
115	0x3d9b29c6	0.07576327
116	0xbdadc736	-0.08485262
117	0x3d56956a	0.052388586
118	0xbe0dda54	-0.13852817
119	0xbe5f2afc	-0.21793741
120	0xbe140455	-0.14454778
121	0x3da23012	0.07919325
122	0x3ddda79b	0.10822984
123	0xbdda70cc	-0.106660455
124	0x3dc5e594	0.09662929
125	0xbde6d8c3	-0.11271813
126	0xbe176cb4	-0.1478756
127	0x3d01006a	0.031494536
128	0x3d911de2	0.07085778
129	0x3d6e3583	0.0581565
130	0x3b156c8c	0.0022800295
131	0x3de96360	0.113959074
132	0xbddc8866	-0.107682034
133	0x3d3ef4c9	0.046620164
134	0xbd223ebc	-0.03961061
135	0x3bca4b60	0.006173536
136	0x3d85bc60	0.0653007
137	0xbdb752a4	-0.08951309
138	0x3d605ff8	0.054779023
139	0xbd854bf3	-0.06508627
140	0x3d7ee52a	0.062230267
141	0xbc11f010	-0.008907333
142	0x3d7e05b0	0.062017143
143	0x3dce48eb	0.10072502
144	0xbd84f95a	-0.064928725
145	0xbdfc2c04	-0.12313083
146	0x3ddde5be	0.108348355
147	0xbd8cf172	-0.068819895
148	0x3cea0398	0.028566167
149	0x3d2a4eae	0.04157894
150	0xbd64002c	-0.055664226
151	0x3dae3a8e	0.08507262
152	0x3d91f059	0.07125921
153	0xbcce2900	-0.025166035
154	0x3d063d7c	0.03277348
155	0xbbff5220	-0.0077917725
156	0x3dd43078	0.10360807
157	0x3d912689	0.07087428
158	0xbdaa81b6	-0.08325522
159	0xbcdffa66	-0.027341079
160	0x3d6bbd46	0.057553552
161	0x3d9a9127	0.07547217
162	0x3d2ed030	0.04267901
163	0x3d3856a8	0.045004517
164	0xbd9de90f	-0.07710468
165	0xbd81c51a	-0.06336422
166	0xbdb12dc4	-0.08651307
167	0x3da67201	0.08127213
168	0x3dbd02e6	0.092290685
169	0xbdfe5464	-0.1241844
170	0xbe2f6dc6	-0.17131719
171	0x3dbb53af	0.09146821
172	0xbde2e548	-0.11078888
173	0x3c7e0302	0.015503647
174	0xbdf95aac	-0.121754974
175	0xbd82e17c	-0.06390664
176	0xbdb610ee	-0.08889948
177	0x3df09712	0.117475644
178	0xbcad46b8	-0.021151885
179	0x3ddcd27e	0.10782336
180	0x3d14c1f4	0.03631778
181	0x3de5667a	0.112011865
182	0x3d7efc21	0.062252168
183	0xbd2b27f0	-0.041786134
184	0x3da47600	0.08030319
185	0xbd9e8a4f	-0.07741224
186	0xbd22bdd6	-0.039731823
187	0x3d24f888	0.04027608
188	0x3de1856e	0.11011778
189	0xbdb7c776	-0.08973591
190	0xbe0a8352	-0.13526657
191	0xbe09de45	-0.13463695

net.4.bias f4 [3]
0	0xbdb0e7ec	-0.086379856
1	0xbc02b606	-0.007977968
2	0xbd3bff8e	-0.045898013
