backend/bc_policy.pt (torch, 288045 bytes, 6 tensors)

mlp_extractor.policy_net.0.weight f4 [256, 13]
0.21204484 0.23020276 -0.0649755 0.25477692 -0.060768396 0.055966675 -0.13502929 0.1628829
0.24449602 -0.20347184 0.24107167 0.051908642 0.2049087 0.05148871 0.12724285 -0.01993631
0.22847028 0.06399766 -0.13748194 0.11034455 -0.10824915 -0.009724693 -0.091158755 0.20417017
-0.19857866 -0.09539598 -0.115858965 -0.15954782 0.045339484 -0.25892484 0.2720193 -0.22592986
0.29474682 0.06283033 -0.06703094 0.19441482 0.0662516 0.22611353 0.049499348 -0.086836025
0.054045036 -0.07466474 0.122575834 0.24692617 0.15542458 -0.11827791 0.16092111 0.0509003
0.14166756 -0.1686694 -0.27234244 -0.10556525 -0.23380978 0.24688764 0.0883127 0.118009254
0.09397685 0.0040357187 0.257988 -0.18594018 0.0316078 -0.17512168 0.099738345 -0.07617375
0.10024906 -0.05776432 0.23003957 -0.16438326 -0.16549872 -0.16544394 0.24944931 0.092427224
0.26749068 -0.22839354 -0.2745998 -0.21649176 -0.18655111 0.11235855 0.094313495 0.24004607
-0.145 -0.19331358 0.14733666 -0.122812 0.15723774 -0.074393444 0.15038137 -0.2241223
-0.14894263 0.078692675 0.05017448 -0.070712835 0.16531992 0.18854514 -0.2011269 -0.1480684
0.2539589 -0.09358694 -0.09832515 -0.26836246 -0.15883014 0.06928307 -0.036608323 -0.20132455
0.036159813 -0.12774464 -0.22698069 -0.015778588 -0.46286723 -0.329878 0.45434424 0.11981521
0.15271316 -0.1977642 -0.12746067 -0.039266627 0.061638296 -0.24404627 -0.11950268 -0.16604078
0.0007686019 -0.103202865 -0.01921919 -0.18794066 -0.19037177 -0.16180655 -0.09493622 -0.21890713
0.2325497 -0.055044025 0.22325626 0.07033298 -0.24517351 0.1802815 -0.08458759 -0.089343295
-0.20103177 -0.28679582 0.06921392 -0.07072362 0.097841285 -0.2381949 0.19555636 -0.21996385
-0.06372462 0.04377502 0.12847996 0.21030368 0.26893735 -0.19504264 0.055396773 -0.13333593
-0.044433948 -0.22163421 0.23860718 -0.21773584 0.104187936 0.12245815 0.12634142 -0.086572774
0.48058143 0.10608824 0.048047237 -0.19539633 0.18887518 0.026667193 -0.06288653 0.29418916
-0.092997484 -0.17104 -0.13735206 -0.021954421 0.14667132 -0.081158124 -0.16164936 -0.08454157
-0.21531102 0.09080221 0.20656222 -0.26923448 0.042417467 0.13324246 0.0094421245 -0.03408764
0.15145889 0.14119107 0.20825595 0.03708095 -0.19866613 0.0033949194 -0.06991422 -0.10165686
0.16019525 0.24206354 -0.08114291 -0.06147626 0.03584147 -0.0094604585 0.051849905 0.09997228
-0.23779523 -0.09626532 0.23852907 0.11556747 -0.00650314 -0.16015635 -0.16194403 -0.25190553
-0.090072565 0.09366229 0.17698318 0.13006271 -0.24465355 -0.16600284 -0.042102862 0.27721724
0.049626242 -0.06243185 0.12402589 -0.104423 -0.17914617 0.2024343 -0.12611158 -0.055599466
-0.27590907 0.18562227 0.21013004 0.10107973 -0.19338907 -0.2737279 -0.22525792 0.20682004
0.13315737 0.23339131 0.14529535 0.07019514 -0.0027160048 -0.21092641 -0.23762585 -0.25941902
0.11353657 -0.13617001 -0.055817425 -0.15961644 -0.050539717 -0.19520867 -0.18122491 0.09200004
-0.08242744 0.17122018 -0.08897634 -0.20345494 -0.048935354 -0.13444474 -0.084852934 -0.2640361
00000000: 4822 593e 46ba 6b3e e011 85bd 1f72 823e
00000010: 48e8 78bd 503d 653d 1e45 0abe c6ca 263e
00000020: 2a5d 7a3e ec5a 50be 7edb 763e 289e 543d
00000030: 96d3 513e d3e5 523d f34b 023e 7951 a3bc
00000040: 1df4 693e 3511 833d 11c8 0cbe 53fc e13d
00000050: bbb1 ddbd 5254 1fbc 71b1 babd fc11 513e
00000060: 3458 4bbe f85e c3bd 7747 edbd 8160 23be
00000070: e5b5 393d cc91 84be 1d46 8b3e 285a 67be
00000080: 0ee9 963e 30ad 803d 8447 89bd ae14 473e
00000090: ebae 873d 4e8a 673e d4bf 4a3d 16d7 b1bd
000000a0: 545e 5d3d d4e9 98bd 0a09 fb3d 37da 7c3e
000000b0: 9f27 1f3e b03b f2bd 81c8 243e d57c 503d
000000c0: 4d11 113e acb7 2cbe 7870 8bbe 9832 d8bd
000000d0: d56b 6fbe 1dd0 7c3e 4add b43d d6ae f13d
000000e0: ef76 c03d 103e 843b 0117 843e 1a67 3ebe
000000f0: 2e77 013d 1953 33be 9e43 cc3d fc00 9cbd
00000100: 614f cd3d 489a 6cbd 7e8f 6b3e 1654 28be
00000110: 7f78 29be 236a 29be a46f 7f3e 7c4a bd3d
00000120: 8af4 883e ffdf 69be 5898 8cbe 04b0 5dbe
00000130: 4107 3fbe 3d1c e63d 6f27 c13d a3ce 753e
00000140: e17a 14be fff3 45be 6cdf 163e dc84 fbbd
00000150: ee02 213e 975b 98bd 93fd 193e 5180 65be
00000160: 6b84 18be a029 a13d c183 4d3d e4d1 90bd
00000170: a049 293e fa11 413e 36f4 4dbe 3e9f 17be
00000180: e706 823e 82aa bfbd b25e c9bd ce66 89be
00000190: 5ea4 22be 48e4 8d3d 9cf2 15bd 0628 4ebe
000001a0: 501c 143d 7ecf 02be a06d 68be 1942 81bc
000001b0: effc ecbe c5e5 a8be cf9f e83e ad61 f53d
000001c0: d760 1c3e b382 4abe 0d85 02be 0bd6 20bd
000001d0: 7078 7c3d 44e7 79be d2bd f4bd 9806 2abe
000001e0: 007c 493a 065c d3bd 9071 9dbc 8473 40be
000001f0: d1f0 42be 9eb0 25be ec6d c2bd 3129 60be
00000200: 8221 6e3e d875 61bd 4a9d 643e bd0a 903d
00000210: c40e 7bbe b79b 383e 423c adbd 9ef9 b6bd
00000220: 46db 4dbe e7d6 92be 07c0 8d3d 8cd7 90bd
00000230: 0361 c83d 5de9 73be ed3f 483e 343e 61be
00000240: 0e82 82bd 6f4d 333d 4090 033e d959 573e
00000250: 28b2 893e 42b9 47be bae7 623d 3789 08be
00000260: 5f00 36bd 14f4 62be 7155 743e 25f6 5ebe
00000270: 7c60 d53d 57cb fa3d a55f 013e 114d b1bd
00000280: c50e f63e cb44 d93d 2ecd 443d fa15 48be
00000290: 7f68 413e 2875 da3c a7ca 80bd f69f 963e
000002a0: 7775 bebd 1c25 2fbe 05a6 0cbe c2d9 b3bc
000002b0: 0231 163e 3b36 a6bd 6987 25be 2124 adbd
000002c0: 7e7a 5cbe 82f6 b93d 0c85 533e 1ad9 89be
000002d0: f0bd 2d3d b670 083e 24b3 1a3c 7b9f 0bbd
000002e0: 0a18 1b3e 6494 103e 0c41 553e 32e2 173d
000002f0: 226f 4bbe 4c7d 5e3b 302f 8fbd 7931 d0bd
00000300: 390a 243e 81df 773e 412e a6bd 88ce 7bbd
00000310: 81ce 123d 0a00 1bbc 9160 543d 44be cc3d
00000320: 9880 73be c126 c5bd f740 743e a3ae ec3d
00000330: 4b18 d5bb 0700 24be a8d4 25be c3f9 80be
00000340: f777 b8bd 04d2 bf3d 143b 353e 292f 053e
00000350: 7686 7abe a6fc 29be 0d74 2cbd 6bef 8d3e
00000360: e344 4b3d 8ab8 7fbd 4901 fe3d badb d5bd
00000370: 1872 37be f04a 4f3e 6523 01be 44bc 63bd
00000380: f443 8dbe c413 3e3e 542c 573e e402 cf3d
00000390: c907 46be 1026 8cbe 03aa 66be a2c8 533e
000003a0: 685a 083e 22fe 6e3e 4ec8 143e 78c2 8f3d
000003b0: 00ff 31bb 18fd 57be 3154 73be 92d2 84be
000003c0: dc85 e83d 2770 0bbe d0a0 64bd 7e72 23be
000003d0: bc02 4fbd c8e4 47be 0693 39be 846a bc3d
000003e0: b8cf a8bd 5854 2f3e 3a39 b6bd 7e56 50be
000003f0: 7070 48bd e2ab 09be 60c7 adbd bd2f 87be

mlp_extractor.policy_net.0.bias f4 [256]
0.27316323 -0.23410964 0.27699292 -0.21769886 -0.05648945 -0.113600455 -0.15384714 0.09860781
0.1820502 -0.18219176 -0.13949679 0.12739398 0.016572207 0.058819517 0.15171608 -0.095414184
-0.15304035 0.10209173 -0.10156424 -0.18461575 -0.15726553 -0.12895812 0.2761626 0.043022815
0.12309201 0.03725499 -0.19004205 0.1903697 -0.037066657 -0.06424902 0.2453464 -0.16286689
0.06682868 -0.22588071 0.14212054 0.1222863 -0.22893387 0.15479937 0.0308761 -0.14321387
0.15099475 0.11056247 0.107654214 -0.10301493 -0.16008103 -0.14923508 0.15182641 0.06653087
-0.15635218 0.2555777 0.19995819 -0.1058944 0.14859815 -0.11756824 0.09301699 0.23415357
-0.24904558 -0.14943221 -0.015674595 0.07606652 -0.29304284 -0.17771736 -0.019068843 -0.030793905
0.059822917 0.026607903 0.056123387 0.019205844 0.039046742 -0.00012637558 0.08991447 0.22949606
-0.13841164 -0.15205948 0.1333826 -0.19233648 0.1685139 0.12814143 0.030550929 -0.10868732
0.011890554 -0.25527564 -0.24905704 0.24285704 -0.2621539 -0.23713781 -0.0926139 0.00086613506
0.06386309 -0.14638682 -0.070096925 -0.04678358 0.23148122 0.12643245 0.1038731 -0.013050425
0.15657668 -0.21163568 0.16303158 -0.14633393 0.20502403 -0.18818614 0.10329764 -0.22807518
0.16187489 0.03297511 0.28099507 -0.20918226 0.20748888 -0.1730416 -0.14983693 0.11465494
-0.06185298 -0.21309362 -0.18805909 -0.061611276 0.07679215 0.24357225 0.20397899 -0.008015471
-0.17591439 -0.24728191 0.2438001 -0.1286313 -0.010232665 -0.22664982 -0.19358003 0.055723384
-0.061970808 0.020568648 0.007201924 0.014130563 -0.035343517 -0.016683565 0.12055519 0.20260942
0.23311263 -0.22628102 -0.2346378 -0.06600197 -0.02004245 0.14329721 0.22775124 0.07122281
-0.17333269 -0.03194384 0.20845601 0.090579696 -0.19614577 0.009212291 -0.29222676 -0.09960843
0.20718086 -0.112618886 0.2346387 -0.22414787 0.23378682 0.1331779 0.18257566 0.06279354
0.027579715 -0.14740577 -0.15303981 -0.1904617 0.19693886 -0.09008635 0.10081713 -0.27060798
0.06206533 -0.08035356 -0.21118258 0.034372948 -0.2554989 -0.027391057 -0.22649595 0.175595
-0.2093997 0.046939705 0.09832964 -0.21074145 0.17934275 0.22096749 -0.15015428 0.013587184
0.08410451 0.21196344 0.1678168 -0.22935213 -0.22236028 -0.26698485 -0.13076802 -0.045944814
-0.09951405 0.14431429 -0.25104225 -0.23743205 -0.21650143 -0.1920768 0.2634305 0.035024166
-0.039361916 -0.09513156 -0.2369989 -0.0680435 0.1461148 0.18744761 0.18469383 0.01804392
-0.15552321 -0.085271 0.26954368 -0.25033614 0.06482572 -0.026186436 0.25747564 0.13191931
-0.0059312307 -0.22955808 0.032520883 -0.19372167 -0.020397827 0.06944302 0.07445404 -0.064260475
-0.18722063 -0.24090852 -0.26251474 0.030292945 -0.16880615 -0.0097104665 -0.11866209 -0.19277903
0.19223383 0.16325858 0.19635108 0.26029414 -0.17935476 -0.14091255 -0.22419845 0.18182011
0.13524967 0.2248309 -0.2231463 -0.15631944 0.2581531 -0.23404023 -0.18471691 0.08924415
-0.23361692 -0.08499565 0.19586648 0.2244163 -0.031470865 -0.22259568 0.10641978 0.2765009
00000000: 0ddc 8b3e 70ba 6fbe 04d2 8d3e 73ec 5ebe
00000010: 7b61 67bd 5ba7 e8bd 1b8a 1dbe e4f2 c93d
00000020: 5e6b 3a3e 7a90 3abe 3fd8 0ebe 9173 023e
00000030: 70c2 873c bcec 703d 765b 1b3e 8368 c3bd
00000040: 9cb6 1cbe 7815 d13d ea00 d0bd e90b 3dbe
00000050: 370a 21be 990d 04be 2f65 8d3e b138 303d
00000060: aa17 fc3d b098 183d 629a 42be 46f0 423e
00000070: 35d3 17bd fd94 83bd 163c 7b3e 94c6 26be
00000080: 7add 883d 464d 67be 0c88 113e 3d71 fa3d
00000090: a46d 6abe ba83 1e3e e0ef fc3c a8a6 12be
000000a0: 5e9e 1a3e 946e e23d d079 dc3d 7ef9 d2bd
000000b0: 48ec 23be 15d1 18be 6278 1b3e 5641 883d
000000c0: c91a 20be 15db 823e d7c1 4c3e 2adf d8bd
000000d0: 1d2a 183e 9ec7 f0bd b17f be3d f4c5 6f3e
000000e0: ce05 7fbe c204 19be 0268 80bc c3c8 9b3d
000000f0: b609 96be 8afb 35be 4336 9cbc 8043 fcbc
00000100: e008 753d d1f8 d93c a3e1 653d 9355 9d3c
00000110: 7aef 1f3d b083 04b9 1425 b83d 0401 6b3e
00000120: c8bb 0dbe 7bb5 1bbe 7395 083e dbf3 44be
00000130: e88e 2c3e 8237 033e f145 fa3c 7597 debd
00000140: 99d0 423c 7db3 82be cf08 7fbe 84af 783e
00000150: 0939 86be 41d4 72be 5bac bdbd 570d 633a
00000160: a7ca 823d 6de6 15be fa8e 8fbd 24a0 3fbd
00000170: 6a09 6d3e 8277 013e 6bbb d43d 73d1 55bc
00000180: a355 203e 06b7 58be c0f1 263e 90d8 15be
00000190: d2f1 513e deb3 40be b78d d33d 8a8c 69be
000001a0: 88c2 253e e910 073d 96de 8f3e e033 56be
000001b0: f777 543e d131 31be da6e 19be 36d0 ea3d
000001c0: 8d59 7dbd 3735 5abe 9092 40be 1b5c 7cbd
000001d0: 3445 9d3d 016b 793e dedf 503e 5253 03bc
000001e0: e722 34be 7837 7dbe bca6 793e ecb7 03be
000001f0: e8a6 27bc e416 68be d839 46be 343e 643d
00000200: 1ad5 7dbd 957f a83c 1efe eb3b e083 673c
00000210: 5dc4 10bd f9ab 88bc a4e5 f63d d878 4f3e
00000220: 14b5 6e3e 36b6 67be e444 70be 0a2c 87bd
00000230: 1030 a4bc 81bc 123e 9f37 693e 44dd 913d
00000240: 207e 31be 8bd7 02bd 7e75 553e d981 b93d
00000250: 70da 48be 26ef 163c bf9e 95be 81ff cbbd
00000260: 3827 543e bba4 e6bd 2145 703e 0587 65be
00000270: d065 6f3e ca5f 083e 1df5 3a3e e699 803d
00000280: dbee e13c 8af1 16be 78b6 1cbe 6408 43be
00000290: 57aa 493e 317f b8bd 3679 ce3d 218d 8abe
000002a0: 3738 7e3d 6890 a4bd 3f40 58be a6ca 0c3d
000002b0: c0d0 82be 3663 e0bc 8eee 67be 2dcf 333e
000002c0: e06c 56be d943 403d 0d61 c93d 9bcc 57be
000002d0: a0a5 373e 4d45 623e 0bc2 19be c89c 5e3c
000002e0: fc3e ac3d f20c 593e 2bd8 2b3e 49db 6abe
000002f0: 6ab2 63be 3db2 88be 0de8 05be a130 3cbd
00000300: 06ce cbbd 20c7 133e 9c88 80be 6321 73be
00000310: 8db2 5dbe c8af 44be 5de0 863e 8075 0f3d
00000320: f639 21bd 56d4 c2bd d7af 72be 645a 8bbd
00000330: 1e9f 153e 44f2 3f3e 6120 3d3e d8d0 933c
00000340: 7a41 1fbe 90a2 aebd a101 8a3e 0f2c 80be
00000350: 59c3 843d f084 d6bc d9d3 833e db15 073e
00000360: c55a c2bb 4611 6bbe 9e34 053d f95e 46be
00000370: 5819 a7bc 2438 8e3d 5c7b 983d ff9a 83bd
00000380: c4b6 3fbe b9b0 76be 5568 86be e928 f83c
00000390: 85db 2cbe a618 1fbc 1c05 f3bd de67 45be
000003a0: f2d8 443e 422d 273e 4210 493e 4645 853e
000003b0: c6a8 37be 614b 10be 4794 65be 0d2f 3a3e
000003c0: e47e 0a3e 123a 663e 7780 64be 3412 20be
000003d0: a52c 843e 3ea8 6fbe 6e26 3dbe a3c5 b63d
000003e0: 4639 6fbe 3312 aebd 3991 483e 63cd 653e
000003f0: 98e7 00bd 1ff0 63be 9df2 d93d 8791 8d3e

mlp_extractor.policy_net.2.weight f4 [256, 256]
-0.044950247 -0.005705957 -0.053685937 -0.030462885 0.019540947 0.027750801 0.024396136 -0.06031616
-0.024826901 0.025188703 -0.0070394827 -0.020709107 -0.032004986 0.057510335 -0.044667315 -0.047858495
0.046993047 -0.039411165 0.036319166 -0.035901017 -0.009909707 -0.031646237 0.05019007 0.041815132
0.0066152015 5.0217866e-05 -0.025035342 -0.03485685 -0.025094537 0.009650139 -0.0042599654 0.042362776
0.0104482565 -0.0057959035 -0.040287703 0.023200864 -0.055455353 0.016050953 0.023873774 0.009862245
0.040081397 0.013550654 0.013624446 -0.045183077 -0.05945494 0.030094277 0.034288 -0.038577702
0.017853972 -0.024430867 0.053322855 -0.020094361 0.1016659 0.04565555 0.03423648 0.04416117
-0.00078403763 0.019585744 -0.054582953 -0.014897203 -0.010177841 0.018412072 -0.022770375 0.04003822
0.04098755 0.02534332 0.03361673 -0.0068820333 0.033261012 -0.0313484 0.05460762 0.0056107035
-0.0050941296 -0.06086349 0.05925314 -0.006776323 0.044462096 -0.042336218 -0.053737447 -0.008554374
-0.04852661 0.014756423 0.003998393 -0.03929346 0.044314153 0.05357222 -0.065316014 -0.051536374
0.041604623 -0.03943722 0.012716714 -0.015771078 0.014336241 -0.041242957 -0.022515688 -0.020683903
-0.02547304 -0.033717833 0.0144292675 0.073016346 -0.004416613 -0.001958755 0.053015172 0.048933163
-0.0105214855 -0.0628033 0.010137779 0.01721279 -0.04995672 -0.05213043 0.008702258 0.06247615
-0.057458986 -0.036736786 -0.02024721 -0.056865335 -0.037034497 0.0505063 0.049250595 -0.065044664
0.0061928276 -0.05235143 0.024508389 -0.054309797 -0.03498226 -0.030417789 0.007130832 0.061184645
-0.02470977 0.009751342 0.05052834 -0.0023386772 0.015728708 -0.004571425 0.000649973 0.036074735
0.032369908 -0.034921244 0.05827498 0.031416263 -0.018881038 0.056570742 0.0039907014 0.040943064
-0.05930235 0.054653104 0.051710837 -0.0481491 -0.057388812 -0.01732161 -0.035739906 0.015673125
0.0029267224 -0.00793624 0.044211823 0.006586487 -0.01981773 -0.051899802 0.021303216 -0.060247257
0.0007844928 0.01952134 -0.03355462 0.020224635 0.012066722 0.043274783 0.043187547 -0.0640088
-0.04168969 -0.021489164 -0.04809143 0.01814774 -0.042397752 -0.04916557 0.019652244 0.036286473
-0.0052162777 -0.06082916 0.009537565 0.03355264 0.04737483 0.0058809426 0.04361432 -0.085684836
0.05834399 -0.0299935 -0.044409957 0.044193137 -0.0124399355 0.029919337 -0.048163842 0.03519765
0.05782631 0.02121853 0.0388507 -0.06068666 -0.0128103895 0.019189639 0.02350842 -0.031924017
0.041219193 -0.02201207 -0.032694884 0.010175695 -0.051230125 -0.0588108 0.019450359 0.01313786
0.019164087 -0.0071101943 -0.04426007 -0.04876017 0.058357883 -0.055631526 0.017388692 0.058476716
0.047020026 -0.030501908 -0.018951703 -0.045269508 0.023718288 -0.060100846 -0.05280525 -0.04864817
0.052429557 0.03906971 0.043326236 0.04650707 -0.030597184 -0.072620936 -0.036938332 0.021850394
0.019905176 0.0115958825 -0.046634078 0.00413863 -0.035030637 -0.021883601 -0.0033977423 0.0016583392
-0.05328177 0.051901527 -0.023484586 0.018079804 0.041591544 0.006363336 0.04521837 0.024729924
0.047193114 0.008716368 0.04115086 -0.028615514 -0.032229394 0.028389703 0.017849285 -0.0037921225
00000000: c01d 38bd 09f9 babb c9e5 5bbd 4d8d f9bc
00000010: 5614 a03c a655 e33c 68da c73c 140e 77bd
00000020: c961 cbbc 8a58 ce3c 76ab e6bb 25a6 a9bc
00000030: a917 03bd f58f 6b3d 13f5 36bd 4507 44bd
00000040: c87b 403d 9a6d 21bd 68c3 143d f20c 13bd
00000050: 535c 22bc 7c9f 01bd 1a94 4d3d 5846 2b3d
00000060: 55c4 d83b 06a1 5238 eb16 cdbc 0ec6 0ebd
00000070: 0f93 cdbc 9e1b 1e3c 2e97 8bbb 9784 2d3d
00000080: 2a2f 2b3c 90eb bdbb b804 25bd bd0f be3c
00000090: 2725 63bd 4a7d 833c ef92 c33c 4195 213c
000000a0: 642c 243d 9003 5e3c 1139 5f3c e411 39bd
000000b0: 0687 73bd 4688 f63c 9371 0c3d a703 1ebd
000000c0: 7e42 923c 3e23 c8bc 1169 5a3d ee9c a4bc
000000d0: 3636 d03d 5001 3b3d 8d3b 0c3d 58e2 343d
000000e0: e087 4dba 4872 a03c 6092 5fbd 6613 74bc
000000f0: f6c0 26bc ead4 963c f088 babc 1eff 233d
00000100: 90e2 273d cb9c cf3c b2b1 093d ae82 e1bb
00000110: b33c 083d 2e67 00bd 3dac 5f3d fed9 b73b
00000120: a8ec a6bb ff4b 79bd 6cb3 723d eb0b debb
00000130: e31d 363d be68 2dbd cc1b 5cbd a527 0cbc
00000140: d7c3 46bd edc4 713c f404 833b 2ef2 20bd
00000150: c282 353d 8b6e 5b3d 67c4 85bd ce17 53bd
00000160: 9c69 2a3d ec88 21bd c459 503c 5932 81bc
00000170: 8ee2 6a3c 60ee 28bd d272 b8bc 4a71 a9bc
00000180: d6ac d0bc b61b 0abd bc68 6c3c 9889 953d
00000190: 3cb9 90bb 755e 00bb 7026 593d 246e 483d
000001a0: 4f62 2cbc 049f 80bd ed18 263c d601 8d3c
000001b0: 6b9f 4cbd b886 55bd ea93 0e3c fee6 7f3d
000001c0: 1d5a 6bbd 5079 16bd 7add a5bc a0eb 68bd
000001d0: 7cb1 17bd b2df 4e3d feba 493d 2336 85bd
000001e0: 34ed ca3b 746e 56bd d1c5 c83c f373 5ebd
000001f0: 8f49 0fbd ba2e f9bc c1a9 e93b c09c 7a3d
00000200: 256c cabc 18c4 1f3c cef6 4e3d 7e44 19bb
00000210: 7ed9 803c e4cb 95bb f362 2a3a 1ac3 133d
00000220: 4f96 043d 9409 0fbd bfb1 6e3d 57ae 003d
00000230: 68ac 9abc b9b6 673d 6ec4 823b eab3 273d
00000240: 05e7 72bd efdb 5f3d bece 533d fe37 45bd
00000250: 8810 6bbd 0de6 8dbc 0264 12bd ed64 803c
00000260: 41ce 3f3b 0107 02bc 7517 353d 75d3 d73b
00000270: cb58 a2bc e394 54bd 1584 ae3c d4c5 76bd
00000280: 6ca6 4d3a 38eb 9f3c 9270 09bd 22ae a53c
00000290: 80b3 453c e640 313d 6de5 303d 0c17 83bd
000002a0: cfc2 2abd 0b0a b0bc 85fb 44bd 92aa 943c
000002b0: 44a9 2dbd d661 49bd befd a03c 20a1 143d
000002c0: 4fed aabb ff27 79bd 7243 1c3c 7e6e 093d
000002d0: 1c0c 423d ecb4 c03b eea4 323d 887b afbd
000002e0: 1cfa 6e3d eeb4 f5bc 37e7 35bd dd03 353d
000002f0: dfd0 4bbc 6619 f53c 7347 45bd 692b 103d
00000300: 48db 6c3d 7cd2 ad3c e921 1f3d 9392 78bd
00000310: abe2 51bc 9733 9d3c bb94 c03c c2c2 02bd
00000320: 75d5 283d a852 b4bc 12eb 05bd f5b7 263c
00000330: aed6 51bd 98e3 70bd 5c56 9f3c 2e40 573c
00000340: 01fe 9c3c a2fc e8bb 0c4a 35bd beb8 47bd
00000350: ad08 6f3d e2dd 63bd bb72 8e3c 4885 6f3d
00000360: 1298 403d 23df f9bc 9a40 9bbc 856c 39bd
00000370: db4c c23c 4e2c 76bd 514a 58bd 4e43 47bd
00000380: 60c0 563d 8f07 203d da76 313d 337e 3e3d
00000390: f2a6 fabc 49ba 94bd a64c 17bd 99ff b23c
000003a0: 2e10 a33c a8fc 3d3c 6003 3fbd 589d 873b
000003b0: 497c 0fbd 3d45 b3bc a8ac 5ebb a15c d93a
000003c0: fc3d 5abd b296 543d bf62 c0bc 191c 943c
000003d0: e55b 2a3d 8883 d03b e636 393d 6996 ca3c
000003e0: 914d 413d 19cf 0e3c ce8d 283d 156b eabc
000003f0: f802 04bd 8691 e83c aa38 923c 4285 78bb

mlp_extractor.policy_net.2.bias f4 [256]
-0.0405277 0.0008309907 0.0037570377 -0.04774167 -0.052960236 -0.04025219 -0.05527498 -0.05085038
0.031932812 -0.033858217 0.06251034 -0.047198635 -0.014701932 -0.010856189 0.04826561 0.030994063
0.008131959 -0.03021526 0.024793023 -0.043278873 0.010304823 0.038979165 0.01851387 0.029464783
-0.014910056 0.052204926 0.0014232007 0.029677957 0.0045579155 0.00543691 -0.050350748 0.04032707
-0.06274869 -0.026022132 0.010848409 0.022522109 -0.03529803 -0.023200406 -0.027766256 -0.06337308
-0.05315015 0.019277468 0.004542141 -0.016506271 0.027105141 0.019161494 -0.04844972 -0.009066821
0.0075731343 -0.012551616 0.047855858 -0.039906904 0.02593248 0.033921488 -0.04690751 -0.050383348
0.031954695 -0.028212078 0.04341567 0.0037592775 -0.008551892 0.05157345 -0.018361349 -0.00092448667
-0.043689206 -0.0021825011 0.054330744 0.054935433 -0.027027994 -0.027226094 0.05385027 0.053238556
-0.010738684 -0.0070462483 -0.041300498 -0.052109048 0.007239903 -0.04830773 0.024040584 0.048248984
-0.025861165 -0.034911297 -0.05706139 -0.0033169293 -0.025313223 0.06137692 0.027809955 0.047113962
0.050126504 0.0023724048 -0.033444647 -0.011737594 -0.05033459 -0.04061298 -0.05385063 0.027276231
-0.047188085 -0.0024252185 0.03979639 -0.005021111 0.04793902 0.012974888 -0.01592812 0.016868256
0.05918466 0.033066027 -0.05188585 -0.016533302 -0.016354252 -0.029507695 -0.0037018394 -0.056638367
0.050335526 -0.038663037 0.031249505 0.012974778 0.017443307 -0.046998058 -0.044033524 -0.053121306
0.031920582 0.038750768 0.014926712 0.018949842 0.028993772 0.022718748 -0.03419044 0.015090312
-0.014692414 0.029510992 0.048704118 0.018289262 -0.011579767 0.04934551 0.04851137 -0.006028095
0.048158858 -0.040080708 0.035081968 -0.00057653186 -0.001309814 -0.015406144 0.062550746 -0.011346033
-0.043516137 -0.031964086 -0.02275871 0.037283123 0.051614728 0.016621033 -0.008418051 0.0066099972
-0.0026083095 -0.06114792 -0.018634455 0.049654625 -0.0015735689 -0.04896078 -0.05561483 0.002340137
-0.023895767 -0.028397541 -0.015784642 0.046647064 0.034021117 -0.021792663 0.050138585 0.049689114
0.020463029 0.025827188 -0.026512617 0.04475821 -0.0544241 -0.053120703 -0.05264804 -0.038966928
0.0021480152 -0.019161422 -0.037690725 0.044085763 0.01727293 0.02904198 -0.0038164607 0.0079834685
0.032463983 -0.020509653 -0.0065396493 -0.018864539 -0.037342995 0.0055060936 0.028514558 -0.022978036
0.026866507 0.03578656 -0.01868823 -0.04853407 0.04428194 0.045912523 -0.029937021 -0.00574433
0.0030369197 -0.04026052 -0.019776652 -0.02969616 0.062422264 0.047062244 -0.0070467982 0.023505574
-0.01573381 0.038691428 0.034343354 -8.8787536e-05 0.044884983 -0.035663627 0.015922163 -0.042810164
-0.04932291 0.014366238 0.032634124 0.04731345 -0.038747504 0.0045074555 -0.025916051 0.032554235
0.04529607 0.028152198 -0.029790835 0.057454083 0.021883512 0.017657502 0.0020235968 0.005805783
0.053524505 0.035716876 0.037337456 -0.010062299 0.05940496 0.052296754 -0.017238224 -0.021931201
-0.048731875 0.05194365 -0.014100547 0.0016656744 -0.024863964 0.045353618 -0.0062187267 -0.042039458
-0.019320477 0.006867043 -0.02840246 0.023237977 -0.053815976 0.01735713 -0.03697813 0.014754988
00000000: 6000 26bd d8d6 593a a238 763b c58c 43bd
00000010: d5ec 58bd 7bdf 24bd 0468 62bd 7d48 50bd
00000020: fbcb 023d eaae 0abd 6c05 803d 5b53 41bd
00000030: 5fe0 70bc 28de 31bc 29b2 453d 43e7 fd3c
00000040: e83b 053c fe85 f7bc bd1a cb3c 3045 31bd
00000050: 8fd5 283c 9ea8 1f3d 66aa 973c 2160 f13c
00000060: 4f49 74bc d5d4 553d b18a ba3a 301f f33c
00000070: 915a 953b 1b28 b23b 963c 4ebd ff2d 253d
00000080: 6382 80bd 5e2c d5bc 86bd 313c 4980 b83c
00000090: ab94 10bd c70e bebc 0f76 e3bc bfc9 81bd
000000a0: f9b3 59bd c8eb 9d3c 3ed6 943b 2938 87bc
000000b0: 9a0b de3c 91f8 9c3c 3773 46bd 018d 14bc
000000c0: 0e28 f83b 4ba5 4dbc 8104 443d 6c75 23bd
000000d0: 5a70 d43c 42f1 0a3d 1722 40bd c55e 4ebd
000000e0: ede2 023d 041d e7bc a1d4 313d 365e 763b
000000f0: 3c1d 0cbc af3e 533d 8a6a 96bc 4059 72ba
00000100: 74f3 32bd 4b08 0fbb ea89 5e3d fa03 613d
00000110: d069 ddbc 4209 dfbc 1a92 5c3d ac10 5a3d
00000120: 4ef1 2fbc 37e4 e6bb b62a 29bd 4c70 55bd
00000130: b53c ed3b 54de 45bd c2f0 c43c baa0 453d
00000140: cbda d3bc 26ff 0ebd 34b9 69bd d760 59bb
00000150: ad5d cfbc 5e66 7b3d b4d1 e33c 92fa 403d
00000160: 7351 4d3d 597a 1b3b 41fd 08bd 0a4f 40bc
00000170: a52b 4ebd cc59 26bd 7a92 5cbd 6772 df3c
00000180: 4b48 41bd 6af0 1ebb 8a01 233d 2288 a4bb
00000190: b55b 443d a094 543c b07b 82bc 4c2f 8a3c
000001a0: 9d6b 723d 3e70 073d 4286 54bd d970 87bc
000001b0: 5af9 85bc 1fba f1bc 8f9a 72bb a2fd 67bd
000001c0: a02c 4e3d 225d 1ebd f6fe ff3c 2a94 543c
000001d0: 44e5 8e3c 0981 40bd 7f5c 34bd ba95 59bd
000001e0: 28bf 023d 20b9 1e3d 2b8f 743c b33c 9b3c
000001f0: 5984 ed3c ab1c ba3c 460b 0cbd 5b3d 773c
00000200: 73b8 70bc 09c1 f13c f87d 473d 5dd3 953c
00000210: 10b9 3dbc 841e 4a3d dcb3 463d 5387 c5bb
00000220: 3942 453d ab2b 24bd 1cb2 0f3d 6622 17ba
00000230: 11ae abba 0d6a 7cbc 9b1a 803d b6e4 39bc
00000240: fa3d 32bd c6ec 02bd 7970 babc 30b6 183d
00000250: f769 533d d528 883c ddeb 09bc ad98 d83b
00000260: 2cf0 2abb 3e76 7abd 49a7 98bc a662 4b3d
00000270: 3640 ceba 198b 48bd 60cc 63bd fc5c 193b
00000280: 0ec1 c3bc f6a1 e8bc cb4e 81bc fe10 3f3d
00000290: ba59 0b3d 8786 b2bc 1e5e 4d3d d086 4b3d
000002a0: 15a2 a73c 8a93 d33c fd30 d9bc 6354 373d
000002b0: ceeb 5ebd 1895 59bd 79a5 57bd c99b 1fbd
000002c0: b7c5 0c3b 6af8 9cbc 9761 1abd 4693 343d
000002d0: f67f 8d3c 72e9 ed3c 961d 7abb 18cd 023c
000002e0: f4f8 043d dc03 a8bc 8e4a d6bb ce89 9abc
000002f0: f8f4 18bd 766c b43b 5d97 e93c 6f3c bcbc
00000300: 2617 dc3c ee94 123d 0f18 99bc a9cb 46bd
00000310: fb60 353d c50e 3c3d 7c3e f5bc ef3a bcbb
00000320: 0f07 473b 37e8 24bd a502 a2bc 5d45 f3bc
00000330: 7dae 7f3d 57c4 403d d4e8 e6bb c38e c03c
00000340: 31e4 80bc e77a 1e3d 9eab 0c3d 7233 bab8
00000350: 51d9 373d 0614 12bd 326f 823c b659 2fbd
00000360: d206 4abd 5f60 6b3c 5cab 053d c0cb 413d
00000370: b4b5 1ebd 47b3 933b e64d d4bc 9757 053d
00000380: 5f88 393d 709f e63c e90b f4bc f954 6b3d
00000390: 0d45 b33c 77a6 903c 529e 043b 703e be3b
000003a0: 833c 5b3d dc4b 123d 29ef 183d 57dc 24bc
000003b0: 9e52 733d 1f35 563d 2d37 8dbc 10a9 b3bc
000003c0: 139b 47bd ddc2 543d fb05 67bc c252 da3a
000003d0: 83af cbbc b7c4 393d 76c6 cbbb 9131 2cbd
000003e0: fa45 9ebc ef04 e13b 47ac e8bc 925d be3c
000003f0: 246e 5cbd 8a30 8e3c 6176 17bd e8be 713c

action_net.weight f4 [7, 256]
-0.018560324 0.04161437 -0.058503598 -0.017899202 -0.026617989 -0.025817612 0.050310448 -0.032247394
-0.0048534297 -0.004905816 0.049182173 -0.057431325 0.03662051 -0.04447735 0.0016867167 -0.052782208
0.014500597 0.010988622 -0.011987809 -0.05175439 0.057621557 -0.006181602 0.024364738 0.045061585
0.017510409 0.04012046 0.057207763 0.04807263 0.046679474 0.03259635 -0.04788558 0.027632652
0.055719603 0.03010273 -0.031924557 -0.018881747 0.036758944 -0.025691077 -0.060700703 0.033489987
-0.019568775 -0.03786481 -0.0053368253 -0.007925 0.020180874 0.027525516 0.033721402 0.045725014
0.010699828 -0.047807667 0.014525658 0.016543495 -0.010004396 0.009119926 0.0010824241 -0.023977127
0.03442559 -0.035591222 0.020245003 -0.04316058 0.03615617 -0.03061522 -0.034489583 -0.005856935
-0.018081529 0.018740933 -0.031712987 -0.020985672 -0.007037651 -0.060697164 -0.012528605 0.041995727
0.037667915 -0.009058724 0.039987613 -0.023361484 0.008036736 0.036899235 -0.028721485 -0.057062156
0.034846187 0.044722114 -0.031073434 0.030190378 0.060057875 -0.03467734 0.040050782 0.0225616
0.035371967 -0.013287009 0.0058282143 0.004384288 -0.04193769 -0.041922912 0.0025033043 -0.02272051
0.03137457 0.014240923 -0.034301862 -0.033279985 -0.04306415 0.05424398 0.0031239097 -0.020414947
-0.043685216 0.04362318 -0.025761932 -0.018654907 -0.04451545 0.043818906 0.008741283 0.015221352
0.011330101 0.020689702 -0.052546788 0.062208433 -0.00090832816 0.02737072 -0.02911844 0.029256439
0.022210358 0.020968776 -0.0012777883 -0.00021263526 -0.019851616 0.044833425 -0.030543108 0.004065647
-0.020360509 0.050490644 -0.02853403 0.028663496 -0.04200658 -0.032236215 -0.02575643 -0.0489693
0.021161899 0.019373922 0.004414469 -0.013941362 -0.025535228 0.0031347862 0.029900184 0.02377063
-0.020577466 0.016875986 -0.035845023 0.05442313 -0.016818281 0.030646173 -0.043501183 -0.05278886
0.0068239775 0.0006134311 -0.04481923 0.02079774 0.05802906 0.01942488 -0.00657218 0.012647435
-0.05727992 0.0025770413 -0.005525976 -0.04676046 0.032599308 0.003000628 0.0140782725 -0.008596762
-0.0029176564 0.009851979 0.046188224 0.018914543 0.0038071726 -0.03161772 0.015674468 0.011661214
0.031086005 0.06301951 0.009128408 0.0049734702 -0.01916226 -0.028324045 0.009647691 0.003439966
-0.029269885 0.028966164 0.011723198 0.029065887 0.011132839 0.009441632 -0.034729138 -0.022719901
-0.024050651 0.034286655 -0.018733561 0.04029049 0.016975993 -0.02336631 -0.029391024 -0.01845254
0.012415046 0.011925135 0.014617263 0.026596978 -0.003061634 0.016028024 0.040128995 0.024404146
-0.024292693 0.030361475 -0.005099466 -0.018966414 0.04894793 -0.05608021 0.030484887 -0.032442346
0.043008767 0.050051898 0.03929079 -0.027431233 -0.017569028 0.010202585 -0.016914958 -0.059513878
-0.011558088 -0.046894863 -0.022397282 0.056431722 0.024999468 0.05356716 0.013678843 -0.040280905
-0.020551858 0.032114275 0.01437621 0.03041256 -0.002894973 0.014471923 -0.061542574 -0.01946151
0.013165561 0.014267418 0.00947749 -0.017574498 0.0081550535 0.020866936 0.022778744 0.025370665
0.009428161 0.04584864 0.011021706 -0.050345127 0.022972122 0.030757092 0.016134668 0.066042654
00000000: d20b 98bc d473 2a3d 78a1 6fbd 59a1 92bc
00000010: f80d dabc 757f d3bc 5412 4e3d d815 04bd
00000020: 8509 9fbb f8c0 a0bb 3f73 493d 1c3d 6bbd
00000030: 63ff 153d e22d 36bd d214 dd3a 2832 58bd
00000040: e993 6d3c 9f09 343c 8468 44bc 69fc 53bd
00000050: 9504 6c3d 098f cabb 8f98 c73c 7f92 383d
00000060: fd71 8f3c 5a55 243d b052 6a3d cee7 443d
00000070: fa32 3f3d c083 053d ac23 44bd df5d e23c
00000080: 3d3a 643d 009a f63c 53c3 02bd e5ad 9abc
00000090: 8c90 163d 1876 d2bc 4da1 78bd cc2c 093d
000000a0: b24e a0bc 2218 1bbd 89e0 aebb dcd7 01bc
000000b0: 5c52 a53c 317d e13c 741f 0a3d 274a 3b3d
000000c0: 554e 2f3c f9d1 43bd 07fd 6d3c 3986 873c
000000d0: 7ae9 23bc be6b 153c 20e0 8d3a ae6b c4bc
000000e0: d901 0d3d 1ac8 11bd d9d8 a53c 26c9 30bd
000000f0: 7e18 143d c5cc fabc f344 0dbd 88eb bfbb
00000100: b71f 94bc 9686 993c 7ae5 01bd 25ea abbc
00000110: 189c e6bb 979d 78bd c744 4dbc b603 2c3d
00000120: ac49 1a3d 0b6b 14bc 0dca 233d 9560 bfbc
00000130: 84ac 033c a723 173d 5249 ebbc 02ba 69bd
00000140: e0ba 0e3d 892e 373d b78d febc d051 f73c
00000150: 3fff 753d d409 0ebd 4a0c 243d 1bd3 b83c
00000160: 32e2 103d c1b1 59bc 9bfa be3b 13aa 8f3b
00000170: dbc6 2bbd 5cb7 2bbd 7a0e 243b 5d20 babc
00000180: 9f82 003d c352 693c 1c80 0cbd 9850 08bd
00000190: 0964 30bd f02e 5e3d 82ba 4c3b 3f3d a7bc
000001a0: 45ef 32bd 38ae 323d b00a d3bc 2dd2 98bc
000001b0: d555 36bd 747b 333d 9937 0f3c fa62 793c
000001c0: e3a1 393c 737d a93c 4d3b 57bd 45ce 7e3d
000001d0: df1c 6eba 8f38 e03c cb89 eebc 33ab ef3c
000001e0: 7ff2 b53c b6c6 ab3c 767b a7ba d8f6 5eb9
000001f0: db9f a2bc 41a3 373d 8a35 fabc 1e39 853b
00000200: 15cb a6bc 47cf 4e3d 33c0 e9bc b5cf ea3c
00000210: 170f 2cbd 1f0a 04bd 26ff d2bc 0894 48bd
00000220: b85b ad3c 0fb6 9e3c 40a7 903b 4f6a 64bc
00000230: 412f d1bc fc70 4d3b 3bf1 f43c a0ba c23c
00000240: 1392 a8bc 823f 8a3c 3bd2 12bd caea 5e3d
00000250: 7ec6 89bc af0d fb3c 4c2e 32bd 2239 58bd
00000260: ac9b df3b aace 203a 5e94 37bd 0660 aa3c
00000270: e1af 6d3d ed20 9f3c 715b d7bb 3037 4f3c
00000280: 599e 6abd 94e3 283b 3f13 b5bb e587 3fbd
00000290: da86 053d 2fa6 443b 8ea8 663c 6fd9 0cbc
000002a0: 2736 3fbb 326a 213c dd2f 3d3d acf2 9a3c
000002b0: c281 793b 9581 01bd be67 803c ad0e 3f3c
000002c0: 14a8 fe3c 5f10 813d 518f 153c 7ef8 a23b
000002d0: 2cfa 9cbc d407 e8bc 5911 1e3c 0d71 613b
000002e0: 66c7 efbc 734a ed3c a812 403c 951b ee3c
000002f0: 8366 363c 13b1 1a3c 2440 0ebd 161f babc
00000300: df05 c5bc 2a70 0c3d 2077 99bc a407 253d
00000310: 3d11 8b3c b46a bfbc 72c5 f0bc c829 97bc
00000320: 7a68 4b3c a461 433c 3f7d 6f3c e8e1 d93c
00000330: b2a5 48bb 344d 833c 4d5e 243d 34eb c73c
00000340: 7801 c7bc a1b8 f83c 6c19 a7bb 745f 9bbc
00000350: a07d 483d 5db4 65bd 71bb f93c 44e2 04bd
00000360: f629 303d 3803 4d3d 61ef 203d 77b7 e0bc
00000370: ecec 8fbc be28 273c 3d91 8abc d3c4 73bd
00000380: 225e 3dbc d414 40bd 817a b7bc f324 673d
00000390: afcb cc3c 3d69 5b3d 3a1d 603c 97fd 24bd
000003a0: 5f5c a8bc 428a 033d 328a 6b3c c323 f93c
000003b0: 96b9 3dbb a51b 6d3c 1114 7cbd bf6d 9fbc
000003c0: 5db4 573c e3c1 693c 7947 1b3c 65f8 8fbc
000003d0: c69c 053c 23f1 aa3c 7d9a ba3c 24d6 cf3c
000003e0: 9378 1a3c c9cb 3b3d 6394 343c b136 4ebd
000003f0: 0830 bc3c 4cf6 fb3c da2c 843c 5f41 873d

action_net.bias f4 [7]
0.023650723 -0.023666292 -0.06030197 -0.02414057 -0.016415302 0.051958214 0.015909217
00000000: 29bf c13c d0df c1bc 33ff 76bd 72c2 c5bc
00000010: 6279 86bc 23d2 543d 0c54 823c
