backend/bc_policy.pt (torch, 288045 bytes, 6 tensors)

mlp_extractor.policy_net.0.weight f4 [256, 13]
000000 48 22 59 3e 46 ba 6b 3e e0 11 85 bd 1f 72 82 3e
       0.21204484 0.23020276 -0.0649755 0.25477692
000010 48 e8 78 bd 50 3d 65 3d 1e 45 0a be c6 ca 26 3e
       -0.060768396 0.055966675 -0.13502929 0.1628829
000020 2a 5d 7a 3e ec 5a 50 be 7e db 76 3e 28 9e 54 3d
       0.24449602 -0.20347184 0.24107167 0.051908642
000030 96 d3 51 3e e9 f2 7c 3c ce f1 08 3e f7 97 63 bd
       0.2049087 0.015438774 0.13373491 -0.055564847
000040 c4 ef 5a 3e 55 e3 8a 3c bb d8 1b be 18 1c 55 3d
       0.21380526 0.016954103 -0.15219395 0.052028745
000050 ca 37 11 be 00 8c 47 bd 77 90 02 be 62 30 2d 3e
       -0.14181438 -0.0487175 -0.12750421 0.16912988
000060 f5 2e 6e be c5 b2 11 be fe f0 69 bd ea c3 2a be
       -0.232601 -0.14228351 -0.057114594 -0.16676298
000070 1e 58 26 3d ef 40 8c be 69 ec 8b 3e 20 cf 51 be
       0.04061138 -0.2739329 0.27328804 -0.20489168
000080 9b a8 76 3e c5 9e 75 3d 2e 5e 96 bd 4b 0e 40 3e
       0.24087755 0.059965868 -0.07342182 0.18755452
000090 50 44 73 3d 27 ef 6b 3e a2 33 2e 3d 1c d1 cc bd
       0.05939132 0.23040448 0.04252971 -0.10000822
0000a0 a8 9d 98 3d 7a bd 8e bd 74 0d ef 3d 7e 6d 70 3e
       0.074519455 -0.069697335 0.11672488 0.23479268
0000b0 02 aa 41 3e 2e 31 eb bd 5c 95 28 3e 14 fd 62 3d
       0.18912509 -0.1148399 0.16463226 0.055417135
0000c0 3e 87 17 3e b6 cd 25 be c5 ff 74 be 58 37 cd bd
       0.14797685 -0.16191754 -0.23925693 -0.100203216
0000d0 d5 fb 63 be d2 09 69 3e d4 73 9d 3d 58 47 eb 3d
       -0.22264035 0.22757652 0.07688108 0.11488217
0000e0 f4 77 a3 3d 2b 96 76 bc fb 72 51 3e fe 6c 58 be
       0.079818636 -0.015050451 0.20454018 -0.21135327
0000f0 5b 4f 30 3b 24 a2 50 be ad 92 91 3d 93 2f d0 bd
       0.0026902768 -0.20374352 0.07108054 -0.10165324
000100 cf 10 a0 3d 6c ae 6c bd 7a 8d 6b 3e c9 54 28 be
       0.07815706 -0.05778353 0.23003188 -0.16438593
000110 83 61 29 be 21 64 29 be 96 72 7f 3e 7c 4a bd 3d
       -0.16541104 -0.16542102 0.24946055 0.092427224
000120 89 a4 88 3e 42 62 6a be 82 d9 8c be 47 32 5e be
       0.2668803 -0.22889045 -0.27509695 -0.21698867
000130 4e 0c 3f be 6c 11 e6 3d 88 46 16 3e ea fc 6b 3e
       -0.18657038 0.11233792 0.14675343 0.23045698
000140 d4 e3 df bd 4f 9c 41 be da 16 1b 3e 28 0c eb bc
       -0.10932127 -0.18907283 0.15145436 -0.02869232
000150 c4 94 4f 3e 0b c3 39 bd c9 69 4d 3e 9f 72 35 be
       0.20271593 -0.045352023 0.20059885 -0.17719506
000160 2f 37 d0 bd c9 11 0d 3e 89 98 8a 3d e4 d1 90 bd
       -0.101667754 0.13776316 0.06767375 -0.070712835
000170 a0 49 29 3e fa 11 41 3e 36 f4 4d be 3e 9f 17 be
       0.16531992 0.18854514 -0.2011269 -0.1480684
000180 e7 06 82 3e 82 aa bf bd b2 5e c9 bd ce 66 89 be
       0.2539589 -0.09358694 -0.09832515 -0.26836246
000190 5e a4 22 be 48 e4 8d 3d 9c f2 15 bd 06 28 4e be
       -0.15883014 0.06928307 -0.036608323 -0.20132455
0001a0 f0 10 a0 39 e5 ff 41 be 89 a6 72 be 4b 64 1c be
       0.00030530198 -0.18945272 -0.2369634 -0.15272634
0001b0 21 62 7d be 4e e3 3c be e3 39 89 3e b5 c4 2a 3d
       -0.24744464 -0.18446085 0.26801977 0.0416915
0001c0 c9 e4 95 3d 0d 9f 8a be db e1 46 be 1a 20 c0 bd
       0.07319028 -0.2707447 -0.19422095 -0.09381123
0001d0 93 c1 1c 3d 44 e7 79 be d2 bd f4 bd 98 06 2a be
       0.038270544 -0.24404627 -0.11950268 -0.16604078
0001e0 00 7c 49 3a 06 5c d3 bd 90 71 9d bc 84 73 40 be
       0.0007686019 -0.103202865 -0.01921919 -0.18794066
0001f0 d1 f0 42 be 9e b0 25 be ec 6d c2 bd 31 29 60 be
       -0.19037177 -0.16180655 -0.09493622 -0.21890713
000200 82 21 6e 3e d8 75 61 bd 95 82 d3 3d 90 fb b0 3d
       0.2325497 -0.055044025 0.10327641 0.08641732
000210 12 d0 32 be e0 8a 44 3e 9e 8d 49 3e b3 2e 35 3e
       -0.17462185 0.19193602 0.19682929 0.17693596
000220 ed 53 fd bd 47 f5 8d be f0 ee 02 3e 75 3f 62 bc
       -0.12369523 -0.27726194 0.1278646 -0.013809075
000230 20 78 1e 3e 8a 34 8b be 98 91 ad 3e 02 f5 11 3d
       0.15475512 -0.27188522 0.33900142 0.03563405
000240 54 29 44 bd a0 ed 0d 3e 6e 9e 12 3e 06 bb 4e 3f
       -0.047890976 0.13860178 0.14318249 0.80754125
000250 8d 95 fa bd 2e 7e 02 be 53 e9 03 3e a8 e7 6b bd
       -0.12235556 -0.12743446 0.12881975 -0.05759397
000260 54 de ea 3c 46 18 18 be cf df be 3e 67 b1 06 be
       0.028670467 -0.1485301 0.37280127 -0.13153611
000270 5e fe c6 3e 4c 9f c7 3d 77 cb 27 3e 0a 8c 19 be
       0.38865942 0.0974718 0.1638621 -0.14994827
000280 2a 03 c8 3e 11 2b 94 3e 90 82 ba 3d 9f 7c 53 be
       0.39064914 0.28939107 0.09106934 -0.20653008
000290 b6 de 50 3e 83 27 94 3c e9 f7 89 bd f9 0d d0 3e
       0.20397457 0.018085247 -0.06736738 0.4063566
0002a0 7a 1a e2 3c ad 5e f9 bc 2b bf 0f be 45 6e 9f 3c
       0.027600516 -0.030440653 -0.14037769 0.01946176
0002b0 08 94 1e 3e ee 70 b2 3d 37 0d 4d bc 1c 09 d6 bd
       0.15486157 0.08712946 -0.012515358 -0.10450956
0002c0 48 97 35 be ef 0f 13 3e 02 e4 81 3e 1c 6d 63 be
       -0.1773349 0.14361547 0.2536927 -0.2220959
0002d0 51 b3 30 3e da c6 2f 3e fd fc fc 3d 8e 48 ca bd
       0.17255904 0.171657 0.12352941 -0.0987712
0002e0 3a b9 28 3e c8 3f 15 3e 64 93 8e 3e a7 54 17 3e
       0.16476908 0.14575112 0.27846825 0.14778386
0002f0 b6 7b 74 be db f5 ae 3c 6e 30 92 bd 3f 49 bd bd
       -0.23875317 0.021357467 -0.071381435 -0.09242486
000300 b7 87 2b 3e 9f fc cf 3e 66 7c 6c be 79 10 d9 3d
       0.1675099 0.40622422 -0.23094329 0.10598845
000310 40 9e 84 3b 6f 5b 93 bd 88 8e 88 3d 18 58 c1 be
       0.004047185 -0.07195174 0.06667811 -0.37762523
000320 59 f4 02 bf 5f fc 2d be 98 3d 74 3e 2c dc 94 3d
       -0.51154095 -0.16990803 0.23851621 0.07268557
000330 f6 28 39 bd ab 64 4b be 68 19 73 be 2e 0e 92 be
       -0.04520508 -0.1986262 -0.2374016 -0.28526443
000340 07 a4 b7 bd 04 d2 bf 3d 8f 48 35 3e 02 20 03 3e
       -0.089668326 0.09366229 0.1770346 0.12805179
000350 7b 9d 7c be 4e 02 27 be 10 ac 29 bd 2b 15 8e 3e
       -0.24669449 -0.16309473 -0.041423857 0.27750525
000360 54 33 50 3d 48 9d 7a bd c3 64 00 3e 9a 18 d6 bd
       0.0508302 -0.06118515 0.12538438 -0.10453911
000370 66 bc 38 be f0 4a 4f 3e 65 23 01 be 44 bc 63 bd
       -0.18040618 0.2024343 -0.12611158 -0.055599466
000380 f4 43 8d be c4 13 3e 3e 54 2c 57 3e e4 02 cf 3d
       -0.27590907 0.18562227 0.21013004 0.10107973
000390 c9 07 46 be 10 26 8c be 03 aa 66 be a2 c8 53 3e
       -0.19338907 -0.2737279 -0.22525792 0.20682004
0003a0 68 5a 08 3e 22 fe 6e 3e 4e c8 14 3e 78 c2 8f 3d
       0.13315737 0.23339131 0.14529535 0.07019514
0003b0 00 ff 31 bb 18 fd 57 be 31 54 73 be 92 d2 84 be
       -0.0027160048 -0.21092641 -0.23762585 -0.25941902
0003c0 dc 85 e8 3d 27 70 0b be d0 a0 64 bd 7e 72 23 be
       0.11353657 -0.13617001 -0.055817425 -0.15961644
0003d0 bc 02 4f bd c8 e4 47 be 06 93 39 be 84 6a bc 3d
       -0.050539717 -0.19520867 -0.18122491 0.09200004
0003e0 b8 cf a8 bd 58 54 2f 3e 3a 39 b6 bd 7e 56 50 be
       -0.08242744 0.17122018 -0.08897634 -0.20345494
0003f0 70 70 48 bd e2 ab 09 be 60 c7 ad bd bd 2f 87 be
       -0.048935354 -0.13444474 -0.084852934 -0.2640361

mlp_extractor.policy_net.0.bias f4 [256]
000000 0d dc 8b 3e 90 1e 8a be 9f 94 8c 3e f5 79 59 be
       0.27316323 -0.26976442 0.2745714 -0.21237929
000010 1f ed 9d bd 2c b2 e8 bd cc dd e4 bd e4 f2 c9 3d
       -0.07711243 -0.113621086 -0.11175117 0.09860781
000020 9f 45 1e 3e 7a 90 3a be e9 f6 8c bd 7b fa 6f 3e
       0.15456246 -0.18219176 -0.06883032 0.23435394
000030 12 4a 3d 3d 2c df da 3d b1 fb 28 3e ce be 21 be
       0.046213217 0.10687098 0.16502263 -0.15795442
000040 e5 66 1c be 78 15 d1 3d ea 00 d0 bd e9 0b 3d be
       -0.15273626 0.10209173 -0.10156424 -0.18461575
000050 e3 af 1c be 99 0d 04 be 2f 65 8d 3e 5e 28 2a 3d
       -0.1530147 -0.12895812 0.2761626 0.041542403
000060 32 73 e8 3d b0 98 18 3d 1f 20 4c be 80 4a 3a 3e
       0.11350097 0.03725499 -0.19934128 0.18192482
000070 72 77 a4 bc be 45 4e bd b1 b5 88 3e 5f bb 53 be
       -0.020076487 -0.05035948 0.2670112 -0.20676945
000080 fb db 68 3d ea 79 82 be 0c 88 11 3e 05 68 d4 3d
       0.056850415 -0.25483638 0.14212054 0.10371403
000090 2f 20 1e be ba 83 1e 3e 25 27 f7 bc a8 a6 12 be
       -0.15441965 0.15479937 -0.030170033 -0.14321387
0000a0 c8 5b ed 3d c7 c9 3f 3e b1 ee 9c 3d 7e f9 d2 bd
       0.115897715 0.18729316 0.07662714 -0.10301493
0000b0 38 6d c3 bd 15 d1 18 be 1f bc bd 3d 8d f4 86 3d
       -0.09542316 -0.14923508 0.09264397 0.06589613
0000c0 9c c5 46 be 9b df 80 3e b6 79 18 3e 2a df d8 bd
       -0.1941132 0.25170597 0.14890179 -0.1058944
0000d0 8d f5 1f 3e 9e c7 f0 bd d2 e1 45 3c c8 6c 6b 3e
       0.15621014 -0.11756824 0.012077766 0.22990716
0000e0 2b ab 7c be b8 97 53 be 10 68 80 bc ab b8 03 3e
       -0.2467467 -0.20663345 -0.01567462 0.12863414
0000f0 e3 10 59 be da 56 2d be 0e 6e d9 bc 69 a0 00 bd
       -0.21197848 -0.16927662 -0.026541736 -0.03140298
000100 e0 08 75 3d 6e 8f ba 3d f0 0b 69 3d 50 9f 96 3c
       0.059822917 0.09109388 0.05689615 0.018386513
000110 55 ed 89 bc 88 22 da bc 66 57 b5 3d d5 10 49 3e
       -0.016836802 -0.026627794 0.088545606 0.19635327
000120 c8 bb 0d be 72 aa 19 be fe a8 93 3d 69 69 52 be
       -0.13841164 -0.15006426 0.07209967 -0.20548023
000130 b4 79 81 3e 92 a0 02 3e 55 e0 23 3d da 3e df bd
       0.25288165 0.12756565 0.04000886 -0.1090066
000140 1d c4 05 3c 01 8d 60 be 9c 18 83 be 54 97 7b 3e
       0.008164433 -0.21928789 -0.25604713 0.24569446
000150 bb c0 80 be 61 83 56 be 43 cf c7 bd e2 4f 78 3c
       -0.25147042 -0.20948555 -0.09756329 0.015155764
000160 43 3e 49 bd 7c e3 ac bd 4f 08 c9 bd 01 82 b7 bd
       -0.049131643 -0.08441827 -0.09816038 -0.08960343
000170 f0 38 81 3e 17 31 1d 3e 39 28 00 3e 7c 9f 2e bd
       0.25238752 0.15350758 0.12515344 -0.042632565
000180 6a fc 54 3e d1 5a 65 be 5c 53 ed 3d 70 93 29 be
       0.20799413 -0.22397925 0.11588165 -0.16560149
000190 67 83 8d 3e d5 24 2f be c3 6c e4 3d 5b 4e 6a be
       0.27639315 -0.17103894 0.11153557 -0.22881453
0001a0 88 c2 25 3e 42 46 1d 3d 30 25 93 3e e0 33 56 be
       0.16187489 0.03839708 0.2873931 -0.20918226
0001b0 ba 7d 2a 3e 0f 10 4d be 20 9a 1e be 28 f1 f9 3d
       0.16649523 -0.20025657 -0.15488482 0.122042
0001c0 89 76 5d bd 16 ad 3e be eb af 7f be cd 54 36 bc
       -0.054068122 -0.18620715 -0.24969451 -0.0111286165
0001d0 34 45 9d 3d 39 d6 79 3e de df 50 3e 5f af 3d bc
       0.07679215 0.24398126 0.20397899 -0.011577456
0001e0 47 45 19 be 67 d2 7d be be 8a ae 3e b5 6d 1e be
       -0.14967833 -0.24787293 0.34090227 -0.15471537
0001f0 50 fe 59 bc 49 2b 65 be f0 f2 2e be 11 02 7a 3d
       -0.013305262 -0.22379793 -0.17084861 0.061037127
000200 10 c0 5d bd 16 a2 8e 3c 6e ba 6d 3c e0 83 67 3c
       -0.054138243 0.017411273 0.01450978 0.014130563
000210 23 e1 20 bd d5 30 c3 bc a4 e5 f6 3d d8 78 4f 3e
       -0.039277207 -0.023826996 0.12055519 0.20260942
000220 95 c3 a6 3e 36 b6 67 be 09 f4 80 be 60 c3 07 bd
       0.32571092 -0.22628102 -0.25186184 -0.03314531
000230 46 7c 3d 3b 20 27 14 3e 14 78 85 3e 44 dd 91 3d
       0.0028913184 0.1446805 0.26068175 0.07122281
000240 4d 63 26 be 28 96 00 bd 8a 95 29 3e e6 b6 c9 3d
       -0.16248818 -0.0313932 0.16560951 0.09849338
000250 70 da 48 be 1a 2d 0f 3c 4f a6 80 be 41 1f ff bd
       -0.19614577 0.00873878 -0.25126883 -0.12457133
000260 ab c2 67 3e a0 f6 0a be 66 93 73 3e 7f dc 57 be
       0.22632854 -0.13570642 0.23786697 -0.21080206
000270 66 17 7b 3e ec b6 0a 3e 56 50 fd 3d 87 56 6c 3c
       0.24520645 0.13546342 0.123688385 0.014424927
000280 9f 3d 3b 3b 25 ca 1b be 78 b6 1c be b4 bf 88 be
       0.0028570665 -0.15213831 -0.15303981 -0.26708758
000290 42 45 4f 3e 6f 22 b4 bd 23 d3 85 3d a6 c7 73 be
       0.20241264 -0.0879563 0.06534412 -0.23806629
0002a0 f0 c5 b0 3d 57 2a 08 be 2b bc 5f be 10 99 0c 3d
       0.086315036 -0.13297401 -0.21849124 0.03432566
0002b0 c0 d0 82 be f0 da df bc 8e ee 67 be c8 8c 33 3e
       -0.2554989 -0.027326077 -0.22649595 0.17534173
0002c0 e6 96 78 be 4d a5 36 3d ea 9f 0c 3e 0b e8 8c be
       -0.24276313 0.044591237 0.13732877 -0.27520785
0002d0 fb 9b 37 3e 24 72 92 3e 5a 18 2e be 3a 44 02 3c
       0.17930596 0.28602707 -0.17001477 0.007950837
0002e0 fc 3e ac 3d d0 ef 5b 3e cd b4 5f 3e f8 32 87 be
       0.08410451 0.214782 0.21846314 -0.26406074
0002f0 05 e6 9b be 5f 21 6f be d3 4b 0a be ae 31 39 bd
       -0.30448928 -0.23352574 -0.13505487 -0.045213394
000300 06 ce cb bd 51 f9 3a 3e 3e 5a 4a be de bb 85 be
       -0.09951405 0.18259169 -0.19760987 -0.26119894
000310 6a 54 51 be a3 6d 69 be 8b 72 8c 3e 80 75 0f 3d
       -0.20442358 -0.2279573 0.2743114 0.035024166
000320 04 9a 2b bd 88 ed a6 bd 7e 6e 91 be 6a 78 08 bd
       -0.041894928 -0.08150774 -0.2840461 -0.03331796
000330 1e 9f 15 3e 44 f2 3f 3e ee af 36 3e ef 42 26 3d
       0.1461148 0.18744761 0.1784055 0.040591177
000340 1c 99 17 be c2 6c c5 bd a1 01 8a 3e 0f 2c 80 be
       -0.148045 -0.096398845 0.26954368 -0.25033614
000350 9c f4 85 3d f0 84 d6 bc 7b d8 83 3e 8e 9f 22 3e
       0.06540796 -0.026186436 0.257511 0.15881178
000360 c1 ea b1 bd c0 a3 85 be 1b 06 16 3d 1f 35 5d be
       -0.08687354 -0.26101494 0.036626916 -0.21602295
000370 90 86 da bb 24 38 8e 3d 8c 63 63 3d bf dd 92 bd
       -0.006668873 0.06944302 0.055514857 -0.07171201
000380 c4 b6 3f be d2 c3 1b be b6 d7 b0 be 11 63 a1 3d
       -0.18722063 -0.15211418 -0.34539574 0.078802235
000390 85 db 2c be 31 30 eb 3c 03 36 40 be e9 68 27 be
       -0.16880615 0.028709503 -0.18770604 -0.16348614
0003a0 3a 37 52 3e 17 03 6b 3e 7f 7b 48 3e d5 90 9d 3e
       0.2052888 0.22950397 0.1957836 0.3077456
0003b0 6e cc 5d be 02 3c 5a be ea 35 3a be c5 24 85 3e
       -0.21660015 -0.21311954 -0.18184629 0.26004615
0003c0 cb 8c 35 3e 12 3a 66 3e 05 e9 8b be b6 81 0f be
       0.1772949 0.2248309 -0.27326217 -0.14014325
0003d0 5e 79 85 3e 3a e5 55 be 6e 26 3d be 40 fc 1d 3e
       0.26069158 -0.20888224 -0.18471691 0.15428257
0003e0 0c c4 70 be 3d 33 b2 bd 5f 3d e3 3d b4 bd 9c 3e
       -0.23512286 -0.08701179 0.1109569 0.30613482
0003f0 a7 c7 01 bd f8 13 32 be d9 29 bc 3d 87 91 8d 3e
       -0.031684544 -0.1739043 0.09187669 0.2765009

mlp_extractor.policy_net.2.weight f4 [256, 256]
000000 82 b0 39 bd 72 f4 7a bb 4a d3 34 bd ee aa fc bc
       -0.045334347 -0.0038292673 -0.044146813 -0.030843224
000010 1e 95 a3 3c 0e 7b e6 3c df 7c cc 3c 52 7b 75 bd
       0.019968566 0.028134849 0.024961887 -0.05993206
000020 62 d7 84 bc f2 7d d1 3c 5a 83 0f bc f4 9a e7 bc
       -0.016215984 0.02557275 -0.008759344 -0.02827213
000030 c8 a7 07 bd 1a 92 6e 3d 0d 50 30 bd 5e 4a 3f bd
       -0.033118993 0.058244802 -0.043045092 -0.04670178
000040 0b e9 3e 3d d8 da 1f bd 2a 56 16 3d 30 7a 11 bd
       0.046608966 -0.039027065 0.036703266 -0.035516918
000050 a5 f5 1b bc c2 0c 00 bd dc 26 4f 3d d4 c6 2c 3d
       -0.009519015 -0.031262167 0.05057417 0.042181805
000060 12 24 27 3d 19 b2 e3 39 cf f1 c9 bc 3c 39 0d bd
       0.040805884 0.00043429507 -0.024651436 -0.03447841
000070 dd 80 e8 bc 4c 85 92 3c 07 69 38 bc 09 13 36 3d
       -0.02838176 0.017885827 -0.011255509 0.044451747
000080 5c df 24 3c d5 b4 c7 b9 f6 71 23 bd 76 10 c6 3c
       0.010063019 -0.00038090968 -0.039903603 0.024177771
000090 aa 84 5c bd e2 57 80 3c 1b 8c 07 3d 2c e0 27 3c
       -0.053837456 0.015666906 0.0330926 0.010246318
0000a0 55 be 12 3d d6 21 93 3c 73 a3 fe bb 22 7f 37 bd
       0.035826046 0.01796047 -0.0077709495 -0.044798978
0000b0 b0 06 81 bd ae ad f9 3c 9a fd 06 3d 8a 00 27 bd
       -0.06300104 0.030478325 0.032956697 -0.040772
0000c0 c1 66 cd 3c f2 fd c4 bc 50 41 53 3d 56 c2 a7 bc
       0.025073411 -0.024046872 0.05157596 -0.020478409
0000d0 36 f9 cf 3d 8e 6e 39 3d 64 54 04 3d 9c 4f 33 3d
       0.10154955 0.04527145 0.032307044 0.043777093
0000e0 94 db b1 3c 22 71 b8 3c 9e ff 5d bd 24 a4 89 bc
       0.021711148 0.022514883 -0.054198854 -0.016801901
0000f0 39 0d be bb 82 ba a5 3c be ae bd bc 0e 4e f6 3c
       -0.005799916 0.020230535 -0.023154613 0.030066516
000100 52 75 29 3d 31 52 be 3c f0 1e 08 3d 98 18 ee bb
       0.04137165 0.023232551 0.03323263 -0.0072661154
000110 30 5c 0e 3d a3 3e b7 bc 25 67 59 3d 07 f9 8f bb
       0.034755886 -0.022368735 0.053076882 -0.0043937
000120 c8 56 9a bb 32 de 68 bd ba 8c 6c 3d df 01 45 bc
       -0.004710052 -0.056852527 0.057751395 -0.012024372
000130 15 bc 55 3d fc d5 2b bd 14 89 5a bd ee 77 12 bc
       0.052181322 -0.04195212 -0.053353384 -0.008939726
000140 94 56 48 bd 04 35 56 3c e0 19 a4 3b f2 55 67 bc
       -0.048910692 0.013074163 0.0050079674 -0.014119612
000150 80 8b 30 3d 01 68 3b 3d 30 ad 5d bd 3c 72 51 bd
       0.043101788 0.045753483 -0.054120243 -0.051134333
000160 c6 3d e0 3c 3c fe 16 bd 0d 8b 52 3c fe ba ae bc
       0.027373206 -0.03686355 0.012850535 -0.0213294
000170 f6 90 49 3c 02 aa 26 bd d7 39 5b 3a 28 6e 96 bc
       0.012302628 -0.040689476 0.0008362806 -0.018363073
000180 92 ed dd bc 32 3e 02 bd c4 49 53 3c c0 78 47 3d
       -0.027090821 -0.031797595 0.012896005 0.04869914
000190 f9 d0 fd b8 1e 98 3c 3b 94 93 57 3d e4 00 4a 3d
       -0.00012102904 0.0028777192 0.052630976 0.049317256
0001a0 64 17 26 bc 6b 02 56 bd 7b 5a 95 3c 3e 27 90 3c
       -0.010137413 -0.0522484 0.018231621 0.017596837
0001b0 82 ca 4e bd 09 02 6a bd aa ed d5 3b b5 57 7e 3d
       -0.050486095 -0.057130847 0.006528576 0.062095363
0001c0 0b d2 68 bd 78 f2 07 bd 9f 0f b9 bc 4e 79 4b bd
       -0.056840938 -0.03319022 -0.022590457 -0.049676232
0001d0 3e 44 19 bd f0 4c 4d 3d 3c 28 48 3d 0f 86 d7 bc
       -0.037418596 0.0501222 0.048866495 -0.026309041
0001e0 f7 ad 1d 3b b2 db 54 bd 61 8e 00 3d 0d aa 2a bd
       0.002405999 -0.05196733 0.031385783 -0.04166608
0001f0 ad 7e de bc 51 09 f6 bc ee 09 fb 3b 2f d7 32 3d
       -0.027160013 -0.03003374 0.007661096 0.043662246
000200 08 91 cd bc 3e b3 3e 3b 08 a3 3d 3d 3e 70 32 bb
       -0.02509357 0.0029098536 0.046298057 -0.0027227546
000210 d8 a0 4b 3b 9c bb 13 3c f1 67 8b 39 dc 55 15 3d
       0.0031071212 0.0090168975 0.00026589588 0.036458835
000220 fa 3f 06 3d d2 76 0d bd c7 11 70 3d fb 31 17 3d
       0.032775857 -0.034537144 0.058610704 0.0369129
000230 01 c6 a2 bc c0 e0 60 3d b8 e2 90 3b 28 21 26 3d
       -0.019869806 0.05490184 0.004421558 0.040558964
000240 15 00 4d bd b2 6e 61 3d 6c fc 6c 3d 48 a5 43 bd
       -0.050048906 0.055037208 0.057857916 -0.047765046
000250 c6 7d 69 bd e1 bb 9d bc 5f 08 19 bd e0 26 80 3c
       -0.057004713 -0.019254627 -0.0373615 0.015643537
000260 8e 9d c9 3c f6 e9 13 bc 2b e9 3e 3d 07 b6 62 3b
       0.02461126 -0.009027949 0.046609085 0.003459336
000270 a6 33 9f bc 9f 27 56 bd cf 86 c5 3c 82 b9 81 bd
       -0.019433808 -0.05228388 0.024112133 -0.06334211
000280 96 e6 b4 ba e8 8a 61 3c 54 03 0b bd 6e 0e 9b 3c
       -0.001380163 0.013766028 -0.03393872 0.018927779
000290 7a 29 45 3c 1a ae 2f 3d 39 bd 3b 3d 37 ad 60 bd
       0.012033815 0.042890646 0.045834754 -0.05485269
0002a0 11 ea 50 bd 37 4f c3 bc 44 10 6b bd fa cf 97 3c
       -0.051004473 -0.023841484 -0.05738856 0.018531788
0002b0 82 16 2c bd 14 cf 47 bd 56 d8 9d 3c 2e 24 16 3d
       -0.042013653 -0.04878147 0.019268196 0.036655597
0002c0 3b ed 89 bc 67 bc 7a bd 3c 29 22 3c bd df 04 3d
       -0.016836753 -0.06121483 0.009897526 0.032439936
0002d0 de 9e 43 3d 6d 18 d7 3b 00 5d 2d 3d 31 2d 2b bd
       0.04775893 0.006564191 0.04232502 -0.041791145
0002e0 de 8c 70 3d 93 1a 1d bd 69 61 2a bd de e1 4e 3d
       0.05872809 -0.03835542 -0.041596804 0.050508372
0002f0 42 8d 71 bc d6 61 14 3d 28 51 37 bd 44 64 45 3d
       -0.014743151 0.036226116 -0.04475513 0.048191324
000300 0a 6e 6e 3d 16 c0 a3 3c 04 ea 52 3d 6e 59 82 bd
       0.05821041 0.019989055 0.051492706 -0.063647136
000310 e7 73 0f bd a2 f0 42 3c a9 9d 15 3d 84 55 04 bd
       -0.035022642 0.011898192 0.03652731 -0.032308117
000320 b2 42 27 3d 8a 3a b1 bc b3 23 02 bd 5a 55 19 3c
       0.04083509 -0.021634359 -0.031772327 0.009358728
000330 ec 43 50 bd d6 50 6f bd 1c 70 89 3c ec bb 90 3c
       -0.050846025 -0.0584267 0.01677709 0.017667733
000340 4b 9b cd 3c a6 62 ef bb ce dc 36 bd 80 4b 49 bd
       0.025098464 -0.007305461 -0.04464417 -0.049144268
000350 53 9b 70 3d 20 4b 62 bd 22 98 91 3c 14 8f 4b 3d
       0.05874188 -0.055247426 0.017772738 0.049696997
000360 a7 37 3f 3d 8f 2e 1d bd 97 5e 9c bc ec cf 3d bd
       0.046683934 -0.03837448 -0.019088073 -0.046340868
000370 9c 50 ff 3c 8c 99 74 bd 41 f5 61 bd ed 8b 26 bd
       0.031166367 -0.059716746 -0.055165533 -0.040660787
000380 9e 2d 55 3d 7a 21 1e 3d 32 c6 62 3d 09 c3 3f 3d
       0.052045457 0.038606144 0.055364795 0.04681686
000390 8a 81 f7 bc 41 73 26 bd a0 1a 33 bd ad b4 db 3c
       -0.030213136 -0.04063726 -0.043726563 0.026819551
0003a0 d7 20 9c 3c 7e aa 6e 3c 1e 96 40 bd 48 94 2a 3c
       0.019058628 0.014567016 -0.047018163 0.01041133
0003b0 3e 34 0c bd e0 a4 7c bc 1e 5b ec bb 9f 46 17 3c
       -0.03422951 -0.015420169 -0.0072130105 0.009233146
0003c0 81 1b 5c bd 74 29 56 3d a1 a4 07 bd cf 36 97 3c
       -0.053737167 0.052285627 -0.033115987 0.018458752
0003d0 83 f0 2b 3d b8 28 c6 3c 24 a4 37 3d 7a 21 33 3d
       0.041977417 0.024189338 0.04483427 0.043733098
0003e0 8b 7e 3f 3d 6a c2 cf 3c c2 25 1f 3d 11 cf d2 bc
       0.04675154 0.025361259 0.038854368 -0.025733503
0003f0 ba 95 05 bd 7d dd 0e 3d 52 2c 60 3c 78 59 5f bb
       -0.032613494 0.034879196 0.013682442 -0.0034080427

mlp_extractor.policy_net.2.bias f4 [256]
000000 22 93 27 bd ac 18 c9 bb 8e 72 b6 ba a5 b3 5e bd
       -0.0409118 -0.0061369743 -0.0013919638 -0.05437054
000010 f9 5a 5c bd 71 05 2a bd 09 b4 71 bd bb ca 54 bd
       -0.053797696 -0.041509096 -0.059009586 -0.05195115
000020 a0 43 01 3d b7 9a fa bc e7 64 6f 3d 9a 32 4f bd
       0.031558633 -0.030591352 0.058445837 -0.050585367
000030 c8 a7 62 bc a2 25 f8 bb 74 18 4c 3d c3 b5 dd 3c
       -0.0138339475 -0.0075728456 0.049828008 0.02706421
000040 91 cf 03 3c 3a ec f2 bc 06 0c fb 3c 27 64 3c bd
       0.008045093 -0.029653657 0.030645382 -0.04599395
000050 59 3c bc 3b a4 ae 23 3d 8a 4c 87 3c 9e 38 f1 3c
       0.0057444987 0.039961472 0.016515989 0.029445942
000060 c8 c1 8f bc 09 61 5a 3d 77 55 0e 3b 65 96 8d 3c
       -0.017548457 0.053315196 0.0021718421 0.017283628
000070 a5 6b bc 39 e7 57 2b bc e7 a9 46 bd 91 fa 20 3d
       0.00035938356 -0.010457969 -0.048501875 0.03930146
000080 e6 cd 81 bd e0 e8 d7 bc 9a 7b 6f 3c 89 d6 a8 3c
       -0.063381 -0.02635616 0.014616871 0.02061011
000090 4f 28 d9 bc 52 49 a0 bc 35 bc c2 bc cd 85 87 bd
       -0.026508478 -0.019566212 -0.023771385 -0.06617317
0000a0 2e a8 1f bd d2 bf b1 3c c4 3d 0b 3b 71 e9 b6 bc
       -0.038978748 0.021697912 0.0021246532 -0.02232811
0000b0 5a db f4 3c a9 bc 72 3c 16 73 65 bd 39 9b cb bb
       0.029889751 0.014815488 -0.056017958 -0.0062135723
0000c0 c2 ce f8 b9 61 f6 48 bc 19 70 3f 3d 10 72 1d bd
       -0.00047456293 -0.012265773 0.046737764 -0.038438857
0000d0 5f df 06 3d b2 4b 0b 3d 3a 0c 42 bd 85 a7 5c bd
       0.032927867 0.034007736 -0.04737494 -0.053870697
0000e0 7c e1 04 3d bf 47 f6 bc ab df 1f 3d f5 dd 07 bb
       0.0324416 -0.030063508 0.039031666 -0.0020731662
0000f0 27 17 e5 bb 82 9e 5c 3d 42 32 37 bc 04 7b b2 3b
       -0.0069912854 0.053862102 -0.011181416 0.0054467935
000100 d4 30 16 bd 6a 66 76 bb a5 f9 57 3d 9a d4 5e 3d
       -0.03666766 -0.0037597665 0.052728314 0.05440197
000110 39 73 d0 bc 8c 37 ce bc c7 29 74 3d ed 5c 5a 3d
       -0.025445567 -0.025172971 0.059610154 0.053311277
000120 74 5d 48 bc ee f7 8f bc ab b4 2c bd cb 21 3b bd
       -0.012229312 -0.017574277 -0.042164486 -0.045686524
000130 dd f9 8e 3b 01 2f 4b bd 3b 14 b9 3c 72 78 45 3d
       0.004363282 -0.049605373 0.022592654 0.04821057
000140 47 a5 c0 bc 42 7d 17 bd d4 be 72 bd be 38 b8 bb
       -0.02351631 -0.03698469 -0.05926402 -0.0056219986
000150 e6 b8 d9 bc 0d 81 87 3d dc 92 6e 3c 1e 0c 32 3d
       -0.026577424 0.06616411 0.014561381 0.043468587
000160 47 73 4d 3d 4e 4a ef 3a 73 ef 2c bd ec 52 64 bc
       0.050158765 0.0018256397 -0.042220544 -0.013935786
000170 de a4 49 bd e1 1a 0a bd 5a bd 5c bd c1 5f c8 3c
       -0.049229495 -0.03371704 -0.053891517 0.024459722
000180 35 b1 3f bd 14 11 84 bb a6 21 1d 3d e0 18 9c bb
       -0.046799857 -0.004030356 0.038362168 -0.0047637075
000190 45 96 53 3d ee 09 14 3c d0 a1 76 bc ee 13 81 3c
       0.05165698 0.009035571 -0.015053228 0.015756574
0001a0 41 72 73 3d 33 c9 de 3c 65 dc 61 bd aa cc 66 bc
       0.059435133 0.027195549 -0.055141825 -0.014086882
0001b0 0b 6f 74 bc aa e7 03 bd ad b8 cc bb 60 3d 4f bd
       -0.014919053 -0.032203354 -0.006247601 -0.05059564
0001c0 fe 23 53 3d 12 dc 3f bd 1a c5 d4 3c c4 bc 3d 3c
       0.051547997 -0.046840735 0.025972892 0.01158065
0001d0 bc a0 05 3c 7e eb 57 bd d2 4b 28 bd ed c1 4d bd
       0.008155998 -0.052714817 -0.041087933 -0.05023377
0001e0 64 2f 01 3d d5 f4 37 3d 93 9b 91 3c ca 0e bb 3c
       0.031539336 0.044911224 0.017774379 0.0228342
0001f0 be 23 c9 3c bc ae b0 3c ef 40 ec bc f4 88 66 3c
       0.024553176 0.021567695 -0.028839557 0.014070738
000200 9a 83 89 bc 16 1c d5 3c 4a f4 5a 3d c6 6b 85 3c
       -0.016786385 0.026014369 0.05345563 0.016286742
000210 ec 37 68 bc 78 38 39 3d 15 27 46 3d 00 71 9f bb
       -0.014173489 0.04521987 0.048377115 -0.0048657656
000220 5b 6b 56 3d b4 7c 21 bd df 76 12 3d 26 d0 22 3b
       0.052348476 -0.039425567 0.035757896 0.0024843304
000230 95 ca 98 b9 fe 85 97 bc b7 c4 81 3d 7f a0 4d bc
       -0.00029142635 -0.01849651 0.063363485 -0.012550472
000240 e7 38 35 bd f5 87 00 bd 76 ba d4 bc 12 a9 04 3d
       -0.04424372 -0.03137966 -0.025967818 0.0323878
000250 65 14 51 3d ea 80 69 3c e4 77 e5 bb bf 66 5b bb
       0.05104484 0.014251927 -0.0070028175 -0.003347799
000260 59 2d 79 bb fb 33 72 bd 84 19 b2 bc bf 25 4d 3d
       -0.0038021414 -0.059131604 -0.021740682 0.050084826
000270 9e fb f8 3a c6 84 4a bd 21 6c 67 bd 56 5a 71 ba
       0.0018995886 -0.04944303 -0.056499604 -0.00092068815
000280 43 8b e2 bc 4f 1a 01 bd 20 58 4c bc 9a 43 33 3d
       -0.027654296 -0.03151923 -0.0124721825 0.04376564
000290 e7 cc 2c 3d 4f 00 ca bc 9c b3 1f 3d ce 28 37 3d
       0.042187598 -0.02465835 0.03898965 0.04471665
0002a0 22 62 96 3c 38 c9 cb 3c 0e 70 d9 bc cb 5c 3d 3d
       0.01835734 0.024876222 -0.02654269 0.046231072
0002b0 c9 f5 65 bd 5d 87 3e bd 09 ff 68 bd c7 39 1b bd
       -0.056142602 -0.04651581 -0.056883845 -0.037896898
0002c0 4d ac 74 ba 42 09 a7 bc f5 7b 22 bd 66 1f 0c 3d
       -0.0009333536 -0.020390157 -0.039668996 0.03420963
0002d0 4a 3d 85 3c da b6 f0 3c f0 90 c4 bb 38 6f ff 3b
       0.016264576 0.029384065 -0.005998723 0.0077952407
0002e0 47 36 1b 3d d9 0c 7c bc 12 b6 2a bc 3d 5e b4 bc
       0.03789356 -0.0153839225 -0.0104193855 -0.022017593
0002f0 4e 03 1c bd 0e 9b 10 3b f8 63 f6 3c cb 67 a1 bc
       -0.03808909 0.0022065076 0.030076966 -0.019702813
000300 14 f6 e7 3c 73 68 16 3d bd a3 cf bc d4 80 45 bd
       0.028315581 0.036720704 -0.025346631 -0.048218563
000310 19 14 31 3d ee 78 34 3d d0 d6 e8 bc 04 0d 35 bb
       0.043232057 0.04406064 -0.028422743 -0.0027626166
000320 68 48 77 3b 98 d3 23 bd 1e 53 8c bc 85 60 fc bc
       0.0037732366 -0.039996713 -0.017129477 -0.030807743
000330 7d ee 78 3d 84 3a 5a 3d f9 36 83 bb 66 24 9c 3c
       0.060774315 0.05327846 -0.004004356 0.019060325
000340 04 8a 47 bc 69 7e 01 3d 61 e6 f7 3c 0a 65 5a 3b
       -0.012178902 0.031614695 0.03026122 0.0033324384
000350 8f 96 2a 3d eb 88 0f bd 3b c9 79 3c 93 03 36 bd
       0.04164749 -0.035042685 0.015245731 -0.044437002
000360 ad 99 48 bd 05 68 a2 3c 02 8e 02 3d 46 04 2f 3d
       -0.04897468 0.019824991 0.03187371 0.042728685
000370 56 52 1c bd 6c b7 76 3b f5 dd a2 bc 93 52 24 3d
       -0.03816446 0.003764595 -0.019881228 0.04011781
000380 7f 29 2a 3d 65 66 e8 3c dc 75 fc bc 28 29 68 3d
       0.04154348 0.028369138 -0.030817918 0.056679875
000390 71 3f 51 3c fb f8 7c 3c c6 43 d9 3a b3 44 0c 3c
       0.012771473 0.015440221 0.0016575984 0.008561301
0003a0 3f ce 52 3d 33 04 12 3d 40 41 08 3d a4 6e 24 bc
       0.051466223 0.035648536 0.033265352 -0.010036144
0003b0 c9 d6 80 3d ff da 57 3d af ee 67 bc 0b 72 c3 bc
       0.06290967 0.052699085 -0.014156028 -0.02385809
0003c0 00 ce 57 bd 52 7a 48 3d b2 9a 94 bc 7f ce 31 38
       -0.05268669 0.04894478 -0.01814017 4.2392403e-05
0003d0 6a 8f b2 bc f0 90 44 3d 0c 8c f3 bb df bd 3a bd
       -0.0217969 0.047989786 -0.0074324664 -0.04559123
0003e0 41 94 87 bc 46 37 5b 3c 7e 36 d5 bc 45 7f bf 3c
       -0.016550185 0.013379877 -0.02602696 0.023376117
0003f0 41 64 5e bd 80 ff 78 3c ab 0c 1b bd 26 d3 38 3c
       -0.05429483 0.015197635 -0.037853878 0.01128081

action_net.weight f4 [7, 256]
000000 08 7c 28 3c ff b7 5c 3d 49 3d 81 bd b3 d2 ac bc
       0.010283478 0.05388641 -0.06310517 -0.021096563
000010 ed 87 83 bd 17 e6 4d bc a7 e3 5d 3d c2 0b 53 bd
       -0.0642241 -0.012567065 0.054172184 -0.051524885
000020 e0 3e 24 bd cd a7 0e bc db 08 5e 3d c2 4a f1 bd
       -0.040099025 -0.008706999 0.054207664 -0.11781837
000030 90 7b 42 3d 34 5b b6 bd 1b c1 f5 3b 7a b0 7d bd
       0.04748112 -0.08904114 0.0074998266 -0.06193588
000040 04 e1 2f 3d 1c 44 45 3d 58 64 cc bc ef 67 34 bd
       0.0429392 0.048160657 -0.024950191 -0.04404443
000050 65 f3 a9 3d 41 4c 2b 3d 15 88 a1 3c 72 05 d5 3d
       0.08298377 0.04182077 0.01971821 0.10401429
000060 b8 ad 56 3d 24 49 39 3d 6e 10 6b 3d cb 1f 6b 3d
       0.052411765 0.045235768 0.057388715 0.057403367
000070 29 89 5a 3d 4e 09 82 3d 0b 0b 40 bd ef 15 bd 3c
       0.053353462 0.06349431 -0.04688553 0.023081748
000080 76 22 91 3d 2a b5 24 3d 55 78 10 bd 83 a4 2d bd
       0.07086651 0.040211834 -0.035271008 -0.04239322
000090 b7 1d 6b 3d cc 15 20 bd d2 fd 44 bd d7 2d cb 3c
       0.057401385 -0.039083287 -0.048093624 0.024802132
0000a0 5f 69 1b bd b4 40 23 bd 25 2f 9f bc 6a 67 40 bd
       -0.037942287 -0.039856628 -0.01943166 -0.046973623
0000b0 2f 49 57 3c 12 9c 62 3d c4 b5 24 3d d6 a7 39 3d
       0.013140007 0.05532462 0.040212408 0.045326076
0000c0 5a f4 05 3c e0 80 42 bd 6e 0e 5d 3c e2 6a c2 3c
       0.008175934 -0.047486186 0.01349221 0.023732606
0000d0 89 31 97 bb 86 51 84 3a 7d e0 d5 bb 13 1e 19 bd
       -0.0046140593 0.0010095097 -0.006527005 -0.037382197
0000e0 da e0 d8 3c a7 63 27 bd d6 65 73 bc 86 53 b2 bd
       0.026474405 -0.04086652 -0.014855823 -0.08707337
0000f0 6e c2 4f 3d 4f 20 89 bd 9f 07 65 bd a4 a1 69 bc
       0.050722532 -0.066956155 -0.05591547 -0.01425973
000100 87 ff 9b bd 26 f3 95 3c 44 92 2e bd 7a 53 0e bd
       -0.07617097 0.018304419 -0.04261996 -0.03474758
000110 43 6b 37 bc 17 0b 76 bd 76 de 0b bc 3a 61 31 3d
       -0.011195007 -0.06006917 -0.008536926 0.043305613
000120 f6 6c 5f 3d 96 27 20 bd 66 1c bf 3d 96 1a b6 bc
       0.054547273 -0.039100252 0.093315884 -0.022229474
000130 15 ff bf 3a 5c 8a 6f 3d 6e 01 99 bd b5 aa db bd
       0.0014648164 0.05848156 -0.07470976 -0.10725919
000140 39 f0 66 3d 37 0e 91 3d 96 59 da bc d0 6d 46 3d
       0.056381438 0.070827894 -0.026654046 0.04844457
000150 82 64 a8 3d 91 a1 3f bd 8a 02 e0 3c ec ea 71 3c
       0.08222295 -0.04678494 0.02734496 0.014765482
000160 24 23 18 3d 40 90 a7 bb 5d 88 cc 3c 95 a5 32 3c
       0.037142888 -0.0051136315 0.024967367 0.010903736
000170 99 d4 40 bd 09 39 3d bd 53 c8 8b 3c 8a 78 04 bd
       -0.04707775 -0.04619697 0.017063295 -0.032341518
000180 18 c9 78 3c 4a 47 f3 3b a0 aa d2 bc ae b7 11 bd
       0.015184663 0.00742427 -0.025716126 -0.03557556
000190 94 2f 9a bd 92 4f aa 3d 7c 24 c8 3a 39 96 e4 ba
       -0.07528606 0.08315958 0.0015269662 -0.0017439789
0001a0 50 ce 40 bd af 68 5f 3d 3a 87 a2 bc 55 67 bc bc
       -0.047071755 0.054543193 -0.019839872 -0.022998491
0001b0 9d 47 32 bd 93 29 91 3d be bb 4d bc f6 7d cb 3c
       -0.043525327 0.07088008 -0.012556968 0.024840336
0001c0 ae 33 16 3c a4 d9 77 3d eb a5 b2 bd 98 f9 91 3d
       0.009167595 0.060510293 -0.087230526 0.07127684
0001d0 dd b1 f9 bc 75 29 43 3d 9e a4 fa bc 93 8d c1 3d
       -0.03048032 0.04764696 -0.030596074 0.09450831
0001e0 14 11 06 3b a3 9f 4a 3c 9f 5c a1 3a d3 6a dd bb
       0.0020456957 0.012367162 0.0012310928 -0.006757119
0001f0 8c 66 f2 bc 6d cc 91 3d e8 f9 46 bd b6 2f e1 3b
       -0.029589914 0.07119069 -0.048578173 0.0068721427
000200 d6 70 99 bc ae ad 85 3d c3 09 99 bd ca ed 50 3d
       -0.018730562 0.065272674 -0.07472565 0.051008023
000210 12 f6 b8 bd b7 1f 46 bd 98 96 53 bd 22 9f 05 be
       -0.09031309 -0.04837009 -0.05165729 -0.13048986
000220 9d f8 ab bc ac b7 b5 bc e9 e0 17 3d 66 03 a6 bc
       -0.020992571 -0.022182308 0.037079725 -0.020265292
000230 3d dc 82 3c 8f cb 96 bd 0e ad f7 3c b6 fc 51 bc
       0.015974158 -0.073630445 0.030233886 -0.012816599
000240 61 0b 09 bd 24 f6 a8 3c b3 8c a5 bd eb b7 7f 3c
       -0.033458117 0.020625181 -0.08083477 0.015607814
000250 c8 52 8c bd 10 04 63 3d 23 94 4c bd 1d 0a 9a bd
       -0.06851727 0.055423796 -0.04994596 -0.0752146
000260 23 c9 58 3d 5c 87 e6 bb a4 40 92 3d ba 87 a9 3c
       0.052926194 -0.007035179 0.071412355 0.020694602
000270 2b 00 b2 3d ae c0 47 3c 0c 68 83 bc 28 d1 1b 3c
       0.08691438 0.0121919345 -0.016040824 0.009510316
000280 59 c6 9b bd d8 87 e2 3c 55 5a 87 3c d1 31 62 bd
       -0.07606191 0.027652666 0.016522566 -0.05522329
000290 5c 89 80 3d 89 f1 00 bd de 66 fd bc ca c2 1b bc
       0.06276199 -0.031480346 -0.03093284 -0.009506891
0002a0 7c c4 bd bc 57 14 25 3d 03 44 a1 3d 56 b4 92 3c
       -0.02316498 0.0403026 0.078743 0.017908257
0002b0 0c 98 e4 3c c0 99 7b bd c7 60 75 3c e1 f8 c5 3c
       0.027904533 -0.061425924 0.014976687 0.024166526
0002c0 7a 01 57 3d 99 cf 10 3e 4d d3 98 3c be 29 0b 3d
       0.052491643 0.14141692 0.018655444 0.033975355
0002d0 7d c4 a4 bc 1f 3a 7b bd 1b bc dc 3c 51 3b f3 3c
       -0.020113224 -0.061334725 0.026945164 0.02969137
0002e0 fb 87 ce bc 6f 70 45 3d 66 2b e1 bb 09 dd eb 3c
       -0.025211325 0.04820293 -0.0068716286 0.028791921
0002f0 68 77 f3 3c dc 34 9f 3c 5d 2e 08 bd 21 3f 90 bc
       0.029720023 0.019434385 -0.03324734 -0.017608227
000300 a6 e1 b8 bc d6 c0 69 3d 31 81 e4 3c f4 63 ae 3d
       -0.022568535 0.05706867 0.027893635 0.08515158
000310 a2 c8 ec 3c f7 bb 33 bd 5e 97 7e bc ac 2c 90 3d
       0.028904263 -0.04388043 -0.015539018 0.070397705
000320 8c 74 82 3d e6 0c 75 3c a2 62 80 bc b7 9c e8 3b
       0.06369886 0.0149566885 -0.015672032 0.00709876
000330 7d 07 9c bc 3b 6f ba 3c 98 97 d5 3d a7 5a 38 3d
       -0.01904654 0.022758117 0.10429305 0.045008328
000340 bf 6f 56 bd e2 5d c6 3c 04 d2 4d bc 2d c9 05 bd
       -0.052352663 0.024214689 -0.012562279 -0.03266256
000350 a3 80 8e 3d 33 f2 8e bd 89 dd 46 3d 1e 0a 0a bd
       0.06958129 -0.069797896 0.048551116 -0.033701055
000360 65 11 a6 3d cc 81 84 3d 3c a1 81 3d a5 55 2e bc
       0.081087865 0.06470069 0.06329581 -0.010640536
000370 69 b1 a5 bd 41 d0 82 3c 29 ee 58 bc e6 db 89 bd
       -0.08090479 0.015968444 -0.013240376 -0.067313954
000380 5e 65 80 bb 5f e8 72 bd 27 20 1f bd 80 7e 9c 3d
       -0.003918334 -0.059303638 -0.038849022 0.076413155
000390 59 bc 8b 3d 65 b2 5d 3d cc 03 c1 bb 48 0e 86 bd
       0.06823034 0.05412521 -0.005890345 -0.06545693
0003a0 7b 13 c0 bc 89 c5 85 3d 0f 88 6c 3b 66 35 0d 3e
       -0.023446789 0.065318175 0.003609184 0.13789901
0003b0 f4 74 31 bc 1a 41 b1 3c a8 f3 85 bd 04 d2 3f 3c
       -0.010831106 0.021637488 -0.06540614 0.0117077865
0003c0 5d f6 81 3c fb 53 0f 3d e4 01 92 3c 25 44 54 bc
       0.015864545 0.0349922 0.017823167 -0.0129557
0003d0 b1 7f d1 3d 59 57 59 3c 18 e3 0d 3d 72 02 8a 3d
       0.10229433 0.013265454 0.0346404 0.06738748
0003e0 2e d8 0c 3d 29 4a 59 3d 15 ae 47 bb f6 46 b1 bd
       0.034385853 0.05304924 -0.0030468751 -0.08656113
0003f0 2b ff f2 3c ab 95 b2 3d 98 10 3d 3c b7 36 e1 3d
       0.02966269 0.08719953 0.011539601 0.10996764

action_net.bias f4 [7]
000000 41 a5 a0 3c 8f 55 c1 bc 2d 2c 73 bd 3f 70 c0 bc
       0.01961005 -0.023600368 -0.0593683 -0.023491023
000010 d5 1f 86 bc cc 00 54 3d b6 f2 74 3c
       -0.0163726 0.051758572 0.014950445
