backend/bc_policy.pt (torch, 23644 bytes, 6 tensors)

net.0.weight f4 [64, 13]
00000000: 68ab 6b3e 46ba 6b3e 5fff 3fbd 1f72 823e
00000010: 70fd 7ebd 4d4d b03c ee59 f2bd 1c83 393e
00000020: 733c 863e 323f 3ebe 9d7b 843e 4ca7 913d
00000030: 1e6b 653e 48da 193d cef1 083e 8c65 20bd
00000040: c4ef 5a3e 30ea 273d e895 04be 1cc9 903d
00000050: 2ada 02be 9c39 05bd 06b4 e6bd d466 3c3e
00000060: af2f 60be 10ee 02be 95cc a6bd eac3 2abe
00000070: 56d1 bc3c ef40 8cbe a9ec 7e3e 70e2 84be
00000080: c7f0 4c3e de67 373d 4c37 c3bd ab1c 2a3e
00000090: c87d 1b3d 9258 703e 9cab 043d 7372 d3bd
000000a0: a89d 983d 1658 babd 740d ef3d 094d 773e
000000b0: add1 213e 926f 0cbe 4ac1 133e b192 093d
000000c0: 689c ff3d c186 3dbe b681 95be fa19 fabd
000000d0: e8d6 59be d209 693e 049b a33d 5847 eb3d
000000e0: f4a3 b33d 4019 9ebb 0e44 5e3e 5dca 49be
000000f0: 900e 8f3c 8ad8 41be e025 af3d 169d c3bd
00000100: 640c ae3d 6cae 6cbd 7a8d 6b3e c954 28be
00000110: 8361 29be 2164 29be 9672 7f3e 7c4a bd3d
00000120: 89a4 883e 4262 6abe 82d9 8cbe 4732 5ebe
00000130: 4e0c 3fbe 6c11 e63d 4864 cb3d eafc 6b3e
00000140: 0dab 12be 4f9c 41be 0ab0 163e ea97 e5bd
00000150: cc5e 2c3e 34ca 86bd fa76 223e faa9 5cbe
00000160: e552 0fbe 7c2c ad3d 182a 703d e4d1 90bd
00000170: a049 293e fa11 413e 36f4 4dbe 3e9f 17be
00000180: e706 823e 82aa bfbd b25e c9bd ce66 89be
00000190: 5ea4 22be 48e4 8d3d 9cf2 15bd 0628 4ebe
000001a0: 002e d53b e5ff 41be 3ef3 70be 4b64 1cbe
000001b0: e090 78be 76d6 34be 9df2 8d3e 2091 563d
000001c0: e809 af3d b771 84be 2d87 3abe 0211 bdbd
000001d0: 40a4 313d 44e7 79be d2bd f4bd 9806 2abe
000001e0: 007c 493a 065c d3bd 9071 9dbc 8473 40be
000001f0: d1f0 42be 9eb0 25be ec6d c2bd 3129 60be
00000200: 8221 6e3e d875 61bd b65b 743e 90fb b03d
00000210: f07e 70be e08a 443e 2c49 9cbd f4bb d9bd
00000220: d4be 6bbe 8e2c 8dbe bc83 a23d 6c28 78bd
00000230: fc23 dd3d e212 69be ceda 523e dd79 50be
00000240: 5429 44bd 0848 6d3d 6e9e 123e 0a48 653e
00000250: f35b 813e ee31 61be 44f3 8e3d 3051 f4bd
00000260: 80fb f8bc 7893 54be 4b58 813e 5c72 50be
00000270: a2c9 173e 4c9f c73d 4894 b83d 0a8c 19be
00000280: f712 813e 68a4 793d 7023 123d 3748 7abe
00000290: 0072 ee3d 646d 2abd 3b1c 02be 46f2 733e
000002a0: 9046 7d3d 5422 1dbe 2bbf 0fbe c001 59bc
000002b0: 0894 1e3e 8225 91bd 060c 22be 1283 c2bd
000002c0: 922c 54be 6892 ca3d 1cd5 5b3e 06b0 85be
000002d0: e0eb 833d 26b7 123e 0a95 063d 8e48 cabd
000002e0: c161 023e c83f 153e 841c e03d 8803 33bd
000002f0: 6b70 babd b5db 453c 6218 88bd 9b05 cdbd
00000300: 86a9 233e 0152 623e 28f6 37bd 17cb 38bd
00000310: 409e 843b dc43 dd39 888e 883d 5c7c 833d
00000320: 281a 91be 3c08 b7bd cc91 803e d047 fe3d
00000330: db35 183b 9bb9 1abe ff81 19be 6dbc 6abe
00000340: afa9 dfbd 04d2 bf3d 33d5 213e 0220 033e
00000350: 07e3 73be 9ed0 fdbd f9f3 76bd bd2d 7f3e
00000360: 40d3 b13c 50cf b8bd dc48 c53d b7a9 00be
00000370: 2b0c 4cbe f04a 4f3e 6523 01be 44bc 63bd
00000380: f443 8dbe c413 3e3e 542c 573e e402 cf3d
00000390: c907 46be 1026 8cbe 03aa 66be a2c8 533e
000003a0: 685a 083e 22fe 6e3e 4ec8 143e 78c2 8f3d
000003b0: 00ff 31bb 18fd 57be 3154 73be 92d2 84be
000003c0: dc85 e83d 2770 0bbe d0a0 64bd 7e72 23be
000003d0: bc02 4fbd c8e4 47be 0693 39be 846a bc3d
000003e0: b8cf a8bd 5854 2f3e 3a39 b6bd 7e56 50be
000003f0: 7070 48bd e2ab 09be 60c7 adbd bd2f 87be
0.23014605 0.23020276 -0.0468744 0.25477692 -0.062253416 0.021521235 -0.11833559 0.1811642
0.26217994 -0.18578795 0.2587556 0.071119875 0.22404143 0.037561685 0.13373491 -0.039159343
0.21380526 0.040994823 -0.1294781 0.070696086 -0.12778535 -0.032525644 -0.112648055 0.18398601
-0.2189319 -0.12786126 -0.0814449 -0.16676298 0.023049038 -0.2739329 0.24894966 -0.25954008
0.20013724 0.04477679 -0.095320314 0.16612498 0.03796175 0.23471287 0.032390222 -0.10324564
0.074519455 -0.09098832 0.11672488 0.2415048 0.15802641 -0.13714436 0.14429203 0.03358716
0.12481004 -0.18508436 -0.29200524 -0.12211986 -0.21273386 0.22757652 0.07988551 0.11488217
0.08771506 -0.0048247874 0.21705648 -0.19706102 0.017462999 -0.1893026 0.08552146 -0.09551446
0.08498457 -0.05778353 0.23003188 -0.16438593 -0.16541104 -0.16542102 0.24946055 0.092427224
0.2668803 -0.22889045 -0.27509695 -0.21698867 -0.18657038 0.11233792 0.099312365 0.23045698
-0.14323063 -0.18907283 0.14715591 -0.11210616 0.16833037 -0.06581536 0.15865698 -0.21549216
-0.13996466 0.0845575 0.058633894 -0.070712835 0.16531992 0.18854514 -0.2011269 -0.1480684
0.2539589 -0.09358694 -0.09832515 -0.26836246 -0.15883014 0.06928307 -0.036608323 -0.20132455
0.006505728 -0.18945272 -0.2353029 -0.15272634 -0.24274015 -0.17659935 0.27724162 0.052384496
0.08546811 -0.25868008 -0.18215628 -0.092317596 0.04336953 -0.24404627 -0.11950268 -0.16604078
0.0007686019 -0.103202865 -0.01921919 -0.18794066 -0.19037177 -0.16180655 -0.09493622 -0.21890713
0.2325497 -0.055044025 0.2386311 0.08641732 -0.23485923 0.19193602 -0.07631144 -0.10631552
-0.23022014 -0.27573055 0.079352826 -0.060585424 0.10797879 -0.2276111 0.2059128 -0.20358987
-0.047890976 0.057930022 0.14318249 0.22390762 0.25265464 -0.21991703 0.06979993 -0.11929548
-0.030393362 -0.2075938 0.25262675 -0.20356125 0.1482301 0.0974718 0.090126574 -0.14994827
0.25209782 0.060947806 0.035678327 -0.2444161 0.116428375 -0.04160823 -0.12706082 0.23822889
0.06183487 -0.15345126 -0.14037769 -0.013245046 0.15486157 -0.07087232 -0.15824899 -0.09497656
-0.20720127 0.09891206 0.21468014 -0.26110858 0.06441474 0.14327678 0.03285698 -0.0987712
0.12732603 0.14575112 0.10942939 -0.04370454 -0.09103473 0.012076308 -0.06645276 -0.10010835
0.15982637 0.22101595 -0.044912487 -0.045115557 0.004047185 0.00042202964 0.06667811 0.06420204
-0.28340268 -0.089371175 0.25111234 0.12416041 0.002322546 -0.15109865 -0.14990996 -0.22923441
-0.109210365 0.09366229 0.15803985 0.12805179 -0.23817073 -0.12393306 -0.060291264 0.24919792
0.021707177 -0.09023917 0.096330374 -0.12564741 -0.19926517 0.2024343 -0.12611158 -0.055599466
-0.27590907 0.18562227 0.21013004 0.10107973 -0.19338907 -0.2737279 -0.22525792 0.20682004
0.13315737 0.23339131 0.14529535 0.07019514 -0.0027160048 -0.21092641 -0.23762585 -0.25941902
0.11353657 -0.13617001 -0.055817425 -0.15961644 -0.050539717 -0.19520867 -0.18122491 0.09200004
-0.08242744 0.17122018 -0.08897634 -0.20345494 -0.048935354 -0.13444474 -0.084852934 -0.2640361

net.0.bias f4 [64]
00000000: 5a47 66be fe45 1cbe edc0 50be ed66 f93d
00000010: a770 3ebe b04d bdbc b01a 753d 66bf 1bbe
00000020: d0da a33d c1a7 8abe 8435 4bbe 27ac 80be
00000030: a2cf abbd f8ec cebd 6884 b63c 1782 0cbd
00000040: 3380 e43d 1b30 823e 4ccc cb3d 56c7 dfbd
00000050: 45f8 84be 44bc cd3d 98b6 0cbe 3086 103e
00000060: 377d 513e 2018 db3d 413e 853e cbdf 863e
00000070: c08a 703d 04f0 4ebe 3ebe 7d3e af05 1dbe
00000080: e9b7 13be 8aa6 6d3e 1a0d 5c3e 38a0 ab3d
00000090: c06b 8e3c 1866 7bbe b9bf 1fbc f532 883e
000000a0: 537b 933d 5087 c23c e621 79bd e61c c6bd
000000b0: 3a46 293e 301d 8c3c 6ec4 383e f453 eabc
000000c0: 66ee 0e3e 6c75 ea3d c827 353d 8bcf 2f3e
000000d0: 55dc 233e 3537 7c3e 3a43 543e c764 b5bd
000000e0: ae29 7fbe 8530 d63c 00a6 1ebb f826 94bd
000000f0: 5b98 debc e0b8 553c deef 443e b39e a73d
-0.22488156 -0.15261075 -0.20386095 0.12177835 -0.18597661 -0.023108333 0.059839904 -0.15209731
0.080007195 -0.2708111 -0.19844633 -0.25131342 -0.08389212 -0.10103792 0.022279933 -0.03430375
0.111572646 0.25427327 0.09951076 -0.10926692 -0.25970665 0.100456744 -0.13741529 0.14113688
0.20457922 0.10697961 0.26024058 0.26342615 0.058726072 -0.20208746 0.24779603 -0.153342
-0.14425625 0.23208061 0.21489373 0.08380169 0.017385364 -0.24550664 -0.0097503 0.26601377
0.072012566 0.023746163 -0.060823344 -0.09673481 0.16530696 0.017103761 0.18043682 -0.028604485
0.1395813 0.11448178 0.04422739 0.17169015 0.16002019 0.24630435 0.2072877 -0.088571124
-0.24918243 0.026146183 -0.002420783 -0.07233995 -0.027172258 0.013044566 0.19232127 0.08184566

net.2.weight f4 [64, 64]
00000000: ecce 35bd 148c 52bd 1093 fdbc b8e3 45bd
00000010: 7833 e63d d696 873d 6a29 e73d 004c d139
00000020: d082 ce3c 248b 313d 4e51 f2bd 20e1 363c
00000030: a0fd 08bc 0687 8fbd 7ca4 c6bd 58a1 e23d
00000040: 1825 d03d c44b 6d3d b649 f43d 0cc6 4fbd
00000050: 38de b0bc 4cda 413d 2831 a9bc c8f1 c8bc
00000060: 8899 d3bd f88d 093d 30b5 9abd c0f4 943b
00000070: 0098 f93d f899 1dbd d060 21bd b672 9a3d
00000080: 0c3d 3cbd 80e0 2fbc 7c09 ef3d 14e8 51bd
00000090: 2025 b7bd d044 8fbd 24f3 0dbd 80f1 72bd
000000a0: b6d8 84bd d0d1 4e3d 2804 ae3c 1cdf 23bd
000000b0: aae3 c6bd 5035 21bd 8415 58bd 509d 26bd
000000c0: 88f1 e6bd 7099 dc3c d816 bcbd 625f c7bd
000000d0: 1629 d1bd 50b3 553d 6c1e 9abd 1454 53bd
000000e0: c8a9 c83d 46ed 873d c4c9 923d dc12 f3bd
000000f0: da93 b7bd 2049 41bd 227b d33d e082 513c
00000100: 3076 bfbd 0030 4d3a e6d3 c6bd 905b e0bc
00000110: 88c9 0cbd 009c dd3d d095 1e3d 588e b2bc
00000120: a8fb ac3c f8cb 13bd 3c2a 493d 5887 4a3d
00000130: e07e 093d d890 47bd 1668 da3d b8d5 93bc
00000140: 8454 47bd 1e56 a03d 8ea7 d03d cac2 fe3d
00000150: 2caf 173d a489 2ebd 3605 823d e8a2 db3d
00000160: f217 fbbd 70b8 7dbc 4a95 aebd 18d5 be3c
00000170: 64c1 533d c88b d3bc 7054 2bbc ec74 663d
00000180: 781a acbc cafb d6bd b6d5 cc3d 38d9 80bd
00000190: 80fd 60bc 302e 413c 2028 f6bb ccd0 f0bd
000001a0: d4e7 6a3d 0891 68bd e0c6 84bd 40a6 f43c
000001b0: c098 85bd 30a0 6cbd b484 2cbd d058 40bd
000001c0: 94d4 55bd 4414 0abd 700e 053d e828 cfbd
000001d0: a6f3 9abd 0011 ef3a e067 8e3c 0a63 8d3d
000001e0: 5ed3 b3bd c86d 233d fe81 913d 8825 8e3d
000001f0: a471 eebd a061 43bd 7e0c dcbd eeff a1bd
00000200: 47e5 b23d 18e7 98bc 92e8 8f3d 1464 63bd
00000210: 609b 9b3c f8d7 9abd d8f1 7f3d 24f0 5fbd
00000220: 8063 00bd 161d debd 0080 d839 2211 f33d
00000230: 7c83 783d 2496 88bd 2f41 9f3c fdfc a03b
00000240: 1d2c a9bd 32ba c83d 800f 043b c0a6 d73c
00000250: acc2 4ebd 1893 6fbd d0d8 a83c c04a 3d3d
00000260: 703a 3c3d 80c1 76bd c28c f83d c0bc 96bc
00000270: 3cc7 9cbd 0878 6fbd 0003 fc3d 83ae 863c
00000280: c567 383a 2813 55bd ec37 06bd 4a9c d7bd
00000290: 6070 cbbd 9fd8 b93d 5837 fd3d 084d f43d
000002a0: cb96 95bd 0476 8a3d 03bb 70bd 2cb8 983d
000002b0: c8b7 b83d 681c c63d 4855 b83d f97e bc3d
000002c0: 17d9 843c 4841 6b3d c02d 37bd 54b7 923d
000002d0: 034d cdbc e948 7d3c fe0b bbbd d228 79bc
000002e0: d582 46bd f7bd d6bc 687a a3bd fa41 e6bd
000002f0: d77b d83c 8023 a63d 1966 063e d07d bb3d
00000300: c2b1 84bd be2f fdbd 6c35 423d bc70 8f3d
00000310: 72c7 dbbd 9898 373d 3271 d83d 201f f83b
00000320: be3a 9abd 6ae3 d13d d4a1 5a3d 0486 a93d
00000330: 0c21 adbd 62fa 943d eadd aebd 804f fd3d
00000340: 2cef 58bd d641 9a3d 200c cd3c 74af 073d
00000350: 1809 9dbc e84b 523d 2063 55bd e04c f1bd
00000360: 44b6 44bd fc95 c83d 48cb 06bd 58ee 203d
00000370: c84c 3dbd c809 c03d a836 993d 34be 343d
00000380: 7edb 82bd 6c2f d1bd 4036 9a3b 342f 96bd
00000390: 4a7b d23d 8202 f6bd eccb 643d c235 ff3d
000003a0: 4a36 803d c494 2e3d 3e4f f6bd a23e f63d
000003b0: 1827 afbc 6435 efbd b4b6 fc3d 3859 50bd
000003c0: 20e4 10bc c24f ea3d 9a75 b1bd 101e b5bd
000003d0: 2885 a63c 0011 89bc b8de eb3c 64b5 d6bd
000003e0: c0fe 743b 8cb7 63bd 28b4 7bbd 2e67 eabd
000003f0: 64bc 873d 8042 c53c f86e d8bd 3826 cb3d
-0.04438679 -0.05140312 -0.030953914 -0.048312873 0.11240286 0.066205665 0.11287196 0.0003992021
0.02520886 0.043345585 -0.11831914 0.011162072 -0.00836125 -0.070081756 -0.09699342 0.1106593
0.10163325 0.057933584 0.11928122 -0.05072598 -0.021590337 0.047327325 -0.020653322 -0.024529353
-0.10332018 0.033582658 -0.0755409 0.004545778 0.12187195 -0.038476914 -0.03939897 0.075414106
-0.045956656 -0.010734677 0.11671731 -0.051246718 -0.08942628 -0.06995547 -0.034655705 -0.059312344
-0.06486647 0.05049306 0.021242216 -0.040007696 -0.09711392 -0.039357483 -0.052754894 -0.04067737
-0.11276537 0.026928633 -0.091840446 -0.0973499 -0.10212915 0.05217296 -0.07525334 -0.051593855
0.09798008 0.06637053 0.0716739 -0.118688315 -0.08963747 -0.047188878 0.1032622 0.012787551
-0.09348714 0.0007827282 -0.09708385 -0.02738741 -0.034371883 0.1082077 0.03871709 -0.02179639
0.021116093 -0.03608319 0.049112543 0.04944548 0.033568263 -0.04872212 0.10664384 -0.018046245
-0.048664585 0.078289255 0.101882085 0.12439497 0.03703229 -0.042611733 0.0634865 0.10724431
-0.122604266 -0.015485868 -0.085245684 0.02329497 0.051698104 -0.025823489 -0.010457143 0.05626385
-0.021008715 -0.10497244 0.100016996 -0.06291431 -0.013732314 0.011790797 -0.0075121075 -0.11758575
0.057349995 -0.056778938 -0.06483245 0.02986443 -0.065232754 -0.057769954 -0.042118743 -0.0469597
-0.052204683 -0.033710733 0.03248447 -0.10115224 -0.075660035 0.0018239319 0.017383516 0.06903656
-0.087805495 0.039899617 0.07104872 0.06940752 -0.11642769 -0.047700524 -0.1074457 -0.07910143
0.087351374 -0.018664882 0.07026781 -0.055515364 0.018994987 -0.07560724 0.0624865 -0.054672375
-0.03134489 -0.108453915 0.00041294098 0.11868502 0.06067227 -0.06669262 0.019440262 0.004912971
-0.08260367 0.09801139 0.002015084 0.02632463 -0.050478622 -0.05848989 0.020611197 0.046213865
0.045954168 -0.06024313 0.121362224 -0.01840055 -0.076551884 -0.05846408 0.1230526 0.016440636
0.0007034506 -0.052020222 -0.032768175 -0.10527857 -0.09933543 0.0907452 0.123640716 0.11928755
-0.07304152 0.06760791 -0.0587721 0.07457003 0.090194285 0.09673387 0.09000641 0.092039056
0.016216798 0.057435304 -0.044721365 0.07163873 -0.025061136 0.015459278 -0.09133147 -0.015207486
-0.048464615 -0.02621363 -0.079823315 -0.11243053 0.026426239 0.0811224 0.13124885 0.09154856
-0.06479217 -0.12362622 0.04741423 0.07003924 -0.107314005 0.04482326 0.10568465 0.0075720698
-0.075307354 0.10248454 0.053376988 0.082775146 -0.08453569 0.07274319 -0.085384205 0.12368679
-0.052962467 0.075320885 0.025030196 0.03312631 -0.019169375 0.05134192 -0.052096486 -0.11782241
-0.048025385 0.09794232 -0.032908708 0.039289802 -0.046215802 0.093768656 0.07481128 0.044126704
-0.06389521 -0.10214123 0.004706174 -0.07333222 0.10277422 -0.12012197 0.055858538 0.12461425
0.06260355 0.042622343 -0.12026833 0.12023665 -0.021380946 -0.11680105 0.12339535 -0.050866336
-0.008843452 0.11440994 -0.08665009 -0.088436246 0.020327166 -0.016731739 0.028792724 -0.10483816
0.0037383288 -0.055594966 -0.061451107 -0.11445461 0.066277295 0.024079561 -0.105680406 0.09919399

net.2.bias f4 [64]
00000000: e21d 913d a01b 913d ece3 223d 68af f53d
00000010: 63ee edbd 231e 8e3d bc3e 22bd 604b ca3b
00000020: 648f b03d 15aa d8bd 57b5 4b3d 9088 ccbc
00000030: a787 943d 801e 57bb 7a3d 3a3d 1ffe 163e
00000040: 44cf 36bd f050 04be bfea cd3d 027a adbd
00000050: 79a2 bf3c 5837 9f3d 4e10 00bd a012 c83d
00000060: e0e6 a53d b89d adbb 7c3d 063d 7034 1b3c
00000070: 2471 fa3d 7c3c b13d 8819 b8bd 867e 21bb
00000080: dbe3 4e3d 30c6 f13d 30d0 2e3d b88e 593d
00000090: 9608 29bd 00af 313b 7609 d4bd a275 b33d
000000a0: 9e95 c93d 1ef7 8cbd 0b40 00be 3d02 ef3d
000000b0: ea97 f6bd c842 833d 9d4b d2bd 4233 b1bd
000000c0: 6dd2 8dbd 1297 f03d 0847 22bd 1576 b93d
000000d0: f4c1 143d e294 0a3e 07cf 953d 9689 bc3d
000000e0: a81c bc3d 6bb5 67bc a4c5 0cbd 49ab 6a3d
000000f0: 156f fc3d a114 88bd c930 9fbd d183 d7bd
0.07085778 0.07085347 0.039768144 0.11996347 -0.11617734 0.06939342 -0.03961061 0.006173536
0.086210996 -0.105793156 0.049733486 -0.024967462 0.07252436 -0.0032824576 0.045468785 0.14745377
-0.044631258 -0.129215 0.1005454 -0.08470537 0.023392903 0.07774228 -0.03126555 0.097691774
0.081006765 -0.0052983426 0.03277348 0.009472951 0.12228611 0.086541146 -0.08989245 -0.0024642064
0.05051027 0.118053794 0.04267901 0.053114623 -0.041267954 0.0027112365 -0.10353367 0.08762671
0.0984299 -0.06883071 -0.1252443 0.11670349 -0.12040694 0.06409222 -0.10268328 -0.08652355
-0.06924901 0.117475644 -0.039618522 0.090557255 0.03631778 0.13533357 0.07314878 0.0920593
0.09185153 -0.0141423745 -0.034368172 0.057292257 0.12325875 -0.0664456 -0.07772977 -0.10523189

net.4.weight f4 [3, 64]
00000000: 488b 6cbd 1065 a33c 2fd7 1bbd 3c8a 08bd
00000010: 256a 96bd 6c6d f13b 20df d2bd cedb fb3d
00000020: d095 9ebc ca69 1a3c ecd5 183d f836 47bd
00000030: 71ec b93d 00dd 72ba 3363 01bc a689 11be
00000040: 0080 7d3c b5c2 113d 952e 333b 6f37 d3bc
00000050: 9db5 b63d 0e65 ca3d fbf3 9b3d 28ba b1bc
00000060: f8e3 b03c 8def e0bd 04a7 bfbd 00f8 b2bc
00000070: 30ea 643c bc1b 95bd 4f63 e3bd 1497 303d
00000080: d6f1 003d 55d2 d6bd 105a aa3d be59 bfbd
00000090: 3c33 a23d 9aff 873d 3ef4 6dbd 954f da3d
000000a0: c6bc 8fbd 88e0 69bd da6b ad3d 0fca 66bd
000000b0: d30f 71bd b86f 61b9 a5ec 35bd 4b80 7e3d
000000c0: 20f9 b43d 30bf 633d 727f 1c3c 0f96 4b3c
000000d0: 4048 553b 36f8 efbb 35b0 89bc a490 ae3d
000000e0: e6ac 633d 4d96 14bd 3c58 413d a447 8fbc
000000f0: 8ed3 913c 195c a93d 2fe3 a4bd ff2a 8fbb
00000100: b808 d5bc 0a45 fabd 9013 0bbe d814 86bc
00000110: 259a 993d f711 c8bd 04c7 263d b28b 933d
00000120: e897 babd 1392 233d c04e a23c c410 e9bd
00000130: 3ec5 25bc be55 f0bd 6c38 be3d 0406 393d
00000140: 1c2e 443d 7a41 d03d 2157 a63d f40c e33d
00000150: 8c0d 3e3d 94d3 b8bd 5d87 d93d d439 0e3d
00000160: 90d4 49bd eceb 7dbd 688c ef3d 3079 e33c
00000170: 8012 ba3d 00b9 1f3c 17d6 de3d d4f8 d6bd
00000180: c985 813c 0d3d 6e3c 00f6 bcba 24bb e33d
00000190: 6ca5 263c 40e2 dd3b d59c 8f3d 0398 b6bc
000001a0: b052 04bc c40f d3bd 2d18 7bbc 91dd 8dbd
000001b0: f420 833d 93b2 bc3d 68f1 fcbd c07a b4bd
000001c0: 1923 db3d 7488 5abd 813f c23d 7ac1 d93d
000001d0: 3467 00bd 5671 f0bd 629e 3f3d c4bd 683d
000001e0: b99d c13d f60c 0a3c 3633 8b3d 3462 f6bd
000001f0: e0bd d83a 4b99 513c ecb7 ca3d 3c4a 81bd
00000200: b0be 74bc c697 98bd 621b d8bd 0c24 553d
00000210: 5bfa 903b 5cf3 dc3c 808a 3abb 403e 49bb
00000220: e045 9dbb 408b 5d3d 2efa b7bd f0bc dc3c
00000230: bd99 793d 427a 943d 1868 9dbd 5827 983d
00000240: 3e9d aabd 8edd 6e3d 4684 b43d 850a 13bc
00000250: e4aa 073d a083 f2bd 12c3 72bd 2029 49bd
00000260: 4458 eebd 5751 40bd f2b7 b23d 408a 43bc
00000270: 32f9 fc3d de71 e6bd 562e 313d 9828 c23d
00000280: 299b dc3d 589c 8cbd 5425 e7bd a42e 3cbd
00000290: c69b 9f3d 7070 333c 6620 d63d 33c0 d3bd
000002a0: 784d a0bd 5677 823d 3281 ea3c a609 d8bd
000002b0: 3748 dd3d 2325 87bd 7a11 01be 3b85 9d3c
000002c0: 890f aabd 58a6 73bd 6a07 b0bd d142 883c
000002d0: 68de 6f3d 0ee0 833d cd30 b4bd e851 efbc
000002e0: d3b8 d23d 44bb b3bd c811 39bd 804a 40bd
000002f0: d307 0abe a1d8 e1bd e225 c83d 3b27 b73b
-0.057750016 0.019945651 -0.038047012 -0.033334956 -0.07344464 0.0073677804 -0.10296464 0.12297784
-0.019358546 0.009424636 0.037313387 -0.048636407 0.09078301 -0.0009264499 -0.007897186 -0.14212665
0.015472412 0.035586078 0.0027340997 -0.025783269 0.08921359 0.09882556 0.07614895 -0.021695212
0.021593079 -0.10983191 -0.093580276 -0.021846771 0.01397185 -0.072806805 -0.11102926 0.04311283
0.031480633 -0.104893364 0.08317959 -0.09343289 0.079199284 0.06640549 -0.058094256 0.1065971
-0.070184276 -0.057098895 0.08467837 -0.05634504 -0.05885298 -0.0002149929 -0.044415135 0.06213407
0.08836579 0.055602252 0.00955187 0.0124259135 0.0032544285 -0.00732329 -0.016807655 0.08523682
0.05558481 -0.03627615 0.047203287 -0.017490216 0.017801072 0.08269519 -0.08051144 -0.004369139
-0.026005134 -0.122201994 -0.13581681 -0.016367361 0.07500104 -0.097690515 0.04071714 0.07204379
-0.09111005 0.03993423 0.019812942 -0.11380151 -0.010117827 -0.11735104 0.09288105 0.045171753
0.047895536 0.10168739 0.08122087 0.11086455 0.046399638 -0.0902473 0.106215216 0.034723118
-0.04927498 -0.06199257 0.11696702 0.027767748 0.0908556 0.009748697 0.10880678 -0.10496679
0.015810864 0.014540923 -0.0014416575 0.111196786 0.010171276 0.006771356 0.07012335 -0.022289282
-0.008076355 -0.103057414 -0.015325588 -0.06927026 0.0640277 0.09213748 -0.12350732 -0.08812475
0.10700054 -0.053352788 0.09484769 0.10632606 -0.031348422 -0.11740367 0.046781905 0.0568216
0.09453911 0.008425942 0.06796877 -0.120304495 0.0016536079 0.012792896 0.098983616 -0.06312987
-0.014938042 -0.074508235 -0.10552098 0.05203633 0.004424376 0.026971512 -0.00284639 -0.003070727
-0.0047995895 0.054087877 -0.08983265 0.026945561 0.060937632 0.07249881 -0.0768587 0.07429379
-0.08330773 0.05831676 0.08814292 -0.008974676 0.03312196 -0.11841512 -0.059268065 -0.049111485
-0.11637929 -0.04695257 0.08726491 -0.011934817 0.12352218 -0.11252187 0.04325708 0.09480399
0.10771782 -0.06865758 -0.11286417 -0.045942917 0.07793383 0.0109521 0.10455398 -0.103393935
-0.07827276 0.06370418 0.028626058 -0.10548715 0.108047895 -0.0659888 -0.12604323 0.019228568
-0.08303744 -0.05948481 -0.08595164 0.016633423 0.058561713 0.064392194 -0.087983705 -0.02921386
0.10289159 -0.087759525 -0.045182973 -0.04694605 -0.13479547 -0.11027647 0.097728506 0.0055893934

net.4.bias f4 [3]
00000000: 4e26 083b e87d 073d 4f32 693d
0.0020774784 0.033079058 0.056932744
