backend/bc_policy.pt (torch, 25389 bytes, 6 tensors)

mlp_extractor.policy_net.0.weight f4 [64, 13]
0	0x3e592248	0.21204484
1	0x3e6bba46	0.23020276
2	0xbd8511e0	-0.0649755
3	0x3e82721f	0.25477692
4	0xbd78e848	-0.060768396
5	0x3d653d50	0.055966675
6	0xbe0a451e	-0.13502929
7	0x3e26cac6	0.1628829
8	0x3e7a5d2a	0.24449602
9	0xbe505aec	-0.20347184
10	0x3e76db7e	0.24107167
11	0x3d549e28	0.051908642
12	0x3e51d396	0.2049087
13	0x3d934792	0.07191385
14	0x3e08f1ce	0.13373491
15	0xbd33f68d	-0.0439363
16	0x3e5aefc4	0.21380526
17	0x3daa6386	0.08319764
18	0xbe131e6f	-0.14367078
19	0x3d83a1db	0.06427356
20	0xbe0949ee	-0.13407108
21	0xbd14090d	-0.036141444
22	0xbdfa796c	-0.12230191
23	0x3e328420	0.17433214
24	0xbe76f787	-0.24117862
25	0xbe0b6602	-0.13613132
26	0xbe5a85e3	-0.21340136
27	0xbe2ac3ea	-0.16676298
28	0xbd866b0f	-0.065633886
29	0xbe8c40ef	-0.2739329
30	0x3e2b36f4	0.16720182
31	0xbea0b021	-0.31384376
32	0x3e8f38c3	0.27972993
33	0x3cc5e963	0.024159139
34	0xbe072e24	-0.13201195
35	0x3def80f2	0.11694516
36	0xbc37cc4b	-0.011218141
37	0x3de1f8e4	0.110338
38	0x3de499e3	0.11162164
39	0xbd9687cd	-0.07350121
40	0x3d989da8	0.074519455
41	0xbd696f82	-0.056991108
42	0x3def0d74	0.11672488
43	0x3e7beb0f	0.24601386
44	0x3e40f558	0.18843591
45	0xbdca723a	-0.09885068
46	0x3e35f4f6	0.17769226
47	0x3d8c11a6	0.06839304
48	0x3e2469ff	0.1605606
49	0xbe18eaf5	-0.14933379
50	0xbe7e552e	-0.24837181
51	0xbdbe0e25	-0.092800416
52	0xbd329499	-0.043598745
53	0x3e6909d2	0.22757652
54	0x3e5e9b95	0.21739037
55	0x3deb4758	0.11488217
56	0x3e7050bf	0.23468302
57	0x3e663c09	0.22483839
58	0x3ec9b60b	0.393967
59	0xbe3a6892	-0.18203953
60	0x3e2d3712	0.16915539
61	0xbe1e7d45	-0.15477474
62	0x3df5dc67	0.12004929
63	0xbe9bc9ab	-0.30427298
64	0x3e35e105	0.1776162
65	0xbd6cae6c	-0.05778353
66	0x3e6b8d7a	0.23003188
67	0xbe2854c9	-0.16438593
68	0xbe296183	-0.16541104
69	0xbe296421	-0.16542102
70	0x3e7f7296	0.24946055
71	0x3dbd4a7c	0.092427224
72	0x3e88a489	0.2668803
73	0xbe6a6242	-0.22889045
74	0xbe8cd982	-0.27509695
75	0xbe5e3247	-0.21698867
76	0xbe3f0c4e	-0.18657038
77	0x3de6116c	0.11233792
78	0x3e2d765f	0.16939686
79	0x3e6bfcea	0.23045698
80	0xbdb8c5ab	-0.09022077
81	0xbe419c4f	-0.18907283
82	0x3e8ea378	0.27859092
83	0xbe8074b5	-0.2508904
84	0x3e8c3ce7	0.27390215
85	0xbbb78b30	-0.0056013092
86	0x3e567bde	0.20945689
87	0xbe325820	-0.1741643
88	0xbdca020e	-0.09863673
89	0x3e2a625d	0.16639085
90	0x3e13c00f	0.14428733
91	0xbd90d1e4	-0.070712835
92	0x3e2949a0	0.16531992
93	0x3e4111fa	0.18854514
94	0xbe4df436	-0.2011269
95	0xbe179f3e	-0.1480684
96	0x3e8206e7	0.2539589
97	0xbdbfaa82	-0.09358694
98	0xbdc95eb2	-0.09832515
99	0xbe8966ce	-0.26836246
100	0xbe22a45e	-0.15883014
101	0x3d8de448	0.06928307
102	0xbd15f29c	-0.036608323
103	0xbe4e2806	-0.20132455
104	0x3d6c129f	0.057634946
105	0xbe41ffe5	-0.18945272
106	0xbe31f339	-0.17377938
107	0xbe1c644b	-0.15272634
108	0xbdadb7b9	-0.08482308
109	0xbe33be90	-0.17553163
110	0x3edb78d5	0.42865625
111	0x3dc78c19	0.097435184
112	0x3e18502d	0.14874335
113	0xbe54ac1c	-0.2076878
114	0xbe064fd4	-0.1311639
115	0xbe0653a6	-0.13117847
116	0x3e2325f6	0.1593245
117	0xbe79e744	-0.24404627
118	0xbdf4bdd2	-0.11950268
119	0xbe2a0698	-0.16604078
120	0x3a497c00	0.0007686019
121	0xbdd35c06	-0.103202865
122	0xbc9d7190	-0.01921919
123	0xbe407384	-0.18794066
124	0xbe42f0d1	-0.19037177
125	0xbe25b09e	-0.16180655
126	0xbdc26dec	-0.09493622
127	0xbe602931	-0.21890713
128	0x3e6e2182	0.2325497
129	0xbd6175d8	-0.055044025
130	0x3e60025e	0.21875903
131	0x3db0fb90	0.08641732
132	0xbe2b6dbf	-0.16741084
133	0x3e448ae0	0.19193602
134	0x3d7f9967	0.062402155
135	0x3d4cd454	0.05000718
136	0xbe06917b	-0.13141434
137	0xbe96cc4e	-0.29452747
138	0x3dce8454	0.10083833
139	0x3c62e050	0.013847426
140	0x3e3aca21	0.18241169
141	0xbe75dc62	-0.2400985
142	0x3e6aac38	0.22917259
143	0xbd850729	-0.06495506
144	0xbd442954	-0.047890976
145	0x3e17c192	0.14819935
146	0x3e129e6e	0.14318249
147	0x3e7c01a8	0.24610007
148	0x3ec6c07d	0.38818732
149	0xbe7ae9b1	-0.24503209
150	0x3df02e11	0.117275365
151	0xbd1d887f	-0.03846025
152	0x3d6d38fe	0.05791568
153	0xbdf44b91	-0.11928476
154	0x3eb4a36a	0.35280925
155	0xbea6fa0f	-0.32612655
156	0x3e1299f0	0.14316535
157	0x3dc79f4c	0.0974718
158	0x3db291a3	0.08719184
159	0xbe198c0a	-0.14994827
160	0x3e81f055	0.2537867
161	0x3d3df960	0.0463804
162	0x3ce78372	0.02826092
163	0xbe80c7ed	-0.2515253
164	0x3ddf0c98	0.10891074
165	0xbd4ba4e2	-0.04971779
166	0xbe0a6a16	-0.13517031
167	0x3e61bb8a	0.22044197
168	0x3d7b631a	0.061373807
169	0xbdd30da3	-0.103053354
170	0xbe0fbf2b	-0.14037769
171	0x3d9215e9	0.07133085
172	0x3e1e9408	0.15486157
173	0x3d758b4e	0.059947304
174	0xbb67a4bf	-0.0035346
175	0xbcedc50b	-0.029024621
176	0xbe7f9ed9	-0.2496294
177	0x3dfb225f	0.12262415
178	0x3e996f79	0.2996786
179	0xbe345641	-0.17611028
180	0x3e21bc4c	0.15794486
181	0x3da67736	0.081282064
182	0x3de213e9	0.11038954
183	0xbdca488e	-0.0987712
184	0x3e234b36	0.1594666
185	0x3e153fc8	0.14575112
186	0x3e55c4cf	0.20875858
187	0xbcc25ae4	-0.02372498
188	0xbe18549e	-0.14876029
189	0x3bf3a23e	0.0074351123
190	0xbd936d3e	-0.07198571
191	0xbdc03478	-0.093850076
192	0x3e2a1213	0.16608457
193	0x3e7e349d	0.24824758
194	0xbdb85f3b	-0.09002539
195	0xbe47f54e	-0.1952717
196	0x3b849e40	0.004047185
197	0xbda0b463	-0.07846906
198	0x3d888e88	0.06667811
199	0xbddf769a	-0.10911293
200	0xbed324b5	-0.41238943
201	0xbe3a9f36	-0.18224797
202	0x3e73378a	0.23751655
203	0x3d8d2ad7	0.06892937
204	0xbd43adf4	-0.047773317
205	0xbe4e05f8	-0.20119464
206	0xbe874394	-0.26418746
207	0xbe5ab2c2	-0.21357253
208	0xbdaf3e87	-0.08556848
209	0x3dbfd204	0.09366229
210	0x3e3632fb	0.17792885
211	0x3e032002	0.12805179
212	0xbe771789	-0.24130072
213	0xbe268416	-0.16261324
214	0xbd10d90b	-0.03536324
215	0x3e925c29	0.28585938
216	0x3d6cbbb4	0.057796195
217	0xbd5ed308	-0.054400474
218	0x3e075753	0.13216905
219	0xbdd60e9d	-0.10452006
220	0xbe331dcc	-0.17491835
221	0x3e4f4af0	0.2024343
222	0xbe012365	-0.12611158
223	0xbd63bc44	-0.055599466
224	0xbe8d43f4	-0.27590907
225	0x3e3e13c4	0.18562227
226	0x3e572c54	0.21013004
227	0x3dcf02e4	0.10107973
228	0xbe4607c9	-0.19338907
229	0xbe8c2610	-0.2737279
230	0xbe66aa03	-0.22525792
231	0x3e53c8a2	0.20682004
232	0x3e085a68	0.13315737
233	0x3e6efe22	0.23339131
234	0x3e14c84e	0.14529535
235	0x3d8fc278	0.07019514
236	0xbb31ff00	-0.0027160048
237	0xbe57fd18	-0.21092641
238	0xbe735431	-0.23762585
239	0xbe84d292	-0.25941902
240	0x3de885dc	0.11353657
241	0xbe0b7027	-0.13617001
242	0xbd64a0d0	-0.055817425
243	0xbe23727e	-0.15961644
244	0xbd4f02bc	-0.050539717
245	0xbe47e4c8	-0.19520867
246	0xbe399306	-0.18122491
247	0x3dbc6a84	0.09200004
248	0xbda8cfb8	-0.08242744
249	0x3e2f5458	0.17122018
250	0xbdb6393a	-0.08897634
251	0xbe50567e	-0.20345494
252	0xbd487070	-0.048935354
253	0xbe09abe2	-0.13444474
254	0xbdadc760	-0.084852934
255	0xbe872fbd	-0.2640361

mlp_extractor.policy_net.0.bias f4 [64]
0	0xbe78d07c	-0.2429828
1	0xbe212a7e	-0.15738866
2	0xbe95cf3c	-0.2925967
3	0x3e200ff8	0.15631092
4	0xbd2c96d4	-0.04213603
5	0xbcbd4db0	-0.023108333
6	0x3defedd8	0.11715287
7	0xbe1bbf66	-0.15209731
8	0x3e146ed3	0.14495401
9	0xbe8aa7c1	-0.2708111
10	0xbe05eb32	-0.13078001
11	0xbe16171d	-0.14657255
12	0xbdb82743	-0.089918636
13	0xbc85ca53	-0.016331827
14	0x3d5ee9a7	0.054422047
15	0xbde7d5b4	-0.113200575
16	0x3e0b0ad0	0.13578343
17	0x3e82301b	0.25427327
18	0x3dcbcc4c	0.09951076
19	0xbddfc756	-0.10926692
20	0xbe9151e1	-0.2838278
21	0x3dcd7872	0.10032739
22	0xbe0cb698	-0.13741529
23	0x3e247add	0.16062494
24	0x3e47ad61	0.19499733
25	0x3ddb1820	0.10697961
26	0x3ebc9ce7	0.36838457
27	0x3e7a81c9	0.24463572
28	0x3d514a31	0.051096145
29	0xbe455705	-0.19271477
30	0x3e6c8a14	0.23099548
31	0xbdec2933	-0.115312956
32	0xbe7491f9	-0.23883809
33	0x3e5fa84f	0.21841548
34	0x3e5c0d1a	0.21489373
35	0x3d976968	0.073931515
36	0x3bcacbc7	0.006188843
37	0xbe6ee586	-0.23329744
38	0xbe0c2a4a	-0.13688007
39	0x3e8832f5	0.26601377
40	0x3db0f9e5	0.086414136
41	0x3d9e208c	0.077210516
42	0xbd685277	-0.05671927
43	0xbdc61ce6	-0.09673481
44	0x3e621600	0.22078705
45	0x3c8c1d30	0.017103761
46	0x3e4baf63	0.19891123
47	0xbd7b999c	-0.06142579
48	0x3dfca0c6	0.123353526
49	0x3de9536c	0.113928646
50	0x3cd0010f	0.02539113
51	0x3e327648	0.17427933
52	0x3e2c923f	0.16852663
53	0x3e83a049	0.25708225
54	0x3e5cdc60	0.21568441
55	0xbe4d1498	-0.20027387
56	0xbe6e8d63	-0.23296122
57	0x3d85bd96	0.06530301
58	0xbb1ea600	-0.002420783
59	0xbdb29d40	-0.08721399
60	0xbda6477d	-0.08119104
61	0x3d0b0988	0.033944637
62	0x3e534480	0.206316
63	0x3d4080bc	0.04699777

mlp_extractor.policy_net.2.weight f4 [64, 64]
0	0xbd2e535e	-0.042559974
1	0xbd5ee4dd	-0.05441748
2	0xb8d30f2a	-0.000100640886
3	0xbd3e5b67	-0.046473887
4	0x3db03c63	0.08605268
5	0x3d83d90c	0.06437883
6	0x3def2388	0.11676699
7	0xbabb1f3b	-0.0014276275
8	0x3d1ded8f	0.03855663
9	0x3d2a0f96	0.04151877
10	0xbe41d33b	-0.18928234
11	0x3890e0e3	6.9083435e-05
12	0xbc26ef04	-0.010188822
13	0xbe009bd7	-0.12559448
14	0xbdbbadcb	-0.09164008
15	0x3e40edf8	0.18840778
16	0x3dd3e2e0	0.10346007
17	0x3d65d036	0.05610677
18	0x3df08bef	0.1174544
19	0xbd57419a	-0.052552797
20	0xbcbfe703	-0.023425585
21	0x3d3a5ebe	0.04550051
22	0xbcb8284c	-0.022480153
23	0xbd869655	-0.06571642
24	0xbdf79919	-0.12089748
25	0x3d021267	0.03175583
26	0xbd973196	-0.07382505
27	0x3b26862b	0.002540956
28	0x3df5e569	0.12006647
29	0xbd8da149	-0.06915528
30	0xbd241c5f	-0.04006612
31	0x3d9e1617	0.07719057
32	0xbc214f40	-0.009845555
33	0xbc4fe327	-0.012688435
34	0x3deb4bb5	0.11489049
35	0xbd58da76	-0.052942716
36	0xbdbae26d	-0.091252185
37	0xbd8b870b	-0.06812867
38	0xbd219d7c	-0.03945683
39	0xbd7a6d0a	-0.061139144
40	0xbd811a78	-0.06303877
41	0x3bc89d10	0.006122239
42	0x3d814a45	0.06312994
43	0xbd2b5aaa	-0.04183451
44	0xbe0e1352	-0.13874558
45	0xbd28b0de	-0.0411843
46	0xbd485abe	-0.048914663
47	0xbd07796b	-0.033074778
48	0xbde637bf	-0.112411015
49	0x3ccda24a	0.0251018
50	0xbdbfd7a4	-0.09367302
51	0xbdc3a19b	-0.09552308
52	0xbd852899	-0.06501884
53	0x3d5d2ede	0.053999774
54	0xbd9660a2	-0.0734265
55	0xbc927e32	-0.01788244
56	0x3e3cdb46	0.18443021
57	0x3d8ba8ee	0.0681933
58	0x3d8f0bfd	0.069847085
59	0xbdf6d09a	-0.12051506
60	0xbce5b619	-0.028040932
61	0xbd920848	-0.07130486
62	0x3dd738ec	0.10508904
63	0x3db3d3d0	0.087806344
64	0xbd9e9422	-0.07743098
65	0xbc7bc24e	-0.01536615
66	0xbde0471f	-0.10951065
67	0xbc39a447	-0.011330671
68	0xbd3fccca	-0.04682616
69	0x3dbcb9f2	0.09215154
70	0x3c90fb51	0.017697962
71	0xbd1b0b41	-0.03785253
72	0xbb73ed49	-0.003722029
73	0xbd559010	-0.05213934
74	0x3d5f1a19	0.054468248
75	0x3d81c78e	0.0633689
76	0x3c8f75a1	0.017512145
77	0xbd49394e	-0.049126916
78	0x3e079497	0.13240276
79	0xbd042ba8	-0.032268196
80	0xbd05906c	-0.032608435
81	0x3d7ee81e	0.062233083
82	0x3dafc580	0.08582592
83	0x3ddde0bc	0.1083388
84	0x3cabd2cb	0.020974537
85	0xbd704dbc	-0.058667883
86	0x3d424654	0.04743035
87	0x3da5c4b4	0.08094159
88	0xbdc7a6ad	-0.09748588
89	0xbd01322c	-0.03154199
90	0xbdcec942	-0.10096981
91	0x3bed1e22	0.007236258
92	0x3d11faa0	0.035639405
93	0xbd62224b	-0.055208486
94	0xbcd8f350	-0.026483208
95	0x3d942290	0.07233155
96	0xbcba6044	-0.022750981
97	0xbdf7ff7e	-0.12109278
98	0x3dabf3a8	0.08396083
99	0xbda19e46	-0.078915164
100	0xbcf406d2	-0.029788408
101	0x3ce41f36	0.027846914
102	0x3c271c3d	0.010199604
103	0xbe08d968	-0.13364184
104	0x3d9655ed	0.07340608
105	0xbd7ad229	-0.06123558
106	0xbb9d306e	-0.004797033
107	0x3c623c3e	0.013808308
108	0xbd7494ae	-0.059712104
109	0xbd973226	-0.07382612
110	0xbd8853ba	-0.066565946
111	0x3aa4deff	0.0012578665
112	0xbd12e0fb	-0.03585909
113	0xbd4bd85c	-0.049766883
114	0x3c8694dd	0.016428405
115	0xbdae46da	-0.085096076
116	0xbc9fd465	-0.019510457
117	0x3c927934	0.01788006
118	0x3d08f804	0.03343965
119	0x3d8e985a	0.069626525
120	0xbe053fc3	-0.13012604
121	0x3d653221	0.05595601
122	0x3d613fdf	0.054992553
123	0x3d5a86f6	0.053351365
124	0xbe002eaf	-0.12517808
125	0xbdc7c66a	-0.09754641
126	0xbdbb2a70	-0.09138954
127	0xbda2da2b	-0.079517685
128	0x3d9b1c69	0.07573778
129	0xbcc9f6d5	-0.024653831
130	0x3cf8a413	0.030351674
131	0xbd89c1df	-0.06726431
132	0x3c30379b	0.010755445
133	0xbda75df3	-0.08172216
134	0x3d3ff2d2	0.04686243
135	0xbd78fc17	-0.060787287
136	0xbd4fcbb6	-0.050731383
137	0xbdeaa311	-0.11456884
138	0x3b2dac22	0.0026500304
139	0x3e0e5bd6	0.1390222
140	0x3d5f77c0	0.054557562
141	0xbd88f792	-0.06687845
142	0x3cd7a477	0.02632354
143	0xbc966e83	-0.018363243
144	0xbdc1935f	-0.09451937
145	0x3dbc3437	0.09189647
146	0xbb8657b7	-0.004099812
147	0x3ca58ee1	0.020209732
148	0xbd67c609	-0.056585345
149	0xbd844f87	-0.06460481
150	0x3c6d81e8	0.014496304
151	0x3cdcb26c	0.026940547
152	0x3d010c9c	0.031506166
153	0xbd87e6bb	-0.06635805
154	0x3de614b9	0.11234421
155	0xbcc864d1	-0.024462136
156	0xbda94e56	-0.082668945
157	0xbd7ca0ee	-0.061676912
158	0x3df04d4c	0.11733493
159	0x3bc86a4f	0.0061161886
160	0xbca37c0e	-0.019956615
161	0xbd6e0785	-0.05811264
162	0xbd1f43de	-0.038883083
163	0xbde3f0ec	-0.111299366
164	0xbdd7f63d	-0.10545013
165	0x3da25b83	0.07927611
166	0x3df0bd49	0.11754853
167	0x3de7c70d	0.11317263
168	0xbdac4b79	-0.08412833
169	0x3d89c00a	0.06726082
170	0x3bf3f857	0.007445376
171	0x3d8c3231	0.06845511
172	0x3ddb2227	0.106998734
173	0x3db9966d	0.090618946
174	0x3d76008f	0.060059126
175	0x3e1233eb	0.14277618
176	0x3c0ee324	0.008721147
177	0x3d523557	0.0513204
178	0xbd50372c	-0.050833866
179	0x3d77fd41	0.060544256
180	0x3d3f4c4f	0.046703633
181	0x3b839879	0.004015979
182	0xbdd24b2d	-0.10268245
183	0xbce12a8f	-0.027486114
184	0xbdfb9fc1	-0.1228633
185	0xbd13a9e1	-0.03605068
186	0xbdb00063	-0.08593824
187	0xbdf2c7f0	-0.11854541
188	0xbc8ba698	-0.017047212
189	0x3c77b90b	0.015119801
190	0x3df5acda	0.119958594
191	0x3d77195c	0.06032692
192	0xbd71e6ce	-0.059058003
193	0xbe05282f	-0.1300361
194	0x3e1e6e14	0.15471679
195	0x3d9b34ff	0.075784676
196	0xbe17d9e0	-0.14829206
197	0x3d201be2	0.03908909
198	0x3e08f6df	0.13375424
199	0x3af0e59f	0.0018378979
200	0xbd142155	-0.0361646
201	0x3dc62509	0.09675033
202	0xbbf88589	-0.007584278
203	0x3d2e61a0	0.04257357
204	0xbdb8e01c	-0.090271205
205	0x3c56f407	0.013119704
206	0xbd6c1514	-0.05763729
207	0x3e0c99fb	0.13730614
208	0xbd417274	-0.04722829
209	0x3d8e8375	0.06958667
210	0x3c9e12b1	0.019296022
211	0x3ce06579	0.027392136
212	0xbccc38f9	-0.02492951
213	0x3d3acf32	0.045607753
214	0xbd6cdfd9	-0.057830665
215	0xbe27321d	-0.1632771
216	0xbcfdd495	-0.030985156
217	0x3dbcd79b	0.09220811
218	0xbc6cb758	-0.014448009
219	0x3d07c166	0.033143423
220	0xbd54bd40	-0.051938295
221	0x3d14e164	0.03634776
222	0x3d8e7693	0.0695621
223	0x3d4c14a0	0.049824357
224	0xbdb39bb4	-0.087699324
225	0xbddd306d	-0.10800252
226	0xba86bdf0	-0.0010279994
227	0xbda1a70b	-0.07893189
228	0x3dc6bd50	0.09704077
229	0xbdea4421	-0.11438776
230	0x3cd1aa50	0.025593907
231	0x3df37761	0.11888004
232	0x3d8bf572	0.06833924
233	0xbb07d157	-0.0020724142
234	0xbdf6e4e0	-0.12055373
235	0x3dea8041	0.11450244
236	0xbdf23a30	-0.11827505
237	0xbdfaf3c1	-0.122535236
238	0x3e061a8f	0.13096069
239	0xbe190e2b	-0.14946811
240	0xbbb563cc	-0.0055355784
241	0x3dde9162	0.10867573
242	0xbdbd38a9	-0.09239323
243	0xbda95faf	-0.08270203
244	0x3d159afa	0.03652475
245	0xbc342f21	-0.0109975645
246	0x3d0d6c21	0.034526948
247	0xbe1df676	-0.15426049
248	0x3dccb20a	0.09994896
249	0xbd4c3e74	-0.049864247
250	0xbd899874	-0.06718531
251	0xbdf62585	-0.12018875
252	0x3e23f3a0	0.16010904
253	0x3be354c9	0.0069375974
254	0xbdccb096	-0.099946186
255	0x3e3ff2cf	0.18744968

mlp_extractor.policy_net.2.bias f4 [64]
0	0x3d94dba9	0.07268459
1	0x3db1fdae	0.08690964
2	0x3ce5cd77	0.028052075
3	0x3e00b6e1	0.12569763
4	0xbdd93eb3	-0.10607662
5	0x3d8bc072	0.068238154
6	0xbcde5dbc	-0.027144305
7	0xbb191116	-0.0023356131
8	0x3db55120	0.08853364
9	0xbdd88bb3	-0.105735205
10	0x3d884ec2	0.06655647
11	0xbc3c3aac	-0.011488598
12	0x3dac76dc	0.08421108
13	0x3c53a0dd	0.012916771
14	0x3d45fe74	0.04833837
15	0x3e002400	0.12513733
16	0xbd472892	-0.048622675
17	0xbe13904b	-0.14410512
18	0x3dead89b	0.114670955
19	0xbd8a81bb	-0.067630254
20	0x3cb9c4e7	0.022676898
21	0x3da35c28	0.07976562
22	0xbcccfeb1	-0.02502379
23	0x3dc4d0ca	0.09610136
24	0x3db6b101	0.089204796
25	0xbd02c710	-0.031928122
26	0x3cb7a823	0.022419041
27	0x3bfcb57d	0.007712065
28	0x3df6419e	0.12024234
29	0x3dc5cae6	0.096578404
30	0xbdbcdfd3	-0.092223786
31	0x3c1ebc2d	0.009688419
32	0x3d781dc9	0.06057528
33	0x3db085c1	0.086192615
34	0x3d01a90b	0.031655353
35	0x3d4eb1bf	0.05046248
36	0xbc8783fe	-0.016542431
37	0x3b82f2b8	0.0039962195
38	0xbdb5de3d	-0.08880279
39	0x3ded7be0	0.11595893
40	0x3dce9b05	0.100881614
41	0xbd935c95	-0.07195393
42	0xbddbed57	-0.10738628
43	0x3dbe2e36	0.09286158
44	0xbdf498f5	-0.11943237
45	0x3d761465	0.060078043
46	0xbde6ac03	-0.112632774
47	0xbd725fbc	-0.05917333
48	0xbd86e2bd	-0.06586216
49	0x3e09084e	0.13382074
50	0xbd22e1d8	-0.039766163
51	0x3dda335b	0.106543265
52	0x3d0d6a13	0.03452499
53	0x3df95e96	0.12176244
54	0x3daf9e00	0.08575058
55	0x3db15a0b	0.086597525
56	0x3dbaf9c5	0.09129671
57	0xbd04ccb8	-0.032421798
58	0xbd29cf2d	-0.041457344
59	0x3d255b67	0.04037037
60	0x3dce303a	0.10067792
61	0xbd44b956	-0.048028313
62	0xbddd027b	-0.10791489
63	0xbdbcd86d	-0.092209674

action_net.weight f4 [7, 64]
0	0xbdbd5b6d	-0.09245954
1	0x3d109136	0.035294734
2	0x3c971930	0.018444628
3	0xbcdfb926	-0.027309965
4	0xbd5ea3c6	-0.054355405
5	0x3d2c4277	0.042055573
6	0xbddfcd06	-0.10927777
7	0x3e1d7bea	0.153793
8	0x3c86e7cb	0.01646795
9	0x3cc9886d	0.024601186
10	0x3c8bd2fb	0.017068377
11	0xbcb4d06a	-0.022072036
12	0x3dd1a83a	0.10237165
13	0x3c266fc2	0.010158481
14	0x3aeba8ed	0.0017979421
15	0xbe007569	-0.12544788
16	0x3c00a513	0.007851857
17	0x3d1d07a9	0.038337383
18	0xbb31eafb	-0.0027148116
19	0xbc66c829	-0.014085808
20	0x3dfd8fb2	0.12380923
21	0x3dbe602a	0.092956856
22	0x3daeccfb	0.08535191
23	0x3bd6fea1	0.006561116
24	0x3cb7dc9b	0.02244406
25	0xbdc5c0cd	-0.096559145
26	0xbdbeb688	-0.09312159
27	0xbd16b4cf	-0.036793526
28	0xbb31f9c2	-0.0027156924
29	0xbd9b4b96	-0.07582776
30	0xbdcdc47c	-0.10047242
31	0x3d74d5c9	0.059774194
32	0x3c9d38f0	0.019192189
33	0xbdac346c	-0.08408436
34	0x3da9a7c9	0.082839556
35	0xbdef15a8	-0.116740525
36	0x3dd20bc7	0.102561526
37	0x3dc79940	0.09746027
38	0xbd0978af	-0.03356236
39	0x3deb0507	0.11475568
40	0xbda9c89c	-0.08290216
41	0xbd8b739a	-0.068091586
42	0x3deb38d4	0.114854485
43	0xbd881493	-0.06644549
44	0xbd57fb07	-0.052729633
45	0x3c41ac4b	0.011820863
46	0xbc6b827b	-0.014374371
47	0x3d8cbecc	0.06872329
48	0x3dd4f6cd	0.10398636
49	0x3d87d71f	0.06632828
50	0x3c915e57	0.01774518
51	0xbc9498f1	-0.018139334
52	0x3c930683	0.017947441
53	0x3c99b079	0.018760907
54	0xbab715e8	-0.001396832
55	0x3d950985	0.07277206
56	0x3d9276f2	0.07151593
57	0xba80f6ea	-0.0009839211
58	0x3d32c31b	0.0436431
59	0x3c253a4a	0.010084698
60	0x3d1bd06e	0.03804057
61	0x3dc3c7be	0.09559582
62	0xbdb3b6f3	-0.08775129
63	0x3d05e9ea	0.03269378
64	0xbc7220e1	-0.014778347
65	0xbdef9b8e	-0.116995916
66	0xbe0d0118	-0.13769948
67	0x3b88b0e8	0.0041714795
68	0x3de54720	0.11195207
69	0xbda7c37e	-0.08191584
70	0x3d0b87a3	0.0340649
71	0x3d2891af	0.04115456
72	0xbd99e454	-0.07514253
73	0x3d831284	0.06400016
74	0x3c0b4d3d	0.008502302
75	0xbdd70720	-0.10499406
76	0xbc204892	-0.009782927
77	0xbdfbdfa9	-0.12298519
78	0x3e294643	0.16530709
79	0x3d3cd0e1	0.04609764
80	0x3d284c15	0.041088182
81	0x3dc6add7	0.09701126
82	0x3daea35b	0.08527251
83	0x3dfc69e3	0.12324884
84	0x3d872b36	0.06600039
85	0xbdc3323f	-0.09531068
86	0x3e09c7ab	0.13455074
87	0x3d9a5c4e	0.07537137
88	0xbd025ef0	-0.03182882
89	0xbd59c5c7	-0.05316713
90	0x3e00bcc6	0.12572011
91	0x3d45f4d5	0.048329193
92	0x3e00bd47	0.12572204
93	0x3c8249a6	0.015904259
94	0x3e07e04c	0.13269156
95	0xbdbb7040	-0.09152269
96	0x3c498f8b	0.01230229
97	0x3bd9d64a	0.0066478597
98	0x3c378ec7	0.011203474
99	0x3dda3320	0.106542826
100	0x3d079d85	0.033109207
101	0x3d3e5f09	0.04647735
102	0x3d7203de	0.05908572
103	0xbcb37eb6	-0.021911006
104	0xbcd73a25	-0.026272843
105	0xbe3ac7b5	-0.18240245
106	0x3c9c76c1	0.019099595
107	0xbdcc7542	-0.09983303
108	0x3daf26c1	0.085523136
109	0x3deca0bf	0.115540974
110	0xbe19edda	-0.1503214
111	0xbd4711a3	-0.048600804
112	0x3ded5ecb	0.11590346
113	0xbd7ce994	-0.061746195
114	0x3dc0d14f	0.094149224
115	0x3df65f1b	0.12029859
116	0xbd4f5155	-0.050614674
117	0xbdcc7939	-0.09984059
118	0x3d55c56d	0.052190233
119	0x3d468e19	0.04847536
120	0x3de35f2c	0.11102137
121	0x3cdb203c	0.026748769
122	0x3d94f907	0.07274061
123	0xbdce0284	-0.100590736
124	0xbb1c685a	-0.002386591
125	0xbbba5c09	-0.005687241
126	0x3d8fa45b	0.0701377
127	0xbd9c0be3	-0.07619455
128	0xbd9dbbf3	-0.07701864
129	0xbd3d453a	-0.046208598
130	0xbd881a3a	-0.06645627
131	0x3d2602e2	0.040530093
132	0x3d00f7f0	0.03148645
133	0x3d87c2b2	0.06628932
134	0xbd340b5b	-0.043956142
135	0x3d773748	0.060355455
136	0x3d73d150	0.059525788
137	0x3d917837	0.07103007
138	0xbe1e2cdc	-0.154468
139	0x3d8b8f98	0.06814498
140	0x3dec644d	0.11542568
141	0x3dd27c4c	0.10277614
142	0xbe0daeac	-0.13836163
143	0x3da97956	0.08275096
144	0xbe066478	-0.13124263
145	0x3c6bd026	0.014392888
146	0x3decbcb2	0.11559428
147	0x3cc54d43	0.024084693
148	0x3d8fa90c	0.07014665
149	0xbe0b0295	-0.13575204
150	0xbd43e3ad	-0.04782455
151	0x3c88a020	0.016677916
152	0xbe017a92	-0.12644413
153	0xbd8b9ac2	-0.06816627
154	0x3dc527df	0.096267454
155	0xbd7e20e7	-0.062043097
156	0x3dbc932e	0.0920776
157	0xbe077d24	-0.13231331
158	0x3cd03074	0.02541373
159	0x3de58eff	0.11208915
160	0x3da0a805	0.07844547
161	0xbd5fb5f4	-0.054616883
162	0xbde282a0	-0.11060071
163	0xbdbd5385	-0.09244446
164	0x3dd855c4	0.105632335
165	0x3d854635	0.065075316
166	0x3e13f3c3	0.14448456
167	0xbdc53b7b	-0.096304856
168	0xbdd4cfc9	-0.103911944
169	0x3ccfe2d9	0.025376724
170	0x3d9534dc	0.07285473
171	0xbddd65a5	-0.10810403
172	0x3dfe0c6f	0.12404715
173	0xbdb0dd15	-0.08635918
174	0xbd8ee938	-0.06978077
175	0x3c8feddc	0.017569475
176	0xbdd48ddc	-0.1037862
177	0xbd45e407	-0.048313167
178	0xbdf2a2c3	-0.118474506
179	0xbd4e8ec6	-0.050429128
180	0x3beef721	0.0072926437
181	0x3dc9c444	0.09851888
182	0xbd9f7ded	-0.0778769
183	0xbd65656c	-0.056004927
184	0x3de50a39	0.111835904
185	0xbd04f7df	-0.03246295
186	0xbd620e70	-0.05518955
187	0xbd919fa0	-0.07110524
188	0xbe0f687d	-0.14004703
189	0xbdf00aa4	-0.117207795
190	0x3dad4ce8	0.08461934
191	0xbb3b18a8	-0.0028548632
192	0xbcfdf56b	-0.031000813
193	0x3d93d75a	0.072188094
194	0x3da902a3	0.08252456
195	0x3da72d8c	0.08162984
196	0x3dd431a4	0.10361031
197	0x3d7938c0	0.060845137
198	0x3d84da74	0.06486979
199	0x3de64910	0.11244404
200	0x3d17b675	0.03703924
201	0x3c88e3d5	0.016710201
202	0xbdf9b191	-0.12192071
203	0xbd6f4283	-0.05841304
204	0x3e1c6a73	0.15274982
205	0xbd8c4b18	-0.068502605
206	0xbe039167	-0.12848435
207	0xbe05b659	-0.13057841
208	0xbe0610fd	-0.13092418
209	0xbc3971da	-0.011318648
210	0x3d889b99	0.06670303
211	0xbdb41edd	-0.08794949
212	0x3cf95bf1	0.030439349
213	0xbdd7dfa7	-0.10540705
214	0x3ce3292d	0.027729595
215	0x3e117339	0.1420411
216	0xbd4a3860	-0.04937017
217	0xbdae5493	-0.08512225
218	0x3db60451	0.08887542
219	0xbdf86fa9	-0.121306725
220	0xbd19cb69	-0.037547503
221	0xbdee182b	-0.116257034
222	0x3d9e5eca	0.07732923
223	0x3d3e01ba	0.046388365
224	0xbdb6c96c	-0.08925137
225	0x3da0df1b	0.07855054
226	0x3df941a8	0.12170726
227	0x3c239d32	0.009986209
228	0xbd9bc935	-0.076067366
229	0x3cc5f5ba	0.024165023
230	0x3de7ea2e	0.11323963
231	0x3dae7d6f	0.08520018
232	0xbd80c676	-0.062878534
233	0x3d12b25f	0.03581464
234	0xbd59bdd5	-0.053159554
235	0xbadadd28	-0.001669799
236	0x3df1ca40	0.11806154
237	0xbc04ac42	-0.00809771
238	0xbdb42790	-0.087966084
239	0x3d02ef4d	0.031966496
240	0x3d0cba32	0.034357257
241	0x3dc0e0be	0.09417866
242	0xbe02382a	-0.12716737
243	0xbd9f02db	-0.077642165
244	0xbd809b97	-0.062796764
245	0xbba12d30	-0.004918717
246	0xbd0f27b0	-0.03494996
247	0xbd88b5f2	-0.06675328
248	0x3d27a3c2	0.040927656
249	0x3da89b86	0.08232789
250	0xbce99f9b	-0.028518489
251	0x3d6ad1a4	0.057328835
252	0xbcd840bd	-0.026398057
253	0x3b2ebba5	0.0026662138
254	0x3b67d785	0.0035376262
255	0xbd867185	-0.06564621

action_net.bias f4 [7]
0	0x3b9eed94	0.004850099
1	0xbd5f585f	-0.054527637
2	0xbd21c90e	-0.03949838
3	0x3aa4f8f4	0.0012586401
4	0x3db897ee	0.09013353
5	0xbd0d09c4	-0.03443314
6	0xbd08a15e	-0.033357017
