backend/bc_policy.pt (torch, 48351 bytes, 14 tensors)

net.0.weight f4 [128, 10]
000000 92 2b a1 3e 1b 75 8a 3e 0b 58 8f bc 8a d4 9f 3e
       0.31478554 0.2704247 -0.017498037 0.31216842
000010 34 d1 13 bc 51 40 83 3d fe 7c b2 bd c0 89 13 3e
       -0.009022046 0.06408752 -0.087152466 0.14408016
000020 37 0e 71 3e 2e bd be be 3f 83 ad 3e 76 21 87 3d
       0.23540579 -0.37253708 0.33889195 0.06598179
000030 bc c4 50 3e 5b 62 1d 3d cf 34 18 3e d2 34 d2 bd
       0.20387548 0.038423877 0.14863895 -0.10263981
000040 2b 29 4e 3e be 42 20 3d aa f7 75 be 8f 84 de 3d
       0.20132892 0.03912615 -0.24020258 0.10865127
000050 c8 31 15 be 60 e6 17 bd 65 85 03 be 9a cf 56 3e
       -0.14569771 -0.037084937 -0.12843855 0.20977631
000060 96 9c 7f be 79 48 15 be 28 e0 b6 bd cf b3 42 be
       -0.24962077 -0.14578427 -0.08929473 -0.19013904
000070 c0 80 f4 3c ec e9 9f be aa cd 22 3e f0 0e a9 be
       0.029846549 -0.31233156 0.15898767 -0.3301921
000080 27 b2 78 3e d1 2c ab 3d b2 83 be bd 93 02 77 3e
       0.2428671 0.083581574 -0.09302463 0.24122076
000090 b8 2c 8b 3d 2c a1 5a 3e 53 ad 62 3c 9c 8a d7 bd
       0.06795639 0.21350545 0.013835269 -0.105244845
0000a0 e7 52 c9 3d 27 00 1a be 4c b6 92 3e 3b 30 17 3e
       0.098302655 -0.1503912 0.28654706 0.14764492
0000b0 da f3 20 3e 03 35 f0 bd 55 19 70 3e 60 26 c3 3c
       0.15718022 -0.11728861 0.23447163 0.02382201
0000c0 e6 4b 60 3e ba b9 b3 be e2 69 a2 be 12 44 10 be
       0.21903953 -0.35102636 -0.31721407 -0.14088467
0000d0 b5 9e 57 be 28 7e 51 3e 6f 1b 9f 3c 0a 5d 82 3e
       -0.21056636 0.20458281 0.019422261 0.25461608
0000e0 f1 fe 21 3e ca 0a 18 bd 00 a3 17 3e a0 96 c1 be
       0.15819909 -0.037119664 0.14808273 -0.3781023
0000f0 20 1c a3 3c ae 04 5d be 0c b3 c7 3d aa 08 df bd
       0.019910872 -0.21583816 0.09750947 -0.108903244
000100 1c 72 c6 3d dc ed 86 bd 23 49 86 3e 56 ed 3f be
       0.096897334 -0.06588337 0.26227674 -0.1874288
000110 bb 1f 41 be b7 22 41 be 34 b6 91 3e 94 d6 0c 3e
       -0.1885976 -0.18860899 0.28459322 0.1375373
000120 6e 55 81 3e cd 58 78 be bc 5d b3 be 7c b1 80 be
       0.2526049 -0.24252625 -0.3503245 -0.2513541
000130 27 b0 89 be 72 e4 b4 3d dd a1 c6 3d 8a 45 de 3e
       -0.26892206 0.08832635 0.09698842 0.4341243
000140 39 3a 27 be 02 c0 5c be 72 cf 2b 3e 6d e3 02 be
       -0.16330804 -0.2155762 0.16778353 -0.12782069
000150 4a 88 44 3e 20 af 99 bd 02 3d 39 3e 7b 98 7b be
       0.19192615 -0.075041056 0.18089679 -0.24569885
000160 0f 6a 23 be d0 72 c5 3d 38 81 72 3d 77 ef 08 be
       -0.15958427 0.09641039 0.059205264 -0.13372599
000170 1e dc 64 3e c9 a4 45 3e f1 e3 5a be 93 85 69 bd
       0.22349593 0.19301142 -0.21376015 -0.057012152
000180 e3 eb b0 3e ea c2 01 be a6 e2 e8 bd 93 8f 3d be
       0.34554967 -0.1267201 -0.11371355 -0.185118
000190 c4 70 39 be 0c c8 a1 3d 78 f7 2a bd ec 0d 6b be
       -0.18109423 0.07899484 -0.04173991 -0.2295453
0001a0 c0 0f f3 3b 8e 31 5d be dc 5c 89 be 66 50 32 be
       0.007417649 -0.21600935 -0.2682866 -0.17413482
0001b0 52 b4 8d be cf 2f 4e be 65 d8 a1 3e d8 a4 74 3d
       -0.27676636 -0.20135425 0.31610408 0.05972752
0001c0 28 93 c7 3d 77 02 97 be b8 ac 54 be a4 91 d7 bd
       0.09744865 -0.29494068 -0.20769012 -0.105258256
0001d0 e8 8a 4a 3d 83 77 8e be 2c 86 0b be f5 db 41 be
       0.049448878 -0.27825555 -0.13625401 -0.18931563
0001e0 00 ba 65 3a a4 fc f0 bd 60 83 b3 bc 9d 6d 5b be
       0.0008763373 -0.117669374 -0.02191323 -0.21428533
0001f0 3e 44 5e be 62 ea 3c be 02 af dd bd 2f 95 7f be
       -0.2170572 -0.18448785 -0.10824396 -0.24959253
000200 69 c1 87 3e 3c 88 80 bd 3f 4e 8b 3e 94 ca c9 3d
       0.26514748 -0.06275985 0.27208135 0.09853092
000210 8e 1a 89 be ca 17 60 3e 7a 31 b2 bd 52 41 f8 bd
       -0.26778072 0.21884075 -0.08700843 -0.12121834
000220 44 65 86 be 93 f6 a0 be 8c 4b b9 3d c6 78 8d bd
       -0.26249135 -0.3143812 0.090476125 -0.06907801
000230 b4 65 aa 3d c1 88 83 be f8 7f 90 3e b9 49 36 be
       0.083201796 -0.25690272 0.28222632 -0.1780156
000240 cb f0 39 bd 8a b3 61 3d a8 b4 4f 3e d0 65 7f 3e
       -0.045395654 0.055102862 0.20283759 0.24941182
000250 77 87 f5 3e f8 ab 8a be 6d 1c cd 3d ac 44 27 be
       0.47954914 -0.27084327 0.100151874 -0.1633479
000260 a4 39 0d 3c 95 8c 69 be f8 bb 8b 3e 97 11 6b be
       0.0086197 -0.22807534 0.27291846 -0.22955929
000270 98 06 57 3e 13 bc ae 3d 8a 6c a1 3e 22 27 af bd
       0.20998609 0.08531966 0.3152812 -0.08552386
000280 da 17 72 3e 80 3d 60 3d f3 13 69 3d 0b 0a 8f be
       0.23641911 0.05474615 0.05690379 -0.2793735
000290 e1 39 e0 3c bf 09 48 bd 55 f7 3c be be 24 8e 3e
       0.027371349 -0.04883742 -0.18453725 0.27762407
0002a0 6c 3d 0f 3e 4b 35 38 be 36 c2 2b be b4 6f b1 3c
       0.13988274 -0.1798908 -0.16773304 0.02165971
0002b0 36 97 69 3e da 00 91 bd fc db 08 be 04 3b a3 bd
       0.22811589 -0.070802405 -0.13365167 -0.07970241
0002c0 e5 9a 4a be 7a 98 6e 3d 47 06 e4 3e 3c b0 a7 be
       -0.1978565 0.05825088 0.4453604 -0.32751644
0002d0 e0 69 96 3d 04 48 27 3e c8 de 6a 3d 7a a3 e6 bd
       0.07344413 0.16336066 0.057341367 -0.112616494
0002e0 8c 03 29 3e 94 2b 2a 3e 0c 2b f2 3d 40 9b 63 bd
       0.1650526 0.16618186 0.11824617 -0.05556798
0002f0 92 7e ab bd b0 91 0a 3d 50 35 51 bd be d5 9a bd
       -0.08373751 0.033830345 -0.051076233 -0.07560299
000300 00 dc 88 3e ba 3e 0c 3e a3 bc c1 3b 63 1e 54 bc
       0.26730347 0.13695803 0.00591238 -0.012946698
000310 7d 50 98 bb f7 a2 24 3b cf e6 5f 3e 6b 32 a7 3e
       -0.004648267 0.0025121549 0.2186539 0.32655653
000320 fa 0d 93 be 66 00 ef bd 17 59 88 3e 0c 4a fc 3d
       -0.287216 -0.11669998 0.2663047 0.12318811
000330 e0 d8 80 bc 35 3b 43 be f0 1c 46 be 4a 08 91 be
       -0.015728414 -0.19065554 -0.19346976 -0.28326637
000340 c0 1a d3 bd 78 b5 da 3d 0e 79 4e 3e 6c 81 15 3e
       -0.103078365 0.10679144 0.20163366 0.14600152
000350 3f 1e 8f be 45 bb 42 be 40 6a 4c bd 49 9f 9c 3e
       -0.27952763 -0.1901675 -0.049906015 0.30590275
000360 d0 5e 3b 3d e8 b7 a7 bd d6 f7 05 3e 0a ac f6 bd
       0.045744717 -0.08189374 0.13082823 -0.120445326
000370 76 5c a7 be ec 47 8a 3e fa 70 d8 bd 7f c9 a9 3c
       -0.3268773 0.27007997 -0.105684236 0.020725964
000380 78 58 9f be ff d5 52 3e 9d 69 62 3e c8 90 60 3d
       -0.31122184 0.20589446 0.22110601 0.054825574
000390 2d 02 8b be 9f 85 d6 be b0 7f 83 be 7a 78 71 3e
       -0.27150097 -0.4189882 -0.25683355 0.23581114
0003a0 6e 77 1b 3e 2f 3f 88 3e 5a a3 29 3e 44 e9 a3 3d
       0.15182278 0.26610705 0.1656622 0.08003476
0003b0 80 f2 4a bb d4 43 76 be 03 b8 8a be e5 70 97 be
       -0.0030967295 -0.24049312 -0.27093515 -0.2957832
0003c0 b4 37 c0 3c 79 d0 25 be 97 54 0f be 69 94 20 be
       0.023464061 -0.16192807 -0.13997112 -0.15681614
0003d0 99 8f 9d bd 99 61 66 be 6c dd 85 be 36 e2 3f 3c
       -0.07693405 -0.22498168 -0.26145494 0.011711648
0003e0 59 4b de 3d 73 5d f2 3e 4e c4 cf bd ae 8a 6d be
       0.10854215 0.4733692 -0.10144864 -0.23197433
0003f0 30 89 64 bd 35 f8 1c be 68 23 c6 bd e4 22 9a be
       -0.055794895 -0.15329058 -0.09674722 -0.30104744

net.0.bias f4 [128]
000000 fe f9 6a be 9f 04 c1 bd f0 4f f7 bc 91 87 34 be
       -0.22946927 -0.094247095 -0.030189484 -0.1762984
000010 6c 4c 3e bd b2 44 45 3e ce c1 5b 3e 61 bd 99 be
       -0.0464596 0.19264486 0.2146065 -0.30027297
000020 c4 15 ce 3d 60 9b 0f 3e dd ce 99 3e 7c 58 3b 3e
       0.10062745 0.14024115 0.30040637 0.18295473
000030 39 d9 94 3e 64 07 d4 bd b5 43 65 3e 34 27 b3 3e
       0.29071978 -0.10352972 0.2238911 0.34990847
000040 14 7f 99 be 87 a7 ec bc b0 15 83 3d 89 94 3b 3e
       -0.29979765 -0.028888477 0.06400621 0.1831838
000050 6b e0 20 be 60 a7 0e 3d 2b 12 ed 3c d8 eb a3 3d
       -0.15710609 0.03482759 0.028939327 0.08003968
000060 4b 8b 86 be 42 a5 36 3e 7d 01 28 3e e4 52 5a be
       -0.26278147 0.17836478 0.16406818 -0.21320683
000070 11 41 a1 3b 00 02 66 3a 3f 3d 09 3e 68 5d 94 3e
       0.0049210866 0.0008774102 0.1340227 0.28977513
000080 70 ed bd 3d 39 ac c0 bd 5b 6a 91 3e 12 06 46 be
       0.09273803 -0.09407849 0.28401455 -0.19338253
000090 06 0e bc bd 77 5b a8 3c f5 96 76 be 9a 12 0a 3e
       -0.09182362 0.020551426 -0.24081023 0.13483658
0000a0 ba b3 5b be f2 3d 44 3d 70 31 f8 3c 89 96 2c 3e
       -0.21455279 0.04791064 0.030297011 0.168543
0000b0 d1 ec 88 be 10 78 96 be 72 fe 14 3e 27 da 8a 3e
       -0.26743177 -0.29388475 0.14550188 0.27119562
0000c0 59 ac 8f be ab 83 f2 3d 6c 5e 6e be 80 67 a2 3c
       -0.28061178 0.1184152 -0.23278207 0.019824743
0000d0 c2 00 96 3e f3 98 82 3e 16 28 6c be 83 f9 41 3e
       0.29297453 0.25507316 -0.23062167 0.18942837
0000e0 a2 22 29 3e 56 18 d2 bc b1 34 99 3e b7 9c 00 be
       0.16517118 -0.02564637 0.29923013 -0.12559782
0000f0 fe b6 96 bd 6c a9 23 be c7 d1 ff bc 28 7c ab 3d
       -0.07359122 -0.15982598 -0.03122796 0.0837329
000100 10 7c cc 3c 0c 31 36 be 7e 66 b2 bc 28 74 d0 3d
       0.024961501 -0.17792147 -0.021777388 0.10178405
000110 3b f7 8d be b3 77 51 bd fc 91 fa bc f5 32 03 be
       -0.27727684 -0.051139545 -0.030587189 -0.12812407
000120 94 af eb 3d 40 f8 a6 3c 32 57 63 3e 58 5d 36 3e
       0.11508098 0.020382047 0.22201231 0.17809045
000130 9e 5f 4c be 67 7c 62 3e ab 7f 25 3d 38 7b b9 bd
       -0.1995835 0.22117768 0.040404957 -0.09056705
000140 66 0b 55 be 6b 7f 94 3d b6 6b 9a be 90 92 aa 3d
       -0.2080513 0.072508655 -0.30160302 0.08328736
000150 16 1c 20 3e f6 d6 80 be e1 b2 4e be b8 1d 8e be
       0.15635714 -0.25164002 -0.20185424 -0.2775705
000160 e4 d6 5e 3e 51 a4 89 3e e8 80 6d 3d ac ae 97 3e
       0.21761662 0.26883176 0.057984263 0.29625452
000170 3a 46 d2 bd b1 31 9f be 24 37 e2 3d c0 6f e5 3d
       -0.10267301 -0.310926 0.110456735 0.11202955
000180 7b bb 9e 3e 52 21 7f 3a 79 49 5f 3e 2c 2e 55 3e
       0.3100241 0.0009732443 0.21805371 0.20818394
000190 6a 5e 6a 3e 2f 98 6c be 2f 53 85 3e fc 04 8a be
       0.22887579 -0.23104928 0.26040027 -0.26956928
0001a0 2a 99 92 3e 00 b5 56 bc 66 06 90 be 26 c7 1e 3e
       0.2863248 -0.013104677 -0.28129882 0.15505657
0001b0 1c 20 80 bd 22 e6 91 be 38 6c eb bd fa c6 d2 3c
       -0.062561244 -0.2849589 -0.114952505 0.025729645
0001c0 f0 1c 7e 3e cc b5 c6 bd 4a 56 40 3e 87 97 33 3d
       0.24815726 -0.09702644 0.18782917 0.04384568
0001d0 94 7d 6d 3d 94 56 80 3d d8 82 54 be 02 94 86 be
       0.05798109 0.062665135 -0.20753038 -0.26284796
0001e0 57 93 1c be 0d 3a 95 be e9 6c 16 be b0 c8 aa 3c
       -0.1529058 -0.29145852 -0.14689983 0.020847648
0001f0 df 44 55 be 89 7d 05 be 94 10 84 bd e9 30 0a bc
       -0.20827053 -0.13036169 -0.064484745 -0.008434513

net.2.weight f4 [128]
000000 74 ad 68 3f 2f ef 79 3f 00 00 80 3f 78 3b 70 3f
       0.9088967 0.9763059 1.0 0.9384074
000010 43 75 7a 3f 41 3a 84 3f 00 00 80 3f 16 e9 78 3f
       0.9783518 1.0330278 1.0 0.9723066
000020 00 00 80 3f 37 ba 8d 3f 00 00 80 3f 00 00 80 3f
       1.0 1.1072453 1.0 1.0
000030 00 00 80 3f 00 00 80 3f 22 90 78 3f 6b 41 6f 3f
       1.0 1.0 0.9709493 0.93459195
000040 89 89 68 3f bc 1b 6e 3f 00 00 80 3f ff 72 6a 3f
       0.9083486 0.9301107 1.0 0.9158172
000050 00 00 80 3f 00 00 80 3f 9a 3a 82 3f 00 00 80 3f
       1.0 1.0 1.0174134 1.0
000060 4e ef 7a 3f 00 00 80 3f 93 28 90 3f f6 3a 73 3f
       0.980214 1.0 1.1262382 0.9501184
000070 37 9d 67 3f 00 00 80 3f f2 8d 77 3f 9f 3b 6c 3f
       0.90474266 1.0 0.96700966 0.92278475
000080 00 00 80 3f 5d 34 6f 3f 00 00 80 3f ad 27 97 3f
       1.0 0.93439275 1.0 1.1808983
000090 00 00 80 3f 70 ee 76 3f 00 00 80 3f 91 d7 7f 3f
       1.0 0.96457577 1.0 0.99938303
0000a0 00 00 80 3f ef 1e 80 3f 00 00 80 3f 25 71 83 3f
       1.0 1.000944 1.0 1.0268904
0000b0 cf 97 6e 3f fb 6a 6f 3f 00 00 80 3f 00 00 80 3f
       0.9320039 0.93522614 1.0 1.0
0000c0 00 00 80 3f a8 56 6e 3f 00 00 80 3f 00 00 80 3f
       1.0 0.93100977 1.0 1.0
0000d0 77 3a 60 3f 2d 17 79 3f 7c 31 75 3f 36 5d 71 3f
       0.8758921 0.9730099 0.9577863 0.94282854
0000e0 00 00 80 3f e8 cd 7f 3f e5 14 70 3f 00 00 80 3f
       1.0 0.99923563 0.9378188 1.0
0000f0 00 00 80 3f 00 00 80 3f 0c ed 84 3f 00 00 80 3f
       1.0 1.0 1.0384841 1.0
000100 13 13 9e 3f 00 00 80 3f cd 2f 7d 3f 1a 85 7e 3f
       1.2349571 1.0 0.98901063 0.99421847
000110 00 00 80 3f d1 17 67 3f 59 56 6e 3f 00 00 80 3f
       1.0 0.90270716 0.93100506 1.0
000120 00 00 80 3f 00 00 80 3f 00 00 80 3f 13 4a 81 3f
       1.0 1.0 1.0 1.0100731
000130 00 00 80 3f ba 1c 7e 3f 3f ff 82 3f 00 00 80 3f
       1.0 0.99262583 1.0234145 1.0
000140 37 91 67 3f c1 79 6e 3f 00 00 80 3f 00 00 80 3f
       0.90455955 0.9315453 1.0 1.0
000150 00 00 80 3f a6 f1 89 3f 32 de 6c 3f 31 84 9e 3f
       1.0 1.077687 0.92526543 1.2384092
000160 70 37 8f 3f 00 00 80 3f 5e 99 84 3f fa c2 6a 3f
       1.1188793 1.0 1.0359304 0.9170376
000170 8b 68 70 3f 32 3f 6a 3f 00 00 80 3f 00 00 80 3f
       0.9390952 0.9150268 1.0 1.0
000180 00 00 80 3f 1a de 6a 3f 13 ef 7a 3f 9a a3 8d 3f
       1.0 0.9174515 0.9802105 1.1065552
000190 00 00 80 3f 4d 6e 8f 3f 00 00 80 3f 00 00 80 3f
       1.0 1.1205536 1.0 1.0
0001a0 dd 24 68 3f 00 00 80 3f 52 3f 67 3f e7 e3 96 3f
       0.9068125 1.0 0.90330994 1.17883
0001b0 c2 3f 69 3f 64 96 6a 3f 72 03 74 3f e6 0a 6d 3f
       0.9111291 0.9163573 0.9531776 0.92594755
0001c0 1d 63 6f 3f 62 57 60 3f 00 00 80 3f e3 8d 75 3f
       0.9351061 0.87633336 1.0 0.95919627
0001d0 b2 eb 72 3f 98 35 86 3f 00 00 80 3f 00 00 80 3f
       0.9489089 1.0485106 1.0 1.0
0001e0 c7 12 7b 3f 9b 32 7b 3f 23 02 72 3f 63 f0 81 3f
       0.98075527 0.9812409 0.9453451 1.0151485
0001f0 00 00 80 3f c9 3a 63 3f e1 76 6f 3f c0 ba 83 3f
       1.0 0.88761574 0.9354077 1.0291367

net.2.bias f4 [128]
000000 ad 09 a1 3d d1 eb 9e 3d 6c be 1b 3a 97 f7 47 bd
       0.07863174 0.07759822 0.0005941156 -0.048820104
000010 61 5e 80 3d 1a a4 40 3b ee aa 9f 3d 90 a6 4b bd
       0.06268001 0.0029394687 0.07796274 -0.049719393
000020 16 c7 03 3e e4 14 88 bd 9c 47 79 bd 85 51 e9 bd
       0.12868914 -0.066446096 -0.060859308 -0.11392502
000030 32 1a f6 bd 6f 2a a9 bd c4 b7 d0 bd d6 33 c5 bc
       -0.12016715 -0.08260047 -0.101913005 -0.024072569
000040 0d 68 6c bc 50 70 f9 3c fc b7 11 3d 51 cc c9 3c
       -0.0144291045 0.030449063 0.03557585 0.024633558
000050 3c fe 12 3b 6f a7 3e bd 8c 03 99 3d a4 48 fc bd
       0.0022429368 -0.046546396 0.0747138 -0.123185426
000060 ac 88 c8 bd 51 bb 0d 3e ab 9b 58 ba 84 8b 5c 3d
       -0.09791693 0.13840987 -0.00082629424 0.05384399
000070 30 d7 8b 3d 90 fa bc bd 2c 4c 76 3c cd e5 ae bc
       0.06828153 -0.092274785 0.015032809 -0.021349812
000080 85 39 c3 bd 50 7c 91 bd 3c 14 f0 3d a0 09 42 bd
       -0.09532455 -0.07103789 0.117226094 -0.04737246
000090 ef 8b d4 3d f9 69 54 3d 7f cf 0e be c3 65 2b 3a
       0.10378253 0.051858876 -0.13946341 0.0006538296
0000a0 3c e1 c1 bd 39 15 ed bc 5b cf a2 3d 34 eb 2b 3d
       -0.09466788 -0.028940784 0.07949706 0.041972354
0000b0 de 93 5a 3d cc fc 62 3d 7f f5 f8 bd 83 dd 14 be
       0.053363673 0.055416867 -0.121562 -0.14537625
0000c0 6b 17 b4 3d 9a 3e a3 3d c6 2c c3 bc ad d7 a9 bd
       0.08793529 0.07970925 -0.02382506 -0.0829309
0000d0 55 dd e5 ba 5d 42 57 bc 72 00 82 3c 2c d4 a7 bd
       -0.0017537276 -0.013138381 0.015869353 -0.081947654
0000e0 91 15 6c 3d 85 ae 07 3d 55 75 b6 3d 0e cf e2 3d
       0.057637755 0.03312542 0.08909098 0.11074649
0000f0 3c a9 ab 3d 89 26 17 3d dd d8 7c 3d d7 6d e6 bd
       0.08381888 0.036901984 0.061730254 -0.11251419
000100 03 b0 3b bd 3c 5d 33 bd ce 2e 13 3b 97 eb ef 3d
       -0.045822155 -0.043790087 0.0022458318 0.11714857
000110 97 97 0a 3c a0 e1 8f bb 6d 6b 80 bd b4 8f e4 3d
       0.008458993 -0.0043909103 -0.0627049 0.11160222
000120 0a ef 0f 3e f6 84 b5 bd 01 20 6a bc 80 d1 bf 3a
       0.1405603 -0.08863251 -0.014289857 0.001463458
000130 cf 20 cc bd a3 96 c9 3d 21 fb b6 3c 7e 1b 32 3d
       -0.09967195 0.09843185 0.022336544 0.04348325
000140 f3 73 91 3d 20 a6 ac bd a7 d4 94 bd 17 f3 c6 bd
       0.07102194 -0.08430123 -0.07267123 -0.097143345
000150 35 20 53 3d d2 33 87 bc 68 ad 6f bc 96 20 0f be
       0.051544387 -0.016504202 -0.014628746 -0.13977274
000160 1d 9a 07 3d d7 03 01 3e 88 1c 3d 3d 7f e9 b1 3c
       0.03310596 0.12599121 0.046169788 0.021717785
000170 0b 72 24 bd 83 78 87 bd bd cd cb bc c4 9b 98 3d
       -0.040147822 -0.06614783 -0.024878377 0.07451585
000180 32 93 fb bd b1 c2 d7 3d 66 f1 2b 3d 2b 11 b9 bc
       -0.12283935 0.10535181 0.041978262 -0.022591194
000190 8b d8 38 bd 9a 3f ae bc 06 64 fc bd 55 e9 1a be
       -0.045128386 -0.021270562 -0.123237655 -0.15128072
0001a0 21 26 c5 3d 25 9a f4 bd 23 3d b4 3c 06 bc 2d bc
       0.09626413 -0.11943463 0.022001809 -0.01060391
0001b0 c4 cc 1e 3d 18 f8 70 3d 3e b3 84 3d 3a 73 12 bd
       0.0387695 0.05883035 0.064795 -0.03575442
0001c0 e3 4e c0 3c bd 3c df 3c e3 ec 02 3e a4 e1 8f bc
       0.023475116 0.027250642 0.12785678 -0.017563649
0001d0 65 e0 54 3c e2 fe e1 ba db 6c 8b bd 0f 06 d4 3c
       0.012992953 -0.0017242099 -0.06807872 0.025881795
0001e0 15 e9 30 3d 9c 63 ec 3c bb 15 c6 ba 12 ed d9 bc
       0.043191034 0.028856091 -0.0015112677 -0.026602302
0001f0 2c 39 36 3e 78 19 57 ba da 40 d0 3c bb cc 1a bd
       0.17795247 -0.0008205394 0.025421549 -0.037792902

net.2.running_mean f4 [128]
000000 37 6a 93 40 0a 0a c6 3f 00 00 00 00 02 0f b7 40
       4.6067157 1.5471814 0.0 5.720582
000010 94 e8 a7 3f 10 47 30 3e 00 00 00 00 b8 dd cb 3f
       1.3117852 0.17214608 0.0 1.5927038
000020 00 00 00 00 04 91 ba 26 00 00 00 00 00 00 00 00
       0.0 1.2945649e-15 0.0 0.0
000030 00 00 00 00 00 00 00 00 ad e7 d4 40 48 92 0f 40
       0.0 0.0 6.6532807 2.2433033
000040 12 8b c0 40 e6 3b 92 3f 00 00 00 00 27 b4 86 3f
       6.0169764 1.142453 0.0 1.0523728
000050 00 00 00 00 00 00 00 00 02 19 aa 3f 00 00 00 00
       0.0 0.0 1.3288882 0.0
000060 49 cc e8 3d 00 00 00 00 6c a1 c4 3c 63 b4 bf 3f
       0.11367089 0.0 0.024002753 1.4976925
000070 6a fd de 40 00 00 00 00 80 a9 97 3f 91 3c e2 40
       6.9684343 0.0 1.1848602 7.0698934
000080 00 00 00 00 e1 57 20 40 00 00 00 00 fc 61 8f 3e
       0.0 2.5053637 0.0 0.28004444
000090 00 00 00 00 5f e1 3c 40 00 00 00 00 65 64 43 3f
       0.0 2.9512556 0.0 0.76325065
0000a0 00 00 00 00 2e 43 d0 3f 00 00 00 00 f1 5c d5 3e
       0.0 1.6270502 0.0 0.4167247
0000b0 68 40 d2 40 39 99 5b 40 00 00 00 00 00 00 00 00
       6.570362 3.431227 0.0 0.0
0000c0 00 00 00 00 2a 44 64 40 00 00 00 00 00 00 00 00
       0.0 3.5666604 0.0 0.0
0000d0 85 3e 22 40 31 8e aa 3f 5a 83 8c 40 20 79 f7 3f
       2.535066 1.3324643 4.391034 1.933384
0000e0 00 00 00 00 f7 97 23 40 ab 11 7b 3e 00 00 00 00
       0.0 2.5561502 0.24518459 0.0
0000f0 00 00 00 00 00 00 00 00 81 95 05 3f 00 00 00 00
       0.0 0.0 0.5218125 0.0
000100 7e 35 4f 3d 00 00 00 00 db f0 12 3f 04 00 00 00
       0.050588124 0.0 0.57398766 6e-45
000110 00 00 00 00 f2 87 16 41 fc 9d d7 3f 00 00 00 00
       0.0 9.40819 1.6845088 0.0
000120 00 00 00 00 00 00 00 00 00 00 00 00 3b 9f 54 3f
       0.0 0.0 0.0 0.83055466
000130 00 00 00 00 80 11 08 3e 59 18 80 3f 00 00 00 00
       0.0 0.13287926 1.000743 0.0
000140 30 b5 5c 40 92 07 a2 40 00 00 00 00 00 00 00 00
       3.4485588 5.063424 0.0 0.0
000150 00 00 00 00 08 8f 4a 3f b5 7f 45 40 3c c7 9b 3d
       0.0 0.791245 3.0859196 0.0760636
000160 5c ca bd 3d 00 00 00 00 6f d6 1e 3f f8 04 2e 40
       0.092671126 0.0 0.6204595 2.7190533
000170 8e a6 25 40 95 2c 0d 40 00 00 00 00 00 00 00 00
       2.5882907 2.205846 0.0 0.0
000180 00 00 00 00 3c ff 7d 40 be 54 9c 3e 60 e5 43 3d
       0.0 3.9687033 0.30533403 0.04782617
000190 00 00 00 00 1a d3 b5 3e 00 00 00 00 00 00 00 00
       0.0 0.3551262 0.0 0.0
0001a0 2e 7d 40 40 00 00 00 00 1b 26 c3 40 5d 73 e1 3e
       3.0076404 0.0 6.0984015 0.44033328
0001b0 65 81 83 40 e5 d7 d4 40 a8 73 11 40 3c 97 ed 40
       4.109545 6.6513543 2.272684 7.424711
0001c0 35 35 03 41 96 21 cd 40 00 00 00 00 a6 ee 49 40
       8.20049 6.41035 0.0 3.155191
0001d0 4f ad 25 3f e1 99 0e 40 00 00 00 00 00 00 00 00
       0.6471757 2.228142 0.0 0.0
0001e0 82 8c 7b 3e df 73 b9 3f 22 12 00 41 7d 17 4b 3f
       0.24565318 1.4488486 8.004427 0.79332715
0001f0 00 00 00 00 8a 8a ac 40 77 84 8f 40 94 33 da 3f
       0.0 5.3919115 4.48492 1.704699

net.2.running_var f4 [128]
000000 a2 55 e3 3f c1 c6 63 3d 04 00 00 00 79 d6 4c 3f
       1.7760508 0.05560947 6e-45 0.8001476
000010 28 22 81 3e df f1 be 3d 04 00 00 00 c5 83 c2 3f
       0.25221372 0.09323477 6e-45 1.5196463
000020 04 00 00 00 a4 bd 7e 23 04 00 00 00 04 00 00 00
       6e-45 1.38095256e-17 6e-45 6e-45
000030 04 00 00 00 04 00 00 00 98 79 05 40 42 0d 1d 3f
       6e-45 6e-45 2.0855465 0.61348355
000040 7f dd 42 40 03 a2 88 3e 04 00 00 00 6d 56 0f 3e
       3.044769 0.26686105 6e-45 0.13997813
000050 04 00 00 00 04 00 00 00 c4 aa 9a 3d 04 00 00 00
       6e-45 6e-45 0.07552102 6e-45
000060 3a ee 35 3d 04 00 00 00 e9 4f c5 3b f1 4d 26 3e
       0.044416644 6e-45 0.006021489 0.1624067
000070 5b e1 37 40 04 00 00 00 a1 e1 1b 3f 05 24 97 3f
       2.8731296 6e-45 0.6089116 1.1807867
000080 04 00 00 00 f7 52 79 3f 04 00 00 00 fc a7 5b 3d
       6e-45 0.9739222 6e-45 0.053627
000090 04 00 00 00 60 81 27 3f 04 00 00 00 7a fb d2 3c
       6e-45 0.65431786 6e-45 0.025754679
0000a0 04 00 00 00 e2 b5 f6 3d 04 00 00 00 e0 16 91 3c
       6e-45 0.1204641 6e-45 0.017711103
0000b0 b9 d4 29 40 ca 95 eb 3e 04 00 00 00 04 00 00 00
       2.6536086 0.46012717 6e-45 6e-45
0000c0 04 00 00 00 79 af 91 3e 04 00 00 00 04 00 00 00
       6e-45 0.28454188 6e-45 6e-45
0000d0 46 32 46 3f 99 68 0c 3f 42 d9 db 3e d2 e6 6c 3e
       0.7742046 0.54847103 0.42939192 0.23134926
0000e0 04 00 00 00 e9 c3 b8 3e 16 78 32 3e 04 00 00 00
       6e-45 0.36086968 0.17428622 6e-45
0000f0 04 00 00 00 04 00 00 00 e5 52 e3 3d 04 00 00 00
       6e-45 6e-45 0.11099795 6e-45
000100 1f 91 a9 3c 04 00 00 00 fb 40 35 3d 04 00 00 00
       0.020699082 6e-45 0.044251423 6e-45
000110 04 00 00 00 5b 77 19 40 d7 de 40 3f 04 00 00 00
       6e-45 2.3979099 0.75340027 6e-45
000120 04 00 00 00 04 00 00 00 04 00 00 00 d8 72 21 3d
       6e-45 6e-45 6e-45 0.039416164
000130 04 00 00 00 2a 72 86 3d ee 87 a0 3d 04 00 00 00
       6e-45 0.06564744 0.078384265 6e-45
000140 77 f0 83 3f 56 a4 62 3f 04 00 00 00 04 00 00 00
       1.0307759 0.88532007 6e-45 6e-45
000150 04 00 00 00 25 9a 85 3d c0 16 2b 3f 5b e2 1e 3c
       6e-45 0.06523541 0.6683159 0.009697522
000160 30 f0 5b 3d 04 00 00 00 f2 4b 99 3c 35 52 6a 3f
       0.053695858 6e-45 0.018712971 0.9153169
000170 6d e6 d8 3e 0a 11 78 3f 04 00 00 00 04 00 00 00
       0.423633 0.96901 6e-45 6e-45
000180 04 00 00 00 5c b2 4c 3f ce 2a 13 3e ec 39 12 3c
       6e-45 0.79959655 0.14371797 0.008924942
000190 04 00 00 00 b5 65 cd 3c 04 00 00 00 04 00 00 00
       6e-45 0.025072912 6e-45 6e-45
0001a0 e2 0d e9 3e 04 00 00 00 45 0e 03 40 45 18 e7 3c
       0.45518404 6e-45 2.047746 0.028209815
0001b0 aa 1d e3 3f d1 11 f9 3f 9c 7b 1f 3f 0c d3 d9 3f
       1.7743428 1.9458562 0.6229799 1.7017531
0001c0 82 2d 2a 40 49 7c 0e 40 04 00 00 00 1e ec 35 3e
       2.6590276 2.2263358 6e-45 0.17765853
0001d0 38 37 d8 3d 54 35 99 3d 04 00 00 00 04 00 00 00
       0.10557407 0.07480875 6e-45 6e-45
0001e0 74 ed 44 3e 3a e0 04 3e cf 01 1c 40 6d c1 14 3d
       0.19231206 0.1297616 2.4376104 0.036317278
0001f0 04 00 00 00 f4 21 5a 3f 97 98 94 3f b5 25 82 3d
       6e-45 0.8520806 1.1609067 0.06354848

net.4.weight f4 [64, 128]
000000 a5 70 ff bc f8 7b 35 3d e5 9b f8 3a e7 5e 50 3d
       -0.031181643 0.04430768 0.0018967359 0.050871756
000010 bd 69 88 3c 5b cd 9b bd 5c 06 ac bd 6e 11 3e bd
       0.016651982 -0.07607528 -0.083996505 -0.04640334
000020 44 96 c5 bc 48 5f e1 bd d3 4e 0c bd 61 a2 95 3d
       -0.024119504 -0.110045016 -0.03425486 0.07306362
000030 9e 05 a4 3d d2 8a 43 3d fd b6 b1 3c c7 4e 91 bd
       0.08008884 0.04773981 0.0216937 -0.07095104
000040 08 b4 84 3c 02 05 81 bd fc bf 6f 3d 59 dc ab bc
       0.016199127 -0.06299783 0.0585327 -0.020979093
000050 d5 a3 b9 bc f1 0b 8e bd ad c7 f9 3d 00 d8 81 3d
       -0.022661129 -0.069358714 0.12196288 0.06340027
000060 4a b0 85 bc 96 62 84 3b a7 4f 60 bd 0a d7 fb 3c
       -0.016319413 0.0040400727 -0.054763462 0.030742187
000070 b7 67 5c 3d 80 82 49 3d 07 71 ad bd ab b9 54 3d
       0.053809848 0.04919672 -0.08468824 0.05193488
000080 46 37 06 be f2 d3 3d bc 57 60 4a bd b5 61 e9 bd
       -0.13107023 -0.011586176 -0.049408283 -0.11395589
000090 c7 22 1b be d5 2e e7 bd a6 ed d3 3d 24 73 91 3d
       -0.15149985 -0.112882294 0.10348062 0.071020395
0000a0 94 91 b8 bc cb 64 9c 3d 98 10 82 3d be d4 90 bd
       -0.022530355 0.07636412 0.06350821 -0.07071827
0000b0 58 01 5c 3d 44 61 ae 3d e5 b2 57 3d c6 80 34 bd
       0.05371222 0.08514646 0.05266084 -0.04406812
0000c0 f9 d3 0c 3d 0a ec 95 3d e3 46 b1 3d 6a 82 96 bc
       0.03438184 0.073204115 0.08656099 -0.018372733
0000d0 78 11 a3 bd e1 70 17 3d cc 9a 4b 3c 64 78 6d bd
       -0.07962316 0.036972884 0.012427043 -0.05797614
0000e0 e7 f5 3b bd eb dc 90 3c c6 05 77 3d 79 a4 82 bc
       -0.045888808 0.017683467 0.06030824 -0.015947567
0000f0 08 0c 81 3c f3 f5 bb 3d e7 c4 3e 3d fc 6b 21 3c
       0.015752807 0.091777705 0.0465745 0.009852406
000100 a1 85 e4 3b ca 2d ca 3c 79 5d 88 bd d6 3b 84 3c
       0.0069739376 0.024680037 -0.066584535 0.016141813
000110 2c e5 3f bc 31 ca 83 3d b5 7b fe 3b 74 d1 fa bc
       -0.011712354 0.06435049 0.007766212 -0.030617453
000120 5d 3f 89 3d e0 88 b4 3d 93 16 ce bd 57 38 99 3c
       0.06701539 0.08815169 -0.100628994 0.018703623
000130 6f 74 c0 3c 31 4f a5 bd e5 df 27 3d d5 ac 36 3d
       0.02349302 -0.08071745 0.040985007 0.04459842
000140 93 c9 d3 bc 08 8e c7 3d b2 5c a0 bd aa 8b 84 bd
       -0.025852954 0.09743887 -0.0783018 -0.06471951
000150 6f 00 11 bc 2f ee 11 be c6 1b 83 bd 82 92 e7 bc
       -0.008850201 -0.14251016 -0.06401782 -0.028268103
000160 37 53 34 bd 05 47 19 3d 8a a0 91 3d e1 92 ec 3d
       -0.044024672 0.037421245 0.071106985 0.115514524
000170 66 c7 1a 3e f2 99 51 bd 05 e2 1b 3d 68 54 78 bd
       0.15115127 -0.051172204 0.038057346 -0.06062737
000180 c3 d5 4f 3c 68 6b b4 bd 6c e6 8a 3c 48 88 a3 ba
       0.012685242 -0.088095486 0.016955577 -0.0012476528
000190 e3 72 57 3d 61 d7 c1 bd a4 0c 3f bd f0 59 fe 3c
       0.0525998 -0.094649084 -0.046642914 0.031048745
0001a0 dd 5f 92 3d 2d be c4 3d 13 37 22 bc 9b 06 05 3e
       0.07147191 0.09606586 -0.009900826 0.12990801
0001b0 4a 4e 89 3d 21 d4 96 3a 6c 95 cf 3d 79 e4 0c bb
       0.067043856 0.0011507311 0.10135922 -0.0021498485
0001c0 68 0c 94 3d 64 93 c1 3c d9 92 68 3d ca 8d fa 3d
       0.07228929 0.023629852 0.05678067 0.12234075
0001d0 46 b7 27 3d 60 82 12 bd 1c 50 d1 bc d4 bd 89 bc
       0.040946268 -0.035768867 -0.025550894 -0.01681415
0001e0 45 4e 38 bc 26 7a b7 bc 13 b3 a4 3d 35 34 ea 3c
       -0.01124913 -0.022397112 0.08041968 0.028589347
0001f0 68 f8 a5 bd 22 14 0e 3b b6 68 37 3d de c2 8b bd
       -0.0810402 0.002167948 0.044777595 -0.06824277
000200 53 c2 ee 3c d5 2d 29 bd 62 cb 75 bc c6 2c 76 bd
       0.029145395 -0.041303474 -0.0150021035 -0.060101293
000210 c6 69 f5 bc 9e 2c f7 3d 1b 4b 52 bd 12 de e7 3d
       -0.029957663 0.12069057 -0.051341157 0.113216534
000220 14 ac 24 bd 94 c1 96 3d 63 f6 09 bd 64 72 c1 3c
       -0.04020317 0.07361141 -0.03368224 0.023614116
000230 e4 2c 05 bd ae 24 e2 bc df ba 75 bd 88 75 e0 bc
       -0.032513514 -0.02760538 -0.059992667 -0.027399793
000240 6d d1 c6 3c 69 33 99 3c 17 a1 00 bc 98 86 12 3c
       0.024269784 0.018701272 -0.007850907 0.008943222
000250 4c c7 02 bd 7f e8 c0 3b 01 84 90 3b 56 55 90 bc
       -0.031928346 0.0058870907 0.0044102673 -0.017618816
000260 f6 1f 56 3d 12 7d 07 bc 68 91 5c 3d 1d 71 30 bd
       0.052276574 -0.008269565 0.053849608 -0.043076623
000270 4b a6 80 39 0a 5c 5b bc 3d a6 e8 3c c8 84 20 3d
       0.0002453796 -0.013388643 0.028399581 0.03918913
000280 92 fd 25 3d 04 ae 1f 3a 34 a5 13 bd 1c b9 3a 3e
       0.040525027 0.0006091299 -0.03604622 0.18234676
000290 8f a6 e8 bc d6 af 15 bd bd 03 0c 3d 55 84 59 bd
       -0.028399734 -0.036544643 0.034183253 -0.053104717
0002a0 4c 75 f4 bb 1d a3 c6 bc ee b9 eb 3b a0 12 86 3d
       -0.007460272 -0.0242477 0.0071937954 0.06546521
0002b0 55 83 28 bd 53 ba 12 bd 55 99 81 bd f1 0e 06 3d
       -0.041140873 -0.035822224 -0.06328074 0.032729093
0002c0 71 ef 14 bd 4f 4a 84 3d f5 3b a9 3c 06 b1 fc 3c
       -0.03636116 0.06459486 0.020658473 0.03084613
0002d0 f9 b2 20 3d 47 ab 4b 3d 3c 3b 82 bd 8f c7 a3 3d
       0.03923318 0.04972389 -0.06358954 0.07997047
0002e0 5b 18 17 3c 39 95 87 bd f5 12 cf 3c 85 aa d7 bd
       0.009222115 -0.06620259 0.025277594 -0.10530571
0002f0 a8 59 80 bd 05 18 c5 bd 64 44 2b bd 99 fd dc 3d
       -0.062671006 -0.09623722 -0.04181327 0.107905574
000300 2d 65 de bc 29 1e fd 3c 6e 5c 8e bd 74 7a 23 bd
       -0.027147854 0.03089817 -0.06951223 -0.039911702
000310 a3 87 80 3c 16 8a 9f 3d 45 97 54 bd 39 d8 c7 bb
       0.015689677 0.0779001 -0.051902074 -0.006098774
000320 a8 36 ca 3c 98 f0 66 3d c8 7c fa 3c 3f 22 b0 3c
       0.024684265 0.05638179 0.030577078 0.021500705
000330 78 89 e1 bc 2a cd 8e 3b 4e 6b 8a 3d bc 13 55 bd
       -0.02753137 0.0043579536 0.06758748 -0.052020773
000340 6d ea 68 3b 98 d2 91 bc 85 81 15 3e b2 bb b1 3d
       0.003554012 -0.017800614 0.14600189 0.08678378
000350 75 b0 c4 bd 46 31 33 bd 81 64 a9 3c 3b e7 1a 3d
       -0.09603969 -0.043748163 0.020677807 0.037818175
000360 fc 9a db 3d 20 79 31 bd 82 49 9e 3d cd 98 70 bd
       0.1072292 -0.043328404 0.07728864 -0.058739472
000370 5a 15 13 3d 81 78 c6 3c e7 58 12 3d 82 9c 07 bd
       0.035909034 0.024227383 0.035729315 -0.03310824
000380 f6 fb d1 3b f1 59 1b bc 0b 5e 40 bd 64 08 7b bd
       0.00640821 -0.009481893 -0.046964686 -0.0612873
000390 c6 cd b0 bd b0 49 2d bd 44 1c aa 3d 33 83 07 3e
       -0.08632998 -0.042306602 0.083061725 0.13233642
0003a0 98 f5 b2 3c a0 7b ce 3c 9d d8 fc bc 74 a5 c4 3d
       0.021845624 0.025205433 -0.030865008 0.0960187
0003b0 cd 40 45 bd 38 e2 b0 bc fb de 8f 3d 01 b4 67 bd
       -0.048157502 -0.021592245 0.07024952 -0.05656815
0003c0 6a 2c e6 bc 81 3a 7c bd 34 b7 24 bc b4 5c 51 bc
       -0.02809735 -0.06157923 -0.010053445 -0.01277845
0003d0 f9 64 78 3d 55 ac da bd 2b cb b0 3d 0e e0 87 bd
       0.06064317 -0.10677401 0.08632501 -0.06634532
0003e0 d6 4b 1b 3d 92 78 75 bd 7d d1 06 3d 5d cf 2a bd
       0.03791412 -0.059929438 0.032914627 -0.041701663
0003f0 a1 80 de bc 50 39 67 bd 81 3a 51 3d e3 65 0f 3d
       -0.027160944 -0.05645114 0.051081184 0.035009276

net.4.bias f4 [64]
000000 4d 6f 2d 3d 00 cd 7f bc 5d 77 14 be 3a 5b 71 bd
       0.042342473 -0.015612841 -0.14498658 -0.05892489
000010 81 49 0e 3e de 44 88 3c 71 1d af 3b bb 5c 80 3c
       0.13895227 0.016634401 0.005344086 0.015669217
000020 85 e2 b2 bd f2 7e fb ba c4 7f 38 bc 89 ba f7 bd
       -0.087346114 -0.0019187613 -0.01126093 -0.12096126
000030 7e 69 3f 3c 48 8d f8 bd be 2b 81 3d 4b b4 ba 3d
       0.011682866 -0.12136322 0.06307171 0.091164194
000040 37 09 a4 bd ed 4b f4 bd ba 8e ff bd e5 16 ad bc
       -0.0800957 -0.11928544 -0.12478395 -0.021129081
000050 99 25 02 be a5 b0 f5 3c de 54 18 bd e3 c3 82 bd
       -0.12709655 0.029991457 -0.03719031 -0.06385019
000060 fb 93 38 bd bc 08 83 bd c3 24 a7 bd 7e 3d 24 bd
       -0.045063 -0.0639815 -0.081613086 -0.040097706
000070 c7 32 74 3d a3 6b e2 bd 5c f1 c8 bc 7c b3 a3 3c
       0.059618738 -0.11055686 -0.024529152 0.019983046
000080 a8 4b 20 3c 5b 04 99 bd 67 e2 43 3d e1 40 20 bd
       0.009783663 -0.07471534 0.047823336 -0.039124373
000090 7a 37 d0 bb 05 3c 07 be 67 fb 01 be ae 45 0a be
       -0.0063542696 -0.1320649 -0.12693559 -0.13503143
0000a0 1c 32 84 3d 7c 89 46 3d c0 6b b6 3d 78 ab 0a 3d
       0.0645487 0.04847096 0.089072704 0.03385493
0000b0 c3 ce d8 bc 62 ef 80 3d d9 d5 81 bc a0 1f 14 bd
       -0.02646578 0.06295659 -0.01584904 -0.036162972
0000c0 89 a4 fd bb 7b 76 31 be 0c 30 cd 3d de 1a 30 bd
       -0.0077405614 -0.17330353 0.1001893 -0.042994373
0000d0 7c 68 06 3e 68 35 b9 bd 5a d0 fb 3d f9 79 9c 3d
       0.13125795 -0.090433896 0.12295599 0.07640452
0000e0 8d 1b 8b bd fe 69 c1 bd 37 a1 31 3c 72 bc 0d bb
       -0.06792364 -0.094440445 0.010841659 -0.0021627215
0000f0 ce 39 00 3e 26 bb 9f 3d ef 22 14 bd 30 94 76 bd
       0.1252205 0.077993676 -0.036166128 -0.060199916

net.6.weight f4 [64]
000000 18 39 7d 3f e2 5f 76 3f f7 0f 75 3f 28 66 85 3f
       0.98915243 0.96240056 0.95727485 1.0421801
000010 cf 05 69 3f fc 09 79 3f a4 56 74 3f 4b d2 7c 3f
       0.9102449 0.9728086 0.95444703 0.9875838
000020 67 4b 76 3f 04 58 70 3f 89 34 72 3f 8f b2 73 3f
       0.96208805 0.938843 0.9461141 0.95194334
000030 7c 5a 8c 3f b3 d7 72 3f e2 a0 6a 3f 85 25 6f 3f
       1.0965114 0.9486038 0.9165174 0.93416625
000040 65 75 88 3f 1b 87 79 3f 8d 75 82 3f 7c 18 7c 3f
       1.0660826 0.9747178 1.0192124 0.9847486
000050 27 01 80 3f e3 5e 73 3f af 20 84 3f bd 1a 75 3f
       1.0000352 0.9506666 1.0322474 0.95743924
000060 84 22 7f 3f 5b 06 7f 3f 5f 59 75 3f f0 be 81 3f
       0.9966204 0.9961907 0.95839494 1.0136395
000070 7c f6 81 3f 4a 1b 70 3f 11 d9 74 3f d3 bc 6a 3f
       1.0153346 0.9379164 0.9564372 0.9169437
000080 4b f5 70 3f b6 39 93 3f f1 fd 6f 3f d5 1a 73 3f
       0.9412429 1.1501987 0.9374686 0.9496282
000090 8c 8b 70 3f ba 7f 7f 3f 97 fd 78 3f 8c fc 7f 3f
       0.9396293 0.9980427 0.9726195 0.9999473
0000a0 62 1e 74 3f 16 5f 7a 3f 76 fe 78 3f bd 64 78 3f
       0.9535886 0.9780134 0.97263277 0.97028714
0000b0 80 ae 7f 3f ff 17 73 3f c2 b0 7b 3f 2c af 76 3f
       0.9987564 0.9495849 0.98316586 0.9636104
0000c0 9b b4 72 3f 31 2c 81 3f aa b3 79 3f 6e 15 72 3f
       0.9480683 1.0091611 0.9753977 0.9456395
0000d0 4d 49 74 3f 0d 71 7e 3f d8 63 7b 3f b7 11 7c 3f
       0.9542435 0.9939125 0.98199224 0.9846453
0000e0 ff 34 80 3f d3 e6 80 3f 5f f7 81 3f 96 41 74 3f
       1.0016173 1.0070442 1.0153617 0.95412576
0000f0 b9 df 6f 3f 33 52 71 3f b8 2d 7f 3f ac 38 7b 3f
       0.9370075 0.9426605 0.99679136 0.9813335

net.6.bias f4 [64]
000000 05 43 ad 3c 57 df 98 3b 6c 09 51 3b 5b a1 60 3d
       0.021150121 0.004665296 0.0031896485 0.05484138
000010 2f 6e d7 bb a7 9f 0a 3d 5d 90 93 3d 50 61 6c 3d
       -0.006574414 0.033843663 0.072052695 0.057709992
000020 a1 24 3e bd 97 7f 5c bd f2 61 58 bd a4 9f 48 bd
       -0.04642165 -0.053832617 -0.052827783 -0.04898037
000030 b9 46 67 3d 83 37 49 bd 99 38 46 3c 18 31 27 bd
       0.05646393 -0.049125206 0.012098455 -0.040818304
000040 18 84 ad 3d 60 31 54 bd 2e 1d 27 3d 9d c5 a7 3d
       0.084724605 -0.0518049 0.040799312 0.081919886
000050 75 38 99 3c dc 25 9d 3c de 37 ef 3c 4a f2 8a bb
       0.018703679 0.019183092 0.029201444 -0.004240309
000060 29 0c 3a bd d6 6e 21 3d 52 96 ae bb 0f b6 63 bd
       -0.045421753 0.039412342 -0.005327978 -0.055593546
000070 ef 66 98 3c fc e8 84 bc 78 fa 12 bd ea 49 55 bd
       0.01860377 -0.016224377 -0.035883397 -0.052072443
000080 cb 31 77 bd a4 5b e1 3d a8 ca 6c 3d d0 0c f8 3b
       -0.06035022 0.11003807 0.057810456 0.0075698867
000090 e7 74 f9 3c 22 0c 0b 3c 8f 75 fc bc ce 88 5e bb
       0.030451251 0.008486779 -0.030817775 -0.0033956054
0000a0 95 21 62 bd b6 0b d2 3d 51 79 93 3d 8f 89 8b bd
       -0.055207808 0.1025614 0.07200874 -0.068133466
0000b0 f7 f0 2f bd ee 44 69 3c 13 47 12 3d 77 f4 43 bb
       -0.04295441 0.0142376255 0.035712313 -0.002990035
0000c0 02 a7 73 bd c6 83 4b 3d 7a c1 06 bb 02 ef bb bc
       -0.059485443 0.049686216 -0.0020562098 -0.022941116
0000d0 49 cc bb bd 54 25 a5 3c 85 60 a2 3d fa 8b 19 bd
       -0.09169824 0.020159401 0.07928566 -0.037487008
0000e0 c4 09 05 3d bc 27 83 3d 0b cd ca bd 1c a4 ca bc
       0.032480016 0.06404063 -0.0990239 -0.024736457
0000f0 11 1c 23 3d 8e 5d 28 3d 08 c1 30 3d 5c 06 c5 bc
       0.039821688 0.041104846 0.04315284 -0.024050884

net.6.running_mean f4 [64]
000000 9c 85 ed 3e 81 fa 37 3e d9 b3 55 3e 90 b6 84 3e
       0.46390998 0.17966653 0.20869388 0.25920534
000010 46 dc 56 3f 12 e2 cf 3e 4d ac f8 3e 75 66 26 3e
       0.8392986 0.40602165 0.48568955 0.16250022
000020 19 9d 67 3e b6 5f db 3e 39 38 13 3f 82 8c 1d 3e
       0.22618522 0.4284646 0.57507664 0.1538563
000030 50 6f 90 3e b4 41 9f 3e 9d 41 33 3f 37 48 c3 3e
       0.28209925 0.31104815 0.7002199 0.38141033
000040 b7 55 cc 3e 83 ad 41 36 7a 75 1d 3e 76 41 36 3e
       0.39909145 2.8860238e-06 0.15376845 0.17798409
000050 5e 94 e4 3d 76 03 8e 3e ec 8d 3a 3e 6a de b8 3e
       0.11161111 0.27737015 0.18218201 0.36107188
000060 02 5b a8 3e 27 8d 93 3e fe e3 f4 3e 65 04 98 3e
       0.32881933 0.28818628 0.47830194 0.29690853
000070 e8 63 c8 3e b2 23 5f 3e fe d4 f7 3e 09 74 dd 3e
       0.39138722 0.2179096 0.48404688 0.4325259
000080 ed 84 5e 3e 68 75 39 3e 59 c8 b3 3e 50 81 b5 3e
       0.21730395 0.18111193 0.3511379 0.3545022
000090 6d 86 e2 3e 1c aa 84 3e 0a f6 b7 3e 41 0a 20 3e
       0.44243184 0.25911033 0.359299 0.15628912
0000a0 b3 4a f7 3e 5b b9 9f 3e cc 8e f8 3e d0 cb 8b 3e
       0.48299178 0.31196102 0.48546445 0.27303934
0000b0 e6 a4 93 3e 2b c0 b9 3e 2c 2c 8d 3e 5b b5 be 3e
       0.28836745 0.36279425 0.27572763 0.37247738
0000c0 74 33 eb 3e 2b 3e a2 3d 11 20 46 3f 31 bd e0 3e
       0.45937693 0.07922014 0.7739268 0.43894342
0000d0 68 10 1a 3f ff 4f 7c 3e 97 44 4a 3f d9 46 15 3f
       0.60181284 0.24639891 0.7901091 0.5831123
0000e0 c0 1d 1e 3e a3 54 12 3e 6f cf 8e 3e 6b cb aa 3e
       0.15441036 0.14290099 0.27892634 0.3335832
0000f0 ca f3 57 3f b2 34 0d 3f 9c 3f be 3e 9c 85 02 3f
       0.8435637 0.5515853 0.37157905 0.5098512

net.6.running_var f4 [64]
000000 aa d2 f4 3e 0a 00 d5 3d 91 6d 52 3e 7a 27 2b 3e
       0.47816974 0.10400398 0.20549609 0.16714278
000010 f9 f4 29 3f 20 d3 bc 3e b1 b5 1b 3f 7f 3b ad 3d
       0.66389424 0.36879826 0.60824114 0.084586136
000020 98 fe 13 3e 3f 40 b3 3e e6 8b d9 3e df 6e 0e 3e
       0.14452589 0.35009953 0.42489547 0.13909481
000030 f1 c4 5b 3e dc 7d 9d 3e 50 f7 55 3f 6c 1b 5a 3e
       0.21461846 0.30760086 0.83580494 0.21299523
000040 96 55 ad 3e 33 88 82 34 b2 b5 d0 3d 01 46 03 3e
       0.3385436 2.4313485e-07 0.10190906 0.12819673
000050 b6 c3 af 3d 3f 82 27 3e 37 06 da 3d 1b a1 d7 3e
       0.08582251 0.16358279 0.10645717 0.421151
000060 ce d1 c6 3e 5e 12 8e 3e 13 59 00 3f 30 c3 61 3e
       0.38831943 0.27748388 0.50135916 0.22047114
000070 44 b7 b2 3e 30 97 0c 3e 9e 27 df 3e c0 e3 d1 3e
       0.34905446 0.13729548 0.43584913 0.40994072
000080 a1 ce 2b 3e f5 8c f3 3d 93 09 89 3e 4f 32 cd 3e
       0.16778041 0.1189212 0.26765117 0.40077445
000090 bb 83 b2 3e 15 d9 26 3e 95 e5 94 3e cf 16 0a 3e
       0.34866127 0.16293748 0.29081407 0.13485263
0000a0 1a 2f aa 3e 5d 20 7f 3e 08 7f d9 3e 63 64 35 3e
       0.3323906 0.2491469 0.4247973 0.17714076
0000b0 9e db 79 3e 56 c0 9b 3e 4e 88 34 3e 76 8d 7b 3e
       0.24400184 0.30420178 0.17630121 0.24565682
0000c0 16 88 d1 3e 1f 1f 35 3d 1a 1a 74 3f aa ba e7 3e
       0.40924138 0.044219133 0.9535233 0.452596
0000d0 88 df b3 3e 1e ef 6b 3e f2 2e 2d 3f bc 1d 02 3f
       0.35131478 0.23040435 0.6764976 0.5082662
0000e0 7e cd be 3d 77 31 f2 3d 07 10 8a 3e ce 46 77 3e
       0.09316538 0.11825841 0.26965353 0.24148104
0000f0 6c 94 5f 3f 81 36 dc 3e c5 e2 99 3e c6 97 24 3f
       0.8733585 0.43010333 0.30055824 0.6429409

net.8.weight f4 [3, 64]
000000 b5 07 96 bd da c5 0d 3d a3 6e 1f 3d 7d dc 93 bd
       -0.07325689 0.034612514 0.03892387 -0.07219789
000010 f7 05 2f bd 0e a9 1d 3d fb 89 20 3b 93 d8 c0 bd
       -0.042730298 0.0384913 0.0024496305 -0.09416308
000020 82 dc 56 3d f9 dc ec bb 42 cf 97 3d 7e c4 6b 3d
       0.052456386 -0.0072284904 0.07412578 0.057560436
000030 42 61 4d be 1c 0d 1c bc 8e d6 bc bc e7 7a 22 3d
       -0.20056632 -0.00952461 -0.023051526 0.03966799
000040 b3 6d 78 bd 79 a5 96 3d 8c 74 d4 bd 1c b2 dc bd
       -0.060651492 0.0735578 -0.10373792 -0.10776159
000050 fc 84 35 bd 52 60 b8 bd 62 0c 23 be e8 05 a7 bd
       -0.044316277 -0.09002747 -0.15922692 -0.081554234
000060 81 a5 db 3d 5a 0d 35 bd 70 f0 89 bd 25 02 11 3d
       0.10724927 -0.044202186 -0.06735313 0.035402436
000070 47 11 61 3d 73 f4 22 3d e0 e1 5c bd e6 81 4c 3d
       0.054948118 0.039783906 -0.05392635 0.04992857
000080 41 19 a1 3c 78 4d 47 be 42 ae 11 3d 3a e7 57 bd
       0.019665362 -0.19463146 0.035566576 -0.05271075
000090 9c bd 0c bd 82 b6 4e 3d f4 c4 45 3d bc 4e 04 3d
       -0.034360513 0.05046702 0.048283532 0.03230165
0000a0 26 0a 92 bc 2a 67 37 bd a8 f5 f5 3c 1b d7 3c 3d
       -0.017827105 -0.04477612 0.030024365 0.046103578
0000b0 11 90 37 3d 92 13 e5 3c 41 99 82 bd d8 e3 a5 bd
       0.044815127 0.027963433 -0.06376887 -0.08100098
0000c0 34 f2 8e bb 94 b6 c2 bd 07 c9 bc bd dc 0f b3 3d
       -0.004362369 -0.0950748 -0.092180304 0.08743259
0000d0 88 c4 be 3d a9 ee cf 3d 08 3c aa bd d7 00 b1 3b
       0.09314829 0.10152943 -0.08312231 0.0054017114
0000e0 2c 05 01 be f5 10 76 bd b0 66 f3 3d ae 70 06 bd
       -0.12599629 -0.060074765 0.118848205 -0.032822303
0000f0 7f 59 6f 3c b6 1a a9 bd 7b 88 c2 3c 34 3a b9 3d
       0.01460874 -0.08257048 0.02374672 0.090443045
000100 97 7a d5 ba 67 8e 9d 3d 30 14 b6 b9 da 09 03 be
       -0.0016287145 0.07693177 -0.00034728786 -0.12796727
000110 9f f6 7b bd c0 4a 15 bc ac 4e c8 bd 71 7f a4 bd
       -0.061514493 -0.00911206 -0.097806305 -0.0803212
000120 95 72 7f 3c 1e 3e 11 3b 88 78 28 3d 9e 3e e4 bc
       0.015591283 0.002216227 0.041130573 -0.02786189
000130 ff a3 90 3d f5 74 50 3d 41 0e 92 3d 32 53 7a bd
       0.0706253 0.05089279 0.07131625 -0.061114497
000140 64 b4 86 bd 6f 8a 4c 3d d3 41 c7 3d 22 e0 40 bd
       -0.065773755 0.049936708 0.09729352 -0.04708875
000150 c5 3a e0 3d 7a 50 86 bc 48 e6 86 3c 9b c2 b1 3d
       0.109487094 -0.016395796 0.016467229 0.08679696
000160 a8 de cd 3d ad f8 c6 bd 0c f6 59 bd fa 45 b5 3d
       0.10052234 -0.097154 -0.053213164 0.088512376
000170 81 29 56 3d d0 a9 88 ba 59 ff ba 3d 0d 83 b3 bc
       0.052285675 -0.0010426585 0.09130735 -0.021913076
000180 91 d7 15 3c 77 ba c8 bc b4 48 d6 bd 34 11 73 3d
       0.009145633 -0.024502976 -0.10463086 0.059342578
000190 28 ff ac bd fe a2 e8 3d 8d 96 aa bd b7 9f e1 3d
       -0.08447105 0.11359213 -0.083294965 0.11016791
0001a0 0e 1b 95 bd fd 79 e7 bc 3e f8 5c bc 7d 2b 38 3d
       -0.07280551 -0.02825641 -0.01348692 0.04496335
0001b0 e2 d1 b3 3d 2c 31 e1 bd b9 c5 d9 bd ad 6d ee 3b
       0.08780266 -0.10995707 -0.10633416 0.007276258
0001c0 6b f4 2b bc 03 29 a3 3b e2 9a 47 3d c7 24 0e bb
       -0.0104952855 0.004979254 0.048731692 -0.0021689401
0001d0 71 67 c7 3d 74 26 54 bc 0a 9f 16 bd 11 03 cb 3d
       0.09736527 -0.012948621 -0.036772765 0.09912694
0001e0 e2 cb 60 bd 81 0c 9e bd 9f e4 8d 3d 73 1a 13 bd
       -0.054881938 -0.07717229 0.06928372 -0.035913896
0001f0 56 57 b0 bd 79 29 58 3d bc 3a 9e 3d 95 1e 66 3c
       -0.08610408 0.052773926 0.077260464 0.014045377
000200 96 b6 91 3d 40 d5 fe bd 6e 35 c7 bd 5f 6f c2 bd
       0.07114904 -0.12443018 -0.09726988 -0.094938986
000210 fe 47 8e 3d 3c 4a 96 bd ee 5c 8c bd f0 30 c9 bd
       0.06947325 -0.07338378 -0.068536624 -0.09823787
000220 84 1c ab bc 29 24 4c 3d ac ae fd 3c da 7b 72 3d
       -0.02088762 0.049839173 0.03096708 0.059200145
000230 bd 03 cb ba 85 1a e0 3d 3c 00 b7 3c a2 ab 67 3d
       -0.0015488785 0.10942558 0.022338979 0.056560166
000240 36 50 35 be 1a bc 0f bb 69 a6 4f bd 3d 59 a9 bd
       -0.1770638 -0.0021932186 -0.05069581 -0.08268974
000250 45 da ad bd 65 86 51 3d 60 ec 4f 3d 64 ba 8d 3d
       -0.08488897 0.05115356 0.050762534 0.06920317
000260 5d 19 27 3d f4 99 35 bd 52 8a 82 3d d9 b0 0f 3d
       0.040795673 -0.044336274 0.06374039 0.035080764
000270 7a 18 d0 bd c1 f3 ed bc bd 70 9d 3d 0b ac f2 3c
       -0.101609185 -0.029046895 0.07687519 0.029623052
000280 33 ba a1 3d 72 c4 97 bd 87 0d 5d bd 89 ce af 3c
       0.07896843 -0.07410516 -0.05396798 0.021460788
000290 7d ea 0a 3c 4c bc e8 bd 61 f1 16 3d 9f 95 48 bc
       0.008478758 -0.1136404 0.03685129 -0.012242704
0002a0 a7 46 a4 3d 2f e2 8f bc d7 9e d5 bd d0 36 ba 3d
       0.08021288 -0.017563907 -0.10430687 0.09092486
0002b0 85 fb c9 3c 55 4f aa 3b bf a9 a4 3d fb ad d1 3d
       0.024656067 0.0051974454 0.08040189 0.10238262
0002c0 7a 2a 5e 3d 0d ac 51 3c f7 9c a0 3d b1 72 1d bd
       0.054239728 0.012797368 0.07842439 -0.038439456
0002d0 03 cb 91 3d d0 b7 b9 bd b9 e5 66 bd 18 bc 8b 3d
       0.071187995 -0.090682626 -0.056371424 0.068229854
0002e0 0a 65 b1 3d 08 fa 47 bd 9b d4 b0 3d 45 37 62 3d
       0.0866185 -0.048822433 0.08634301 0.05522849
0002f0 31 04 a0 bd c6 89 c7 bc db da c1 bd 7d c4 39 bd
       -0.078132994 -0.024357688 -0.094655715 -0.0453534

net.8.bias f4 [3]
000000 27 04 95 bd 38 e6 81 bd 54 9d ee bd
       -0.072761826 -0.06342739 -0.11651102
