backend/models/bc_policy.pt (torch, 288045 bytes, 6 tensors)

mlp_extractor.policy_net.0.weight f4 [256, 13]
0.21204484 0.23020276 -0.0649755 0.25477692 -0.060768396 0.055966675 -0.13502929 0.1628829
0.24449602 -0.20347184 0.24107167 0.051908642 0.2049087 0.066215426 0.16365796 -0.021214435
0.23095492 0.05441068 -0.18328664 0.08476511 -0.10791429 -0.012188562 -0.09324441 0.20338973
-0.18897621 -0.09420143 -0.105939835 -0.18927199 -0.0017025216 -0.29316688 0.22758119 -0.21823882
0.17028905 0.018524602 -0.11832651 0.1431958 0.015032523 0.1970885 0.0024804452 -0.08369047
-0.029775027 -0.095801726 0.1142718 0.13991399 0.09236597 -0.1237783 0.1504911 0.03687066
0.13026974 -0.17962472 -0.290199 -0.08478637 -0.20382765 0.26164395 0.07780277 0.11633832
0.07935294 -0.034808494 0.19218776 -0.19621012 0.015822206 -0.19084801 0.08397606 -0.1035832
0.08402087 -0.05778353 0.23003188 -0.16438593 -0.16541104 -0.16542102 0.24946055 0.092427224
0.2668803 -0.22889045 -0.27509695 -0.21698867 -0.18657038 0.11233792 0.014771764 0.11742211
-0.087157026 -0.1155839 0.36226398 0.047345713 0.28119949 -0.014594803 0.22455762 -0.1629973
-0.087469704 0.11658949 -0.08960709 -0.070712835 0.16531992 0.18854514 -0.2011269 -0.1480684
0.2539589 -0.09358694 -0.09832515 -0.26836246 -0.15883014 0.06928307 -0.036608323 -0.20132455
0.0058079027 -0.18964778 -0.23557061 -0.15541169 -0.24315675 -0.1777861 0.27450174 0.040572286
0.07310658 -0.27056792 -0.19404413 -0.09423695 0.042831566 -0.24404627 -0.11950268 -0.16604078
0.0007686019 -0.103202865 -0.01921919 -0.18794066 -0.19037177 -0.16180655 -0.09493622 -0.21890713
0.2325497 -0.055044025 0.2269337 0.07224994 -0.2438448 0.18248063 -0.083960935 -0.092448324
-0.22440934 -0.28516045 0.0703084 -0.06962367 0.09894054 -0.23391512 0.19695905 -0.21052787
-0.054500334 0.05218567 0.13701627 0.21808353 0.25903887 -0.22092971 0.06368834 -0.12536219
-0.03645879 -0.21365927 0.24737245 -0.20950115 0.14184055 0.2159087 0.16787407 -0.21120931
0.45386443 0.25320193 0.10409046 -0.18350405 0.19746858 0.030192241 -0.055260334 0.2467053
0.009361051 -0.11104655 -0.0761184 -0.009048671 0.15794419 -0.08672223 -0.21601501 -0.1575274
-0.19688568 0.104122914 0.21971318 -0.25607553 0.05555493 0.1444655 -0.06183708 -0.14701667
0.15286537 0.17420089 0.2633606 0.08298129 -0.16806588 0.013170715 -0.0785782 -0.096707515
0.16322729 0.16685003 -0.210679 -0.14613377 -0.021765634 -0.033765532 0.23132043 0.03713955
-0.3891721 -0.11751454 0.23398606 0.07887142 -0.037408337 -0.19082953 -0.15917712 -0.4028959
-0.09011422 0.09366229 0.17693111 0.12759289 -0.24519269 -0.16618288 -0.042670112 0.2769605
0.048859805 -0.06306175 0.12350779 -0.10474535 -0.17936537 0.2024343 -0.12611158 -0.055599466
-0.27590907 0.18562227 0.21013004 0.10107973 -0.19338907 -0.2737279 -0.22525792 0.20682004
0.13315737 0.23339131 0.14529535 0.07019514 -0.0027160048 -0.21092641 -0.23762585 -0.25941902
0.11353657 -0.13617001 -0.055817425 -0.15961644 -0.050539717 -0.19520867 -0.18122491 0.09200004
-0.08242744 0.17122018 -0.08897634 -0.20345494 -0.048935354 -0.13444474 -0.084852934 -0.2640361
00000000: 4822 593e 46ba 6b3e e011 85bd 1f72 823e
00000010: 48e8 78bd 503d 653d 1e45 0abe c6ca 263e
00000020: 2a5d 7a3e ec5a 50be 7edb 763e 289e 543d
00000030: 96d3 513e f49b 873d f495 273e e5c9 adbc
00000040: 727f 6c3e bcdd 5e3d 7eaf 3bbe 5499 ad3d
00000050: 2b02 ddbd 89b2 47bc edf6 bebd 6645 503e
00000060: fb82 41be aeec c0bd fcf6 d8bd 84d0 41be
00000070: 2527 dfba f819 96be 0b0b 693e ff79 5fbe
00000080: 4160 2e3e e8c0 973c 2b55 f2bd eba1 123e
00000090: f94a 763c 91d1 493e f78e 223b e965 abbd
000000a0: c2ea f3bc b233 c4bd 5507 ea3d 9d45 0f3e
000000b0: 5f2a bd3d 7a7f fdbd 571a 1a3e b005 173d
000000c0: 6e65 053e 8bef 37be f794 94be 7aa4 adbd
000000d0: 32b8 50be 32f6 853e 0f57 9f3d c942 ee3d
000000e0: cb83 a23d 5a93 0ebd decc 443e 4eeb 48be
000000f0: 929d 813c a96d 43be a4fb ab3d 6e23 d4bd
00000100: 2213 ac3d 6cae 6cbd 7a8d 6b3e c954 28be
00000110: 8361 29be 2164 29be 9672 7f3e 7c4a bd3d
00000120: 89a4 883e 4262 6abe 82d9 8cbe 4732 5ebe
00000130: 4e0c 3fbe 6c11 e63d 4505 723c 017b f03d
00000140: 627f b2bd 40b7 ecbd aa7a b93e 94ed 413d
00000150: 61f9 8f3e 0a1f 6fbc 6ff2 653e c4e8 26be
00000160: 5123 b3bd 78c6 ee3d ec83 b7bd e4d1 90bd
00000170: a049 293e fa11 413e 36f4 4dbe 3e9f 17be
00000180: e706 823e 82aa bfbd b25e c9bd ce66 89be
00000190: 5ea4 22be 48e4 8d3d 9cf2 15bd 0628 4ebe
000001a0: 3850 be3b 0733 42be 6c39 71be 3e24 1fbe
000001b0: 15fe 78be 8f0d 36be 7e8b 8c3e 202f 263d
000001c0: e7b8 953d e187 8abe 81b3 46be 4dff c0bd
000001d0: 2770 2f3d 44e7 79be d2bd f4bd 9806 2abe
000001e0: 007c 493a 065c d3bd 9071 9dbc 8473 40be
000001f0: d1f0 42be 9eb0 25be ec6d c2bd 3129 60be
00000200: 8221 6e3e d875 61bd 4f61 683e c7f7 933d
00000210: 74b2 79be 34dc 3a3e b6f3 abbd 8c55 bdbd
00000220: 90cb 65be 8d00 92be dafd 8f3d db96 8ebd
00000230: 56a1 ca3d 7287 6fbe a2af 493e 9e94 57be
00000240: be3b 5fbd a4c0 553d fe4d 0c3e 4a51 5f3e
00000250: bea0 843e 663b 62be 086f 823d f25e 00be
00000260: d055 15bd 7fc9 5abe 344f 7d3e 7887 56be
00000270: a63e 113e 2c17 5d3e 2ee7 2b3e 4147 58be
00000280: eb60 e83e afa3 813e 612d d53d 7ce8 3bbe
00000290: 3435 4a3e b855 f73c a958 62bd 50a0 7c3e
000002a0: 185f 193c 606c e3bd f7e3 9bbd e140 14bc
000002b0: 1fbc 213e 6d9b b1bd 0a33 5dbe dd4e 21be
000002c0: 669c 49be 653e d53d 7efc 603e 551c 83be
000002d0: 918d 633d c4ee 133e e148 7dbd 8a8b 16be
000002e0: bd88 1c3e b861 323e 33d7 863e 18f2 a93d
000002f0: 7619 2cbe fcc9 573c 9bed a0bd 970e c6bd
00000300: 0e25 273e bcda 2a3e 3cbc 57be 17a4 15be
00000310: d84d b2bc ba4d 0abd 43df 6c3e a41f 183d
00000320: 9141 c7be 77ab f0bd 0b9a 6f3e 5787 a13d
00000330: 7c39 19bd d168 43be 54ff 22be 5f48 cebe
00000340: ce8d b8bd 04d2 bf3d 6e2d 353e b6a7 023e
00000350: cb13 7bbe d82b 2abe dbc6 2ebd c4cd 8d3e
00000360: 3821 483d 8526 81bd a7f1 fc3d bb84 d6bd
00000370: 8eab 37be f04a 4f3e 6523 01be 44bc 63bd
00000380: f443 8dbe c413 3e3e 542c 573e e402 cf3d
00000390: c907 46be 1026 8cbe 03aa 66be a2c8 533e
000003a0: 685a 083e 22fe 6e3e 4ec8 143e 78c2 8f3d
000003b0: 00ff 31bb 18fd 57be 3154 73be 92d2 84be
000003c0: dc85 e83d 2770 0bbe d0a0 64bd 7e72 23be
000003d0: bc02 4fbd c8e4 47be 0693 39be 846a bc3d
000003e0: b8cf a8bd 5854 2f3e 3a39 b6bd 7e56 50be
000003f0: 7070 48bd e2ab 09be 60c7 adbd bd2f 87be

mlp_extractor.policy_net.0.bias f4 [256]
0.27316323 -0.2353875 0.22992663 -0.23898879 -0.06938108 -0.113621086 -0.078090884 0.09860781
0.15915175 -0.18219176 -0.13816361 0.13555327 0.05736842 0.07174865 0.15310602 -0.11977259
-0.15335703 0.10209173 -0.10156424 -0.18461575 -0.0882419 -0.12895812 0.2761626 0.045097455
0.11834154 0.03725499 -0.19754155 0.18621767 -0.044243947 -0.048159204 0.24381645 -0.1515349
0.023459459 -0.22437029 0.14212054 0.11920865 -0.21625447 0.15479937 0.030704105 -0.14321387
0.17006475 0.1703601 0.09038119 -0.10301493 -0.1676718 -0.14923508 0.10557613 0.083320625
-0.15802181 0.25215665 0.15145527 -0.1058944 0.15182751 -0.11756824 0.08857394 0.2344858
-0.26139012 -0.14544958 -0.01567462 0.06091089 -0.25641465 -0.14906669 -0.0456745 -0.036203712
0.059822917 0.03660398 0.05689615 0.018192118 0.027692413 -0.00785416 0.101585425 0.18429098
-0.13841164 -0.1362978 0.101157494 -0.21277449 0.21585278 0.12802435 0.038450982 -0.15434387
-0.043846656 -0.21926206 -0.23956722 0.2647801 -0.24924563 -0.24211381 -0.09848075 0.0026961777
0.06282098 -0.09241983 -0.028109705 -0.05802341 0.24199922 0.19001634 0.110984266 0.011931778
0.16258976 -0.19000815 0.116547406 -0.11055734 0.21651465 -0.19201821 0.103227705 -0.22802782
0.16187489 0.051378116 0.22435845 -0.20918226 0.17452256 -0.1853553 -0.12887321 0.117754325
-0.06545137 -0.22211814 -0.24958332 -0.07360137 0.07679215 0.2436766 0.20397899 0.011396791
-0.16371801 -0.24739185 0.28324813 -0.15187511 -0.062822625 -0.22385488 -0.18329969 0.059383124
-0.055760678 0.046232205 0.010256774 0.014130563 -0.05463075 -0.011595574 0.12055519 0.20260942
0.28842452 -0.22628102 -0.23827896 -0.06090301 -0.024407655 0.14132571 0.24455531 0.07122281
-0.19653787 0.00030006102 0.19807053 0.10008632 -0.19614577 0.009644438 -0.30374312 -0.08886013
0.21715929 -0.10414737 0.23687238 -0.22036576 0.2424996 0.09292611 0.14255454 0.0777077
0.013192241 -0.13604368 -0.15303981 -0.1904617 0.21034153 -0.09395552 0.014480264 -0.24801
0.09371432 -0.16422175 -0.23655783 0.03432566 -0.2554989 -0.027326077 -0.22649595 0.17511016
-0.19473806 -0.0018834278 0.13732877 -0.27011502 0.1795465 0.24378537 -0.1379649 0.008854443
0.08410451 0.20996718 0.18380995 -0.24355964 -0.21932623 -0.23146412 -0.12307603 -0.053116918
-0.09951405 0.1802382 -0.2112653 -0.2234389 -0.22467114 -0.15466934 0.26687104 0.035024166
-0.03819992 -0.08705716 -0.23132811 -0.071461864 0.1461148 0.18744761 0.18838595 0.025093663
-0.15723576 -0.09195228 0.26954368 -0.25033614 0.06567766 -0.026186436 0.257511 0.15008149
-0.088369705 -0.26806802 0.047827203 -0.19488186 -0.023749163 0.06944302 0.1079836 -0.09359605
-0.18722063 -0.23457499 -0.26259306 0.032049812 -0.16880615 0.035882805 -0.22395496 -0.20591676
0.19281296 0.20135403 0.19494148 0.25002795 -0.20628494 -0.15224127 -0.19748883 0.22939469
0.14061987 0.2248309 -0.1839426 -0.14511484 0.36972097 -0.21437593 -0.18471691 0.13811062
-0.27822077 -0.07334791 0.11395009 0.22884466 -0.031470865 -0.24382691 0.15854906 0.2765009
00000000: 0ddc 8b3e 6c09 71be e371 6b3e 7ab9 74be
00000010: ab17 8ebd 2cb2 e8bd 1dee 9fbd e4f2 c93d
00000020: adf8 223e 7a90 3abe c37a 0dbe 7ace 0a3e
00000030: 26fb 6a3d f5f0 923d d3c7 1c3e 554b f5bd
00000040: a009 1dbe 7815 d13d ea00 d0bd e90b 3dbe
00000050: 2bb8 b4bd 990d 04be 2f65 8d3e 1cb8 383d
00000060: 0d5d f23d b098 183d 5548 4abe d8af 3e3e
00000070: 2439 35bd 9642 45bd 05ab 793e f72b 1bbe
00000080: 0d2e c03c 53c1 65be 0c88 113e aa23 f43d
00000090: d071 5dbe ba83 1e3e 2d87 fb3c a8a6 12be
000000a0: 7425 2e3e e172 2e3e c619 b93d 7ef9 d2bd
000000b0: 28b2 2bbe 15d1 18be 4c38 d83d 01a4 aa3d
000000c0: 78d0 21be ad1a 813e 1717 1b3e 2adf d8bd
000000d0: ac78 1b3e 9ec7 f0bd 4166 b53d 0c1d 703e
000000e0: edd4 85be bcf0 14be 1068 80bc b37d 793d
000000f0: c848 83be f0a4 18be 2f15 3bbd 584a 14bd
00000100: e008 753d 0eee 153d f00b 693d a307 953c
00000110: 33db e23c bcae 00bc 050c d03d c6b6 3c3e
00000120: c8bb 0dbe a791 0bbe a92b cf3d 8ee1 59be
00000130: 8308 5d3e d118 033e c77e 1d3d 520c 1ebe
00000140: 8d98 33bd 3c86 60be 1c51 75be 4291 873e
00000150: 3f3a 7fbe afec 77be 47b0 c9bd 5bb2 303b
00000160: 49a8 803d 9c46 bdbd 5346 e6bc f5a9 6dbd
00000170: a5ce 773e a593 423e b84b e33d 817d 433c
00000180: ee7d 263e 7f91 42be 68b0 ee3d e36b e2bd
00000190: 04b6 5d3e 6ca0 44be 0c69 d33d 2080 69be
000001a0: 88c2 253e dc71 523d 39be 653e e033 56be
000001b0: 0bb6 323e c8cd 3dbe 57f7 03be 2e29 f13d
000001c0: 5e0b 86bd f072 63be c592 7fbe 51bc 96bd
000001d0: 3445 9d3d 5c86 793e dedf 503e 9bb9 3a3c
000001e0: b2a5 27be 4a54 7dbe e605 913e 2685 1bbe
000001f0: 26a9 80bd 373a 65be eab2 3bbe b83b 733d
00000200: 4f65 64bd fb5d 3d3d 070c 283c e083 673c
00000210: 7ec4 5fbd 5dfb 3dbc a4e5 f63d d878 4f3e
00000220: 61ac 933e 36b6 67be 66ff 73be 6f75 79bd
00000230: 90f2 c7bc b0b7 103e b56c 7a3e 44dd 913d
00000240: 3941 49be 8251 9d39 00d3 4a3e 0efa cc3d
00000250: 70da 48be b403 1e3c 3884 9bbe 4dfc b5bd
00000260: 015f 5e3e 374b d5bd ac8e 723e 90a7 61be
00000270: d151 783e 0b50 be3d d1f9 113e 3725 9f3d
00000280: 4524 583c 094f 0bbe 78b6 1cbe 6408 43be
00000290: c563 573e c06b c0bd a13e 6d3c 55f6 7dbe
000002a0: 4bed bf3d bf29 28be 373c 72be 1099 0c3d
000002b0: c0d0 82be f0da dfbc 8eee 67be 1450 333e
000002c0: 6a69 47be 5add f6ba ea9f 0c3e 844c 8abe
000002d0: 0adb 373e dfa2 793e ac46 0dbe 3a12 113c
000002e0: fc3e ac3d a301 573e ad38 3c3e b367 79be
000002f0: 0e97 60be ee04 6dbe 490f fcbd 2091 59bd
00000300: 06ce cbbd 5d90 383e ee55 58be 2bcd 64be
00000310: 3110 66be a461 1ebe 52a3 883e 8075 0f3d
00000320: 8577 1cbd 064b b2bd 47e1 6cbe 995a 92bd
00000330: 1e9f 153e 44f2 3f3e 3fe8 403e 3a91 cd3c
00000340: 6902 21be 7a51 bcbd a101 8a3e 0f2c 80be
00000350: 0282 863d f084 d6bc 7bd8 833e f6ae 193e
00000360: 2dfb b4bd 3640 89be 75e6 433d 1c8f 47be
00000370: 9b8d c2bc 2438 8e3d 8126 dd3d 49af bfbd
00000380: c4b6 3fbe 6d34 70be 9972 86be aa46 033d
00000390: 85db 2cbe d9f9 123d 7354 65be d8db 52be
000003a0: c370 453e c02f 4e3e bd9e 473e aa03 803e
000003b0: 5c3c 53be 23e5 1bbe 833a 4abe 71e6 6a3e
000003c0: a8fe 0f3e 123a 663e 735b 3cbe fc98 14be
000003d0: 114c bd3e 5d85 5bbe 6e26 3dbe df6c 0d3e
000003e0: f472 8ebe 6e37 96bd aa5e e93d 4156 6a3e
000003f0: 98e7 00bd c3ad 79be af5a 223e 8791 8d3e

mlp_extractor.policy_net.2.weight f4 [256, 256]
-0.044437516 -0.004668943 -0.044359397 -0.029911203 0.019071586 0.027238064 0.024536714 -0.06082889
-0.017112777 0.024675965 -0.0075325193 -0.021282613 -0.03457271 0.057360817 -0.046984356 -0.043738086
0.047505766 -0.039923895 0.035806436 -0.036413748 -0.009721486 -0.032158997 0.04967734 0.041330934
0.0107876975 -0.00046251985 -0.025548173 -0.03536753 -0.025601711 0.020962631 -0.011833218 0.04349147
0.010947909 -0.005691574 -0.040800434 0.023415377 -0.059748467 0.016563691 0.024386518 0.009349507
0.045215476 0.011088886 0.017207883 -0.045695808 -0.059966706 0.02958154 0.032060318 -0.038696464
0.01859591 -0.024943657 0.050682295 -0.019581623 0.0724906 0.04616828 0.036529247 0.044673905
0.0082628075 0.0229853 -0.055095684 -0.016229225 -0.010075537 0.026936445 -0.022402544 0.026566917
0.04047482 0.025082884 0.03412946 -0.006369297 0.031809725 -0.021663506 0.05221344 -0.0035609733
-0.0056068706 -0.05649742 0.05969989 -0.0063339914 0.043532103 -0.04284895 -0.054250207 -0.007253504
-0.047792856 0.013970974 0.011383811 -0.022832472 0.04600326 0.0401466 -0.05325516 -0.052030955
0.038018912 -0.038363263 0.014021365 -0.014778346 0.012818461 -0.031987745 -0.00084350957 -0.020165341
-0.026489621 -0.032269135 0.011999197 0.095529556 -0.0032863896 -0.0011942782 0.053527903 0.048420437
-0.011034223 -0.05070566 0.012705708 0.016700052 -0.05140577 -0.05802928 0.01380391 0.06298918
-0.06259514 -0.03112293 -0.023512285 -0.057163578 -0.036521766 0.05101903 0.049763326 -0.046618953
0.0032337809 -0.05286416 0.024130447 -0.04153374 -0.04308527 -0.030930532 0.007729783 0.06321287
-0.024197197 0.007585526 0.04915356 -0.0018259414 -0.00024639504 0.003579546 0.0011627104 0.035562005
0.03185815 -0.035433974 0.055714324 0.034772553 -0.015142131 0.055674575 0.005214035 0.041455794
-0.057386298 0.054435227 0.053748813 -0.048661865 -0.057901543 -0.020127844 -0.036704704 0.014754543
0.030074505 -0.010003325 0.042258125 0.0038495457 -0.020330573 -0.05145343 0.019797614 -0.056913305
-0.0018657793 0.011171368 -0.03304189 0.020737372 0.0139635615 0.0437875 0.034801684 -0.04987373
-0.04092263 -0.023245554 -0.044058762 0.017635003 -0.042910483 -0.0496783 0.020164981 0.035758767
-0.01972617 -0.062991366 0.010794337 0.03171111 0.0468621 0.0039961813 0.04186294 -0.06966454
0.05783126 -0.061202407 -0.039470498 0.046866953 -0.011927144 0.040111087 -0.045487765 0.04708966
0.05731358 0.020885851 0.05310854 -0.048277553 -0.01780104 0.020984257 0.025829937 -0.031411286
0.04173198 -0.022531124 -0.031459708 0.010460057 -0.051742855 -0.05932353 0.018831715 0.015924089
0.02599555 -0.008540107 -0.04374734 -0.048247438 0.057845045 -0.056144256 0.016875952 0.048842754
0.04578744 -0.04819014 -0.018192163 -0.055134796 0.03379783 -0.060613576 -0.05618966 -0.03999671
0.052942287 0.03855097 0.043838967 0.04599434 -0.031109922 -0.0019246829 -0.037401192 0.022427604
0.022257937 0.008934394 -0.046121337 0.003596225 -0.035122022 -0.010720692 -0.010963964 0.0013684767
-0.052250348 0.051388796 -0.0246342 0.017567113 0.042093225 0.026279582 0.0457311 0.03587117
0.046659347 0.011983726 0.037957594 -0.029128248 -0.03171667 0.027883342 0.01836013 -0.0043048584
00000000: 1d04 36bd effd 98bb 33b2 35bd 5708 f5bc
00000010: 043c 9c3c 5c22 df3c 3801 c93c b727 79bd
00000020: 1830 8cbc 4025 ca3c 5ad3 f6bb e058 aebc
00000030: 1d9c 0dbd 2df3 6a3d ab72 40bd b526 33bd
00000040: 6895 423d 3d87 23bd c5a9 123d 9526 15bd
00000050: de46 1fbc 27b9 03bd 777a 4b3d a04a 293d
00000060: e2be 303c 5d7e f2b9 674a d1bc 8bdd 10bd
00000070: aeba d1bc d3b9 ab3c 1de0 41bc 1d24 323d
00000080: dc5e 333c 6280 babb 5b1e 27bd 9bd1 bf3c
00000090: cfba 74bd 94b0 873c 3cc6 c73c ad2e 193c
000000a0: dd33 393d 29ae 353c 8cf7 8c3c 872b 3bbd
000000b0: a69f 75bd fc54 f23c ae51 033d 2f80 1ebd
000000c0: 7356 983c a456 ccbc 3d98 4f3d a469 a0bc
000000d0: f475 943d f31a 3d3d b19f 153d fcfb 363d
000000e0: ba60 073c ab4b bc3c 03ac 61bd 27f3 84bc
000000f0: dd13 25bc d2a9 dc3c 8a85 b7bc dda2 d93c
00000100: edc8 253d 9f7a cd3c 55cb 0b3d 89b5 d0bb
00000110: ea4a 023d aa77 b1bc c3dd 553d 385f 69bb
00000120: d7b9 b7bb d769 67bd df87 743d 5f8d cfbb
00000130: b84e 323d 6182 2fbd 7735 5ebd cdae edbb
00000140: 71c2 43bd 83e6 643c 2a83 3a3c 2a0b bbbc
00000150: ea6d 3c3d c370 243d 1522 5abd 691e 55bd
00000160: b8b9 1b3d cc22 1dbd deb9 653c e020 72bc
00000170: 8604 523c 9505 03bd f81e 5dba c931 a5bc
00000180: c300 d9bc a42c 04bd 4898 443c 00a5 c33d
00000190: 7860 57bb 5489 9cba 1340 5b3d 8254 463d
000001a0: e3c8 34bc bdb0 4fbd 9a2b 503c 8cce 883c
000001b0: db8e 52bd 1cb0 6dbd cc29 623c 7900 813d
000001c0: e131 80bd 84f5 febc d69c c0bc 5b24 6abd
000001d0: d997 15bd 55f9 503d a1d4 4b3d 84f3 3ebd
000001e0: d7ed 533b 1788 58bd 37ad c53c 481f 2abd
000001f0: 2e7a 30bd 0762 fdbc 1f4a fd3b c075 813d
00000200: 3339 c6bc 0190 f83b 3e55 493d 6d54 efba
00000210: 952e 81b9 d196 6a3b 1666 983a 77a9 113d
00000220: b17d 023d 3723 11bd b434 643d aa6d 0e3d
00000230: b316 78bc 060b 643d 7fda aa3b 8dcd 293d
00000240: e50d 6bbd 79f7 5e3d b727 5c3d aa51 47bd
00000250: 2b2a 6dbd 26e3 a4bc ac57 16bd 0abd 713c
00000260: cf5e f63c fce4 23bc db16 2d3d a948 7c3b
00000270: 4d8c a6bc d5c0 52bd 9b2e a23c ed1d 69bd
00000280: 2a8d f4ba 1d08 373c ef56 07bd 6ce1 a93c
00000290: 6cc7 643c 865a 333d 368c 0e3d 6548 4cbd
000002a0: 7d9e 27bd 766d bebc f676 34bd 4877 903c
000002b0: e7c2 2fbd 797b 4bbd 0831 a53c c977 123d
000002c0: c798 a1bc 9e01 81bd bbda 303c 82e3 013d
000002d0: 79f2 3f3d 66f2 823b 7978 2b3d 48ac 8ebd
000002e0: 79e0 6c3d 60af 7abd d1ab 21bd 90f7 3f3d
000002f0: 116a 43bc 864b 243d 6151 3abd 16e1 403d
00000300: a5c1 6a3d ce18 ab3c 5788 593d afbe 45bd
00000310: 7dd3 91bc 2de7 ab3c 4e99 d33c 1fa9 00bd
00000320: 27ef 2a3d 3193 b8bc e5db 00bd a960 2b3c
00000330: 51f0 53bd 3bfd 72bd f844 9a3c 3c73 823c
00000340: 9ff4 d43c ceeb 0bbc 6930 33bd 1b9f 45bd
00000350: edee 6c3d 85f7 65bd 703f 8a3c 570f 483d
00000360: 9c8b 3b3d 0663 45bd bb07 95bc 06d5 61bd
00000370: 986f 0a3d f145 78bd 2127 66bd 97d3 23bd
00000380: 03da 583d 9fe7 1d3d 7d90 333d 9064 3c3d
00000390: 3cda febc a445 fcba fe31 19bd 18ba b73c
000003a0: 4756 b63c 9161 123c bae9 3cbd a5ae 6b3b
000003b0: 1cdc 0fbd d7a5 2fbc 33a2 33bc 755e b33a
000003c0: 7604 56bd 0f7d 523d a9cd c9bc e8e8 8f3c
000003d0: f269 2c3d 4748 d73c 8950 3b3d a6ed 123d
000003e0: df1d 3f3d 6457 443c 6c79 1b3d 5d9e eebc
000003f0: 57e9 01bd 9b6b e43c fc67 963c c50f 8dbb

mlp_extractor.policy_net.2.bias f4 [256]
-0.04001497 -0.0012124113 -0.0045407424 -0.05550255 -0.053099945 -0.039250035 -0.054083005 -0.0510674
0.03337019 -0.031013137 0.061969537 -0.0483317 -0.016357588 -0.0123713305 0.0484391 0.031620238
0.006531401 -0.035420507 0.032751597 -0.047525708 0.013619504 0.04087128 0.016715713 0.032417648
-0.01719694 0.05257916 0.00027036434 0.028609473 0.00511126 0.0043495423 -0.04752841 0.038152806
-0.06463929 -0.02613493 0.012707589 0.024292553 -0.03285426 -0.022291308 -0.028537314 -0.06289721
-0.05382378 0.019134786 0.0014800936 -0.018474346 0.026694397 0.023323368 -0.050915293 -0.008612886
0.0047479323 -0.014704858 0.046511184 -0.03629591 0.023292549 0.035692476 -0.048767824 -0.05300243
0.0328962 -0.03048902 0.045932204 0.0038945482 -0.008426917 0.052390397 -0.014665672 0.0018497142
-0.04246412 -0.0031391801 0.05380963 0.05440719 -0.026779106 -0.02698998 0.054033585 0.055871423
-0.011912143 -0.012396813 -0.040093612 -0.05133912 -0.00050675176 -0.04856776 0.023939304 0.04833481
-0.028760692 -0.037271816 -0.057902418 -0.00068870716 -0.026765227 0.06397229 0.02728274 0.049122512
0.04969285 0.0033566025 -0.033593133 -0.0147054205 -0.051645357 -0.0396826 -0.054989606 0.02460113
-0.046797957 -0.0012750475 0.045953844 -0.009697251 0.048769515 0.011913669 -0.015417569 0.016253099
0.0576868 0.027300699 -0.052172948 -0.015742216 -0.015576082 -0.02916541 -0.005155617 -0.054701995
0.04931224 -0.043225765 0.031246405 0.015761532 0.015616783 -0.047056157 -0.040437374 -0.05125684
0.029636187 0.040878292 0.014125418 0.02409211 0.02759637 0.025418995 -0.031319853 0.0141431
-0.015845006 0.02759238 0.049928144 0.01907686 -0.012995834 0.046731073 0.046105877 -0.011583892
0.048267104 -0.04185745 0.03376725 0.0016621245 -0.0034573434 -0.015606208 0.06308331 -0.0123663815
-0.044875026 -0.031708635 -0.024922665 0.03728705 0.051973224 0.01679113 -0.007782857 -0.0050966376
-0.0022633234 -0.06091058 -0.020780364 0.050471302 0.0020812314 -0.04986532 -0.055813413 0.0020556094
-0.02599858 -0.027040355 -0.013465359 0.04815952 0.038875416 -0.024874505 0.046815984 0.049726315
0.020153811 0.024455387 -0.02768562 0.0446642 -0.05495719 -0.05056671 -0.050915956 -0.03816936
-9.831703e-05 -0.01878023 -0.03717625 0.04287671 0.019151065 0.024434702 -0.0031196102 0.009602852
0.037224848 -0.02099704 -0.00738335 -0.022725955 -0.037225492 0.0043927417 0.02649289 -0.023115234
0.02604486 0.031179333 -0.020249238 -0.048235115 0.042698085 0.044231523 -0.029135229 -0.0037043868
0.004070981 -0.03951512 -0.021611897 -0.030115182 0.064206965 0.04743391 -0.0081242155 0.024189282
-0.013713959 0.033557374 0.033333384 -0.0017756292 0.045222633 -0.0383997 0.0140055 -0.043967046
-0.050322678 0.022462944 0.032691605 0.043114603 -0.035954423 0.0036496718 -0.0264459 0.033709127
0.0445005 0.026566233 -0.029161 0.05625078 0.019649763 0.014969215 0.0033151784 0.0042756605
0.054163236 0.03622002 0.034650907 -0.010660701 0.0601742 0.0547785 -0.017538317 -0.023140466
-0.05104533 0.051117565 -0.0148019465 -0.004550774 -0.0225477 0.04750557 -0.0064705173 -0.041949395
-0.017951583 0.011719394 -0.026012179 0.026391523 -0.05360039 0.015267147 -0.038492512 0.011185515
00000000: bde6 23bd c6e9 9eba 82ca 94bb a456 63bd
00000010: 547f 59bd a5c4 20bd 2486 5dbd 0d2c 51bd
00000020: 2eaf 083d 430f febc c5d3 7d3d 76f7 45bd
00000030: 5900 86bc 1fb1 4abc 1468 463d 3984 013d
00000040: 5d05 d63b 1815 11bd 8a26 063d 51aa 42bd
00000050: 5724 5f3c a568 273d 64ef 883c 5ec8 043d
00000060: 99e0 8cbc 3f5d 573d b0bf 8d39 6a5e ea3c
00000070: 5b7c a73b 9b86 8e3b 26ad 42bd 1e46 1c3d
00000080: 9b61 84bd ec18 d6bc 7e33 503c 2d01 c73c
00000090: 3092 06bd 439c b6bc 16c7 e9bc 41d0 80bd
000000a0: 5376 5cbd 8ec0 9c3c b3ff c13a 8357 97bc
000000b0: 35ae da3c a610 bf3c 8e8c 50bd 101d 0dbc
000000c0: 8b94 9b3b a5ec 70bc 8382 3e3d 05ab 14bd
000000d0: 04d0 be3c 4632 123d c5c0 47bd 1319 59bd
000000e0: 2abe 063d 1cc4 f9bc 6823 3c3d ad3b 7f3b
000000f0: 0d11 0abc 5097 563d 4948 70bc 1c72 f23a
00000100: dbee 2dbd b4ba 4dbb 7d67 5c3d 13da 5e3d
00000110: db5f dbbc 171a ddbc 5252 5d3d 6fd9 643d
00000120: 262b 43bc 011c 4bbc 3339 24bd f848 52bd
00000130: 89d7 04ba fdee 46bd 5c1c c43c b9fa 453d
00000140: 8b9b ebbc 55aa 18bd 162b 6dbd 5b8a 34ba
00000150: c042 dbbc e703 833d 0e80 df3c b034 493d
00000160: bb8a 4b3d 72fa 5b3b f498 09bd 01ef 70bc
00000170: 158a 53bd 398a 22bd c83c 61bd 4f88 c93c
00000180: 37af 3fbd 7f1f a7ba 193a 3c3d 38e1 1ebc
00000190: 8bc2 473d 8d31 433c f999 7cbc 3825 853c
000001a0: fe48 6c3d b7a5 df3c 4db3 55bd d2f5 80bc
000001b0: d332 7fbc 4cec eebc 73f0 a8bb 330f 60bd
000001c0: a2fb 493d 800d 31bd 76f8 ff3c 541e 813c
000001d0: 89dd 7f3c f5bd 40bd a9a1 25bd b1f2 51bd
000001e0: 97c7 f23c ff6f 273d 4c6e 673c d15c c53c
000001f0: c811 e23c 7f3b d03c 3f49 00bd 76b8 673c
00000200: 63cd 81bc 6a09 e23c 7481 4c3d 1347 9c3c
00000210: 7bec 54bc 1569 3f3d 84d9 3c3d 5dca 3dbc
00000220: bab3 453d b872 2bbd 874f 0a3d a5db d93a
00000230: 9994 62bb 2eb1 7fbc d331 813d 5d9c 4abc
00000240: e0ce 37bd eae0 01bd 9e2a ccbc 4eba 183d
00000250: e0e1 543d 8d8d 893c 5607 ffbb b201 a7bb
00000260: 4454 14bb 5f7d 79bd 953b aabc ffba 4e3d
00000270: 4565 083b 943f 4cbd 9b9c 64bd 67b7 063b
00000280: f9fa d4bc bc83 ddbc cf9d 5cbc eb42 453d
00000290: d43b 1f3d 9ec5 cbbc 1ec2 3f3d d2ad 4b3d
000002a0: 9b19 a53c aa56 c83c f4cc e2bc cff1 363d
000002b0: ca1a 61bd 0a1f 4fbd 408d 50bd 7a57 1cbd
000002c0: 8e2f ceb8 ffd8 99bc 2046 18bd 7d9f 2f3d
000002d0: b2e2 9c3c 492b c83c 6072 4cbb 4855 1d3c
000002e0: 1579 183d fc01 acbc 07f0 f1bb c82b babc
000002f0: c279 18bd fdf0 8f3b 9e07 d93c 295c bdbc
00000300: 085c d53c cd6b ff3c bbe1 a5bc 2f92 45bd
00000310: 30e4 2e3d 1d2c 353d 01ad eebc 4cc5 72bb
00000320: dd65 853b 9bda 21bd 6f0b b1bc 1db4 f6bc
00000330: f17e 833d 0f4a 423d 6e1b 05bc 9a28 c63c
00000340: 83b0 60bc 7573 093d 9688 083d 3bbc e8ba
00000350: 5e3b 393d 0149 1dbd 5377 653c ca16 34bd
00000360: 271f 4ebd 3504 b83c a2e7 053d f098 303d
00000370: f244 13bd 552f 6f3b 12a5 d8bc 9512 0a3d
00000380: 2846 363d 6ea1 d93c 0de3 eebc 3867 663d
00000390: 8af8 a03c 7041 753c 7743 593b d71a 8c3b
000003a0: 45da 5d3d 725b 143d 1cee 0d3d 39aa 2ebc
000003b0: 3979 763d 6c5f 603d 84ac 8fbc 1391 bdbc
000003c0: e814 51bd a760 513d dd83 72bc a91e 95bb
000003d0: f4b5 b8bc 3395 423d a206 d4bb 21d3 2bbd
000003e0: 330f 93bc b302 403c 7e17 d5bc 0933 d83c
000003f0: 158c 5bbd 0e23 7a3c 53aa 1dbd 7343 373c

action_net.weight f4 [7, 256]
-0.0015063452 0.042505767 -0.060683314 -0.019779114 -0.02541968 -0.051315144 0.048768204 -0.04137325
-0.0075446474 -0.0064428183 0.047844946 -0.056648977 0.04220546 -0.05421882 -0.0065129977 -0.05474696
0.024435198 0.018530615 -0.023975525 -0.05221947 0.05806836 -0.0040101763 0.02358707 0.03498738
0.018506903 0.039162528 0.047671467 0.051093306 0.048600998 0.024673143 -0.04553242 0.019054879
0.04185146 0.026261512 -0.034500465 -0.017301528 0.05611251 -0.02823275 -0.061767798 0.022033488
-0.023323093 -0.03270769 -0.008784508 -0.014535778 0.016260432 0.042612087 0.031457145 0.049069803
0.0040506003 -0.044647496 0.021698346 0.01485454 -0.008857126 0.01937479 -0.004264083 -0.026377117
0.027677959 -0.037326552 0.019652197 -0.04372319 0.03812607 -0.045564048 -0.03397864 0.003584039
-0.015559417 0.04330034 -0.03927099 -0.025970425 -0.005437983 -0.058110476 -0.015671575 0.044775885
0.033363335 -0.015100755 0.04308047 -0.016636692 0.006179154 0.03660606 -0.05368491 -0.06493631
0.03249771 0.050670285 -0.035832174 0.037869435 0.052760296 -0.042545553 0.03386165 0.020390641
0.037556365 -0.01751428 0.036941674 -0.002163856 -0.029204352 -0.03849481 0.02353285 -0.011489502
0.042235233 0.012451489 -0.04899845 -0.035334922 -0.040044464 0.06795639 -5.6413992e-05 -0.015957138
-0.046529308 0.043280855 -0.018844904 -0.015140727 -0.045016613 0.04358837 -0.015217426 0.014996585
0.009353477 0.016060174 -0.055192698 0.056017753 -0.0391549 0.026814433 -0.026675574 0.0149983615
0.013477228 0.011020853 0.016342387 0.0017540642 -0.024742818 0.02430923 -0.055396184 0.01727989
-0.020619376 0.04583908 -0.06472648 0.030377747 -0.020380339 -0.03227474 -0.042063482 -0.052730355
0.019016057 -0.0016547615 0.04278678 -0.012080722 -0.020315321 -0.04927356 0.020189231 -0.004202706
-0.022362368 0.01866342 -0.060171332 0.056549694 -0.025209434 0.039103843 -0.04038597 -0.056284934
0.010393573 -0.0038631896 0.029590622 0.03126929 0.07279125 0.017769907 -0.012144168 0.018103285
-0.060454573 0.025435932 0.007207124 -0.0502095 0.035114095 -0.016642777 -0.012227295 -0.0046098614
-0.002123276 0.022726757 0.055319786 -0.013352458 -0.0018752023 -0.03185433 0.0107973395 0.013468832
0.027774671 0.07609798 0.0073649944 0.0049741664 -0.016833484 -0.04706374 0.030872352 0.010481008
-0.02423026 0.027557818 -0.0013678696 0.027919354 0.004081856 0.019332157 -0.033298183 -0.029058835
-0.03256584 0.04150404 -0.022130264 0.053735588 0.023148157 -0.045910817 -0.038204953 0.036731027
0.015143493 0.006641469 6.1797524e-05 0.023095068 -0.018654745 0.023510303 0.03971861 0.03219926
-0.034110196 0.02660758 0.017877748 -0.04154838 0.048687868 -0.055634506 0.0457479 -0.022270428
0.03470363 0.052653257 0.05336522 -0.021219868 -0.03491076 0.016089294 -0.016862396 -0.05803602
-0.01132525 -0.04682506 -0.026185011 0.06847977 0.070569985 0.049292352 -0.000102013684 -0.04623866
-0.0177098 0.05375225 0.01316844 0.029837642 0.005325135 0.02274026 -0.062262546 -0.017467294
0.01478788 0.019849382 0.011435984 -0.016274577 0.04936341 0.018834436 0.014196028 0.05175167
-0.007258744 0.048898112 0.0124659715 -0.050267387 0.038718387 0.06969142 0.0089333365 0.066687465
00000000: 8f70 c5ba 871a 2e3d 118f 78bd cf07 a2bc
00000010: ef3c d0bc d42f 52bd 2bc1 473d ff76 29bd
00000020: 1739 f7bb 471e d3bb 10f9 433d c208 68bd
00000030: a2df 2c3d 8e14 5ebd fc6a d5bb 593e 60bd
00000040: 532c c83c 84cd 973c 5268 c4bc 15e4 55bd
00000050: 17d9 6d3d cc67 83bb ac39 c13c ed4e 0f3d
00000060: ca9b 973c e368 203d 2843 433d 3747 513d
00000070: d711 473d 551f ca3c 3480 3abd fa18 9c3c
00000080: 706c 2b3d 6222 d73c 5c50 0dbd efbb 8dbc
00000090: 3bd6 653d 5e48 e7bc 3b00 7dbd 937f b43c
000000a0: 1210 bfbc 80f8 05bd e6ec 0fbc 7927 6ebc
000000b0: 9934 853c 038a 2e3d 35d9 003d 6bfd 483d
000000c0: e6ba 843b 4be0 36bd bbc0 b13c 7560 733c
000000d0: 7b1d 11bc e1b7 9e3c b9b9 8bbb d314 d8bc
000000e0: e3bc e23c bae3 18bd a5fd a03c 1617 33bd
000000f0: 152a 1c3d 5ea1 3abd 302d 0bbd 32e2 6a3b
00000100: edec 7ebc b35b 313d 9eda 20bd eebf d4bc
00000110: 1c31 b2bb 4005 6ebd ad61 80bc eb66 373d
00000120: fea7 083d 2869 77bc 2675 303d ac49 88bc
00000130: 807a ca3b 3cf0 153d b5e4 5bbd 54fd 84bd
00000140: 521c 053d a58b 4f3d c2c4 12bd fb1c 1b3d
00000150: 2e1b 583d 3f44 2ebd 83b2 0a3d 460a a73c
00000160: b4d4 193d 1b7a 8fbc 2750 173d 7bcf 0dbb
00000170: f73d efbc bcac 1dbd f7c7 c03c 773e 3cbc
00000180: dafe 2c3d 5501 4c3c 99b2 48bd 5abb 10bd
00000190: aa05 24bd b82c 8b3d 109e 6cb8 8bb8 82bc
000001a0: 8495 3ebd 4447 313d a160 9abc d010 78bc
000001b0: 5763 38bd b889 323d 8352 79bc 3db4 753c
000001c0: 533f 193c a090 833c bd11 62bd df72 653d
000001d0: e360 20bd f1a9 db3c bc86 dabc b0bb 753c
000001e0: 97cf 5c3c cf90 343c 78e0 853c a1e8 e53a
000001f0: 73b1 cabc 2624 c73c 1ce7 62bd 8e8e 8d3c
00000200: f7e9 a8bc c2c1 3b3d 518f 84bd c1da f83c
00000210: abf4 a6bc 8532 04bd c24a 2cbd c9fb 57bd
00000220: 90c7 9b3c 95e4 d8ba 3141 2f3d 38ee 45bc
00000230: 516c a6bc 13d3 49bd e363 a53c dab6 89bb
00000240: 4931 b7bc 07e4 983c 3776 76bd a7a0 673d
00000250: 0484 cebc 5a2b 203d c26b 25bd 088b 66bd
00000260: ce49 2a3c 912d 7dbb 0868 f23c 3a14 003d
00000270: 9413 953d 3292 913c 55f8 46bc 574d 943c
00000280: 379f 77bd 045f d03c bd29 ec3b 7aa8 4dbd
00000290: ccd3 0f3d 6f56 88bc fe54 48bc 520e 97bb
000002a0: a926 0bbb 772d ba3c 0097 623d 45c4 5abc
000002b0: 59c9 f5ba b079 02bd 53e7 303c 60ac 5c3c
000002c0: b587 e33c 42d9 9b3d 0d56 f13b 55fe a23b
000002d0: 60e6 89bc e9c5 40bd 04e8 fc3c 89b8 2b3c
000002e0: 8a7e c6bc efc0 e13c 164a b3ba 21b7 e43c
000002f0: 17c1 853b 795e 9e3c ad63 08bd cb0c eebc
00000300: c263 05bd 2400 2a3d 874a b5bc d919 5c3d
00000310: 34a1 bd3c fb0c 3cbd cc7c 1cbd 4673 163d
00000320: 6a1c 783c aea0 d93b 4b99 8138 de31 bd3c
00000330: d6d1 98bc ae98 c03c fbaf 223d 5fe3 033d
00000340: 22b7 0bbd 24f8 d93c 5b74 923c a22e 2abd
00000350: ee6c 473d 02e1 63bd 2662 3b3d 7970 b6bc
00000360: 6525 0e3d f1aa 573d 7d95 5a3d 4ad5 adbc
00000370: 96fe 0ebd b2cd 833c 0223 8abc 2db7 6dbd
00000380: 8b8d 39bc a2cb 3fbd f381 d6bc 1f3f 8c3d
00000390: ff86 903d c7e6 493d 2ef0 d5b8 c064 3dbd
000003a0: 2414 91bc 522b 5c3d 71c0 573c 126e f43c
000003b0: 787e ae3b c849 ba3c 0307 7fbd 9217 8fbc
000003c0: dd48 723c 2c9b a23c fe5d 3b3c 4352 85bc
000003d0: 4931 4a3d ad4a 9a3c 7596 683c 8ff9 533d
000003e0: c2da edbb 6349 483d 133e 4c3c 2de5 4dbd
000003f0: 2c97 1e3d 60ba 8e3d 215d 123c 7093 883d

action_net.bias f4 [7]
0.021693163 -0.024125531 -0.059444632 -0.023504987 -0.016725738 0.05029996 0.017963516
00000000: dcb5 b13c e8a2 c5bc 377c 73bd 888d c0bc
00000010: 6a04 89bc 5507 4e3d 3928 933c
