backend/models/bc_policy.pt (torch, 288045 bytes, 6 tensors)

mlp_extractor.policy_net.0.weight f4 [256, 13]
0.21204484 0.23020276 -0.0649755 0.25477692 -0.060768396 0.055966675 -0.13502929 0.1628829
0.24449602 -0.20347184 0.24107167 0.051908642 0.2049087 0.078060426 0.18890873 -0.022383656
0.23746076 0.037533313 -0.3205017 0.09878345 -0.10063723 0.0015183002 -0.08888223 0.2077519
-0.15696786 -0.089389116 -0.107815094 -0.18802132 -0.0040381197 -0.29623726 0.22870882 -0.19692352
0.15036441 0.0148409065 -0.12257605 0.14032495 0.012161682 0.18274114 0.0038223693 -0.09251244
-0.028934997 -0.10217683 0.119657025 0.15392347 0.08145594 -0.12869021 0.14396597 0.033354554
0.12552115 -0.18437324 -0.29101998 -0.09300746 -0.21458752 0.27411878 0.082715794 0.11527908
0.08357912 -0.028449843 0.20863143 -0.18778639 0.024813324 -0.18182294 0.093001015 -0.117910385
0.09313949 -0.05778353 0.23003188 -0.16438593 -0.16541104 -0.16542102 0.24946055 0.092427224
0.2668803 -0.22889045 -0.27509695 -0.21698867 -0.18657038 0.11233792 0.0017538638 0.09481894
-0.08317089 -0.11102545 0.40709248 0.039827514 0.28736046 -0.009234663 0.23057649 -0.16030781
-0.08478033 0.12749703 -0.09678523 -0.070712835 0.16531992 0.18854514 -0.2011269 -0.1480684
0.2539589 -0.09358694 -0.09832515 -0.26836246 -0.15883014 0.06928307 -0.036608323 -0.20132455
0.0057936427 -0.18965432 -0.2355852 -0.15545894 -0.2431771 -0.17787987 0.27433842 0.039486125
0.07195872 -0.27170804 -0.19518436 -0.094296746 0.042759746 -0.24404627 -0.11950268 -0.16604078
0.0007686019 -0.103202865 -0.01921919 -0.18794066 -0.19037177 -0.16180655 -0.09493622 -0.21890713
0.2325497 -0.055044025 0.22768013 0.07283894 -0.24276844 0.18378985 -0.08269555 -0.09352929
-0.2257156 -0.28410003 0.071375504 -0.06855402 0.100010194 -0.23248921 0.19804543 -0.2075316
-0.054169606 0.056486573 0.14296865 0.22524919 0.2570157 -0.21396035 0.06862101 -0.12009211
-0.031189453 -0.20838994 0.254994 -0.20431843 0.138236 0.28948644 0.16793019 -0.22614159
0.5247453 0.27125144 0.12003087 -0.18702774 0.20654371 0.029658016 -0.055794597 0.21757697
0.01489199 -0.08250109 -0.07433177 -0.004702813 0.16754636 -0.07469736 -0.22155216 -0.17481008
-0.19423619 0.10802312 0.2235944 -0.25219432 0.047677953 0.14878568 -0.07483542 -0.14327075
0.15903774 0.2133783 0.28763852 0.16206864 -0.20193346 0.0156166 -0.08377526 -0.09363986
0.16629478 0.13908893 -0.23496714 -0.16489382 -0.027932204 -0.030498894 0.2666381 -0.044206414
-0.41916105 -0.115311384 0.24460545 0.07512909 -0.036115877 -0.18953735 -0.1414937 -0.41696233
-0.09008679 0.09366229 0.17693867 0.12750849 -0.24520972 -0.16612509 -0.042565923 0.27824575
0.050150067 -0.06177121 0.12479827 -0.10457672 -0.17940296 0.2024343 -0.12611158 -0.055599466
-0.27590907 0.18562227 0.21013004 0.10107973 -0.19338907 -0.2737279 -0.22525792 0.20682004
0.13315737 0.23339131 0.14529535 0.07019514 -0.0027160048 -0.21092641 -0.23762585 -0.25941902
0.11353657 -0.13617001 -0.055817425 -0.15961644 -0.050539717 -0.19520867 -0.18122491 0.09200004
-0.08242744 0.17122018 -0.08897634 -0.20345494 -0.048935354 -0.13444474 -0.084852934 -0.2640361
00000000: 4822 593e 46ba 6b3e e011 85bd 1f72 823e
00000010: 48e8 78bd 503d 653d 1e45 0abe c6ca 263e
00000020: 2a5d 7a3e ec5a 50be 7edb 763e 289e 543d
00000030: 96d3 513e 25de 9f3d 4a71 413e ee5d b7bc
00000040: ea28 733e 88bc 193d cc18 a4be fa4e ca3d
00000050: e41a cebd b301 c73a e307 b6bd eabc 543e
00000060: 2fbc 20be a411 b7bd 29ce dcbd a988 40be
00000070: 3452 84bb 69ac 97be a532 6a3e 52a6 49be
00000080: 21f9 193e 4627 733c 2709 fbbd 58b1 0f3e
00000090: cb41 473c 7e20 3b3e b780 7a3b 2a77 bdbd
000000a0: 1609 edbc 1642 d1bd be0e f53d 1d9e 1d3e
000000b0: 5fd2 a63d 5ec7 03be d16b 133e c99e 083d
000000c0: 9e88 003e 57cc 3cbe 9200 95be b27a bebd
000000d0: d5bc 5bbe 4c59 8c3e e666 a93d 7017 ec3d
000000e0: 882b ab3d a50f e9bc 7aa3 553e 134b 40be
000000f0: 5045 cb3c cb2f 3abe 5177 be3d 007b f1bd
00000100: ebbf be3d 6cae 6cbd 7a8d 6b3e c954 28be
00000110: 8361 29be 2164 29be 9672 7f3e 7c4a bd3d
00000120: 89a4 883e 4262 6abe 82d9 8cbe 4732 5ebe
00000130: 4e0c 3fbe 6c11 e63d e7e1 e53a 6f30 c23d
00000140: 8055 aabd 5061 e3bd 6d6e d03e 2d22 233d
00000150: e920 933e fc4c 17bc 3e1c 6c3e bb27 24be
00000160: 4fa1 adbd 958e 023e 5637 c6bd e4d1 90bd
00000170: a049 293e fa11 413e 36f4 4dbe 3e9f 17be
00000180: e706 823e 82aa bfbd b25e c9bd ce66 89be
00000190: 5ea4 22be 48e4 8d3d 9cf2 15bd 0628 4ebe
000001a0: 99d8 bd3b be34 42be 3f3d 71be a130 1fbe
000001b0: 6b03 79be 2426 36be 1676 8c3e 34bc 213d
000001c0: 185f 933d 511d 8bbe 69de 47be a71e c1bd
000001d0: d824 2f3d 44e7 79be d2bd f4bd 9806 2abe
000001e0: 007c 493a 065c d3bd 9071 9dbc 8473 40be
000001f0: d1f0 42be 9eb0 25be ec6d c2bd 3129 60be
00000200: 8221 6e3e d875 61bd fb24 693e 952c 953d
00000210: 4a98 78be 6833 3c3e 495c a9bd 498c bfbd
00000220: fe21 67be 8f75 91be 522d 923d 0d66 8cbd
00000230: 25d2 cc3d a711 6ebe 6ccc 4a3e 2a83 54be
00000240: f3e0 5dbd 775e 673d 6066 123e b9a7 663e
00000250: 9097 833e 6c18 5bbe 2c89 8c3d daf2 f5bd
00000260: 0681 ffbc 2c64 55be 938e 823e da38 51be
00000270: bd8d 0d3e 9137 943e e4f5 2b3e a991 67be
00000280: b555 063f 78e1 8a3e bfd2 f53d 3384 3fbe
00000290: 3280 533e 5ef5 f23c e088 64bd 7fcc 5e3e
000002a0: 89fd 733c 55f6 a8bd 413b 98bd 0e1a 9abb
000002b0: 4691 2b3e eefa 98bd 92de 62be 6a01 33be
000002c0: dae5 46be 3a3b dd3d eef5 643e 9d1f 81be
000002d0: f549 433d 465b 183e 5043 99bd 91b5 12be
000002e0: cada 223e d77f 5a3e 5b45 933e 52f5 253e
000002f0: a5c7 4ebe c5dc 7f3c 5d92 abbd 41c6 bfbd
00000300: 2e49 2a3e 546d 0e3e 3a9b 70be edd9 28be
00000310: 14d2 e4bc d1d8 f9bc ca84 883e c911 35bd
00000320: 479c d6be 6028 ecbd da79 7a3e 48dd 993d
00000330: 3eee 13bd 1416 42be b9e3 10be 167c d5be
00000340: 6c7f b8bd 04d2 bf3d 692f 353e 9691 023e
00000350: 4218 7bbe b21c 2abe 9b59 2ebd 3a76 8e3e
00000360: 286a 4d3d cf03 7dbd 3c96 ff3d 522c d6bd
00000370: 69b5 37be f04a 4f3e 6523 01be 44bc 63bd
00000380: f443 8dbe c413 3e3e 542c 573e e402 cf3d
00000390: c907 46be 1026 8cbe 03aa 66be a2c8 533e
000003a0: 685a 083e 22fe 6e3e 4ec8 143e 78c2 8f3d
000003b0: 00ff 31bb 18fd 57be 3154 73be 92d2 84be
000003c0: dc85 e83d 2770 0bbe d0a0 64bd 7e72 23be
000003d0: bc02 4fbd c8e4 47be 0693 39be 846a bc3d
000003e0: b8cf a8bd 5854 2f3e 3a39 b6bd 7e56 50be
000003f0: 7070 48bd e2ab 09be 60c7 adbd bd2f 87be

mlp_extractor.policy_net.0.bias f4 [256]
0.27316323 -0.23655696 0.22759 -0.24543 -0.061512414 -0.113621086 -0.07416076 0.09860781
0.1590614 -0.18219176 -0.13708632 0.14073443 0.057532635 0.07610084 0.15928023 -0.11650614
-0.15330528 0.10209173 -0.10156424 -0.18461575 -0.08458627 -0.12895812 0.2761626 0.045427684
0.11168049 0.03725499 -0.19832583 0.18622746 -0.020045217 -0.0454739 0.24744466 -0.16378427
0.020299518 -0.22970428 0.14212054 0.103039466 -0.23045753 0.15479937 0.030690987 -0.14321387
0.16892096 0.1671786 0.099907175 -0.10301493 -0.16911286 -0.14923508 0.10103653 0.090681665
-0.15966111 0.2521086 0.15062353 -0.1058944 0.15901367 -0.11756824 0.089738645 0.23458534
-0.261993 -0.1491181 -0.01567462 0.046590175 -0.25829205 -0.14516868 -0.04062984 -0.037554808
0.059822917 0.031286836 0.05689615 0.018157208 0.02899151 -0.009704708 0.1009377 0.18335794
-0.13841164 -0.1295293 0.103292756 -0.20957242 0.21159276 0.1280235 0.038468085 -0.1407656
-0.04588893 -0.21928364 -0.23097405 0.2645823 -0.24721627 -0.24152246 -0.09850047 0.0029505768
0.06474236 -0.08855203 -0.061921325 -0.055739477 0.24164476 0.18962432 0.10349428 0.012992374
0.16372013 -0.17922696 0.11635789 -0.07564117 0.21697289 -0.18390195 0.10322651 -0.22801557
0.16187489 0.049414616 0.22189793 -0.20918226 0.18152165 -0.18447705 -0.12943575 0.11967773
-0.07831228 -0.21896267 -0.2501122 -0.07330567 0.07679215 0.24367549 0.20397899 0.013106726
-0.1660836 -0.24739297 0.29113582 -0.15641624 -0.0862727 -0.2238875 -0.17064835 0.066629745
-0.05657004 0.04602217 0.010145067 0.014130563 -0.055332396 -0.012111617 0.12055519 0.20260942
0.32437462 -0.22628102 -0.23869847 -0.06550786 -0.025012111 0.14175351 0.2525115 0.07122281
-0.20543015 -0.0020740086 0.19621852 0.10008363 -0.19614577 0.009696516 -0.29731256 -0.08298242
0.21986511 -0.08731349 0.24304101 -0.21943088 0.24292332 0.096712485 0.13942365 0.07987503
0.023002032 -0.13318267 -0.15303981 -0.1904617 0.17494223 -0.09360893 0.009138199 -0.24801809
0.09221617 -0.16955817 -0.23682156 0.03432566 -0.2554989 -0.027326077 -0.22649595 0.17512904
-0.19765931 -0.004675032 0.13732877 -0.27549928 0.1795465 0.24316975 -0.11360626 0.008359688
0.08410451 0.21159555 0.17788275 -0.25013772 -0.21879956 -0.23223667 -0.12422287 -0.053255606
-0.09951405 0.18086797 -0.21084705 -0.22410916 -0.22557418 -0.15284634 0.2659151 0.035024166
-0.037301153 -0.08562302 -0.22766346 -0.07227095 0.1461148 0.18744761 0.18694885 0.027185127
-0.1941316 -0.058993854 0.26954368 -0.25033614 0.06567971 -0.026186436 0.257511 0.14975151
-0.088909686 -0.2759354 0.048900194 -0.20738268 -0.026376484 0.06944302 0.107056 -0.07899415
-0.18722063 -0.22279334 -0.26259857 0.031990983 -0.16880615 0.04101326 -0.24563979 -0.20402019
0.19737111 0.19442758 0.19489221 0.24804975 -0.20397915 -0.15141277 -0.18093467 0.22856307
0.16154124 0.2248309 -0.18225294 -0.083064735 0.40251023 -0.2150068 -0.18471691 0.15652218
-0.27606726 -0.07316471 0.113560185 0.2286436 -0.031470865 -0.23293816 0.15934381 0.2765009
00000000: 0ddc 8b3e fd3b 72be 5a0d 693e 0052 7bbe
00000010: 71f4 7bbd 2cb2 e8bd 99e1 97bd e4f2 c93d
00000020: fee0 223e 7a90 3abe 5b60 0cbe b01c 103e
00000030: 57a7 6b3d c2da 9b3d 5b1a 233e c59a eebd
00000040: 0ffc 1cbe 7815 d13d ea00 d0bd e90b 3dbe
00000050: 913b adbd 990d 04be 2f65 8d3e 6112 3a3d
00000060: beb8 e43d b098 183d ed15 4bbe 69b2 3e3e
00000070: de35 a4bc d742 3abd 2262 7d3e 10b7 27be
00000080: 2d4b a63c 9937 6bbe 0c88 113e 5b06 d33d
00000090: 0ffd 6bbe ba83 1e3e aa6b fb3c a8a6 12be
000000a0: 9ef9 2c3e de30 2b3e 229c cc3d 7ef9 d2bd
000000b0: ec2b 2dbe 15d1 18be 3eec ce3d 4fb7 b93d
000000c0: 347e 23be 6114 813e 0e3d 1a3e 2adf d8bd
000000d0: 7bd4 223e 9ec7 f0bd e5c8 b73d 2437 703e
000000e0: f223 86be 6ab2 18be 1068 80bc 57d5 3e3d
000000f0: db3e 84be 19a7 14be 7a6b 26bd 12d3 19bd
00000100: e008 753d a026 003d f00b 693d 6dbe 943c
00000110: 9a7f ed3c 7f00 1fbc 6db8 ce3d 2fc2 3b3e
00000120: c8bb 0dbe 54a3 04be 278b d33d 279a 56be
00000130: c6ab 583e 9818 033e b690 1d3d dc24 10be
00000140: 08f6 3bbd e48b 60be 7684 6cbe 5577 873e
00000150: 4326 7dbe aa51 77be 9dba c9bd 775e 413b
00000160: a497 843d c45a b5bd 37a1 7dbd 144f 64bd
00000170: b971 773e e12c 423e cff4 d33d f7dd 543c
00000180: 40a6 273e 4687 37be 0c4d ee3d c2e9 9abd
00000190: 242e 5e3e cb50 3cbe 6c68 d33d ea7c 69be
000001a0: 88c2 253e fb66 4a3d 3639 633e e033 56be
000001b0: d0e0 393e 8de7 3cbe ce8a 04be 9919 f53d
000001c0: 3062 a0bd c037 60be b50e 80be 4821 96bd
000001d0: 3445 9d3d 1186 793e dedf 503e 98bd 563c
000001e0: d211 2abe 9554 7dbe c10f 953e 942b 20be
000001f0: beaf b0bd c442 65be 71be 2ebe 2d75 883d
00000200: fcb5 67bd be81 3c3d 7f37 263c e083 673c
00000210: 39a4 62bd ce6f 46bc a4e5 f63d d878 4f3e
00000220: 6e14 a63e 36b6 67be 5f6d 74be fc28 86bd
00000230: 33e6 ccbc d527 113e 3049 813e 44dd 913d
00000240: 485c 52be 17ec 07bb 82ed 483e a5f8 cc3d
00000250: 70da 48be 23de 1e3c 5a39 98be b0f2 a9bd
00000260: 5224 613e 6ad1 b2bd bedf 783e 7db2 60be
00000270: e4c0 783e 3211 c63d 13c5 0e3e 8595 a33d
00000280: c26e bc3c 0a61 08be 78b6 1cbe 6408 43be
00000290: 0e24 333e 0ab6 bfbd 62b8 153c 74f8 7dbe
000002a0: d5db bc3d a8a0 2dbe 5a81 72be 1099 0c3d
000002b0: c0d0 82be f0da dfbc 8eee 67be 0755 333e
000002c0: 3467 4abe 0331 99bb ea9f 0c3e 3e0e 8dbe
000002d0: 0adb 373e 7e01 793e 66aa e8bd 13f7 083c
000002e0: fc3e ac3d 81ac 583e e526 363e 0d12 80be
000002f0: fe0c 60be 73cf 6dbe 8f68 febd 8d22 5abd
00000300: 06ce cbbd 7435 393e 4ae8 57be df7c 65be
00000310: ebfc 66be c083 1cbe 0626 883e 8075 0f3d
00000320: 18c9 18bd 1f5b afbd 9c20 69be cb02 94bd
00000330: 1e9f 153e 44f2 3f3e 856f 3f3e 58b3 de3c
00000340: 6fca 46be 8aa3 71bd a101 8a3e 0f2c 80be
00000350: 1583 863d f084 d6bc 7bd8 833e 7658 193e
00000360: 4816 b6bd 6847 8dbe 924b 483d 205c 54be
00000370: 7f13 d8bc 2438 8e3d 2d40 db3d afc7 a1bd
00000380: c4b6 3fbe f023 64be 5273 86be fa08 033d
00000390: 85db 2cbe 85fd 273d ff88 7bbe abea 50be
000003a0: a71b 4a3e 0618 473e d391 473e c100 7e3e
000003b0: e9df 50be f30b 1bbe f046 39be 700c 6a3e
000003c0: 116b 253e 123a 663e 84a0 3abe d81d aabd
000003d0: d215 ce3e be2a 5cbe 6e26 3dbe 5a47 203e
000003e0: b058 8dbe 61d7 95bd 3e92 e83d 8c21 6a3e
000003f0: 98e7 00bd 5787 6ebe 062b 233e 8791 8d3e

mlp_extractor.policy_net.2.weight f4 [256, 256]
-0.045119077 -0.0046673142 -0.04615412 -0.03057835 0.01975307 0.027919618 0.025160825 -0.06014733
-0.016431218 0.02535752 -0.006800123 -0.020601107 -0.03962876 0.05774645 -0.043384664 -0.043361053
0.046824217 -0.039242335 0.036487997 -0.035732187 -0.008509337 -0.03147744 0.0503589 0.04201395
0.020231016 0.00021904244 -0.024866607 -0.034685705 -0.024920661 0.009078261 -0.0149709955 0.040502466
0.010714501 -0.010720178 -0.040118873 0.024013069 -0.059190482 0.015882136 0.023704963 0.010031069
0.043509137 0.008804668 0.04637815 -0.045014247 -0.05928499 0.030263094 0.032741215 -0.03588667
0.018922016 -0.024262102 0.051364124 -0.020263178 0.09404906 0.04548672 0.035848197 0.043992344
0.012571538 0.022335913 -0.054414123 -0.015548375 -0.009849163 0.025346428 -0.02278003 0.024849841
0.04115638 0.025719933 0.0334479 -0.007050863 0.031007873 -0.018164355 0.052898336 -0.0028787104
-0.004925305 -0.051243693 0.059012875 -0.010134388 0.042935327 -0.042167388 -0.05356865 -0.0053009046
-0.0482201 0.0132894125 0.016385024 -0.021723324 0.056081712 0.036428038 -0.053943116 -0.0513494
0.03722876 -0.036921952 0.013294414 -0.015470569 0.012100832 -0.03226601 -8.314088e-05 -0.020847032
-0.026579827 -0.02641784 0.012680757 0.10503405 -0.0026407838 -4.920292e-05 0.052846342 0.049101986
-0.010352662 -0.049551357 0.013387291 0.017381607 -0.050718017 -0.05734674 0.023994697 0.062307272
-0.064014375 -0.031660084 -0.022830289 -0.056478966 -0.037203327 0.05033747 0.049081765 -0.046377055
0.0025309452 -0.0521826 0.02454244 -0.042511046 -0.045875095 -0.03024899 0.0069918367 0.07346939
-0.024878792 0.006712111 0.050624914 -0.0025075027 0.000590547 0.0068521313 0.0004811485 0.036243565
0.032661766 -0.034752414 0.052857712 0.024469726 -0.013358939 0.05477442 0.004633052 0.040774234
-0.059731267 0.054743983 0.05588426 -0.047980312 -0.057219982 -0.019443506 -0.03736436 0.015434353
0.019830618 -0.021819385 0.04338863 0.003158578 -0.019649023 -0.051315174 0.017603941 -0.05759405
-0.0011708558 0.011149725 -0.03372345 0.020055817 0.005177967 0.043105956 0.03596836 -0.048449114
-0.037639704 -0.02569446 -0.043680206 0.018316558 -0.042228922 -0.04899674 0.019483427 0.036440328
-0.02815484 -0.0694169 0.0101127755 0.030673752 0.04754366 0.0041609774 0.04201799 -0.058449168
0.05851282 -0.04854951 -0.042852905 0.04807212 -0.012608705 0.03934649 -0.04477367 0.046114698
0.05799514 0.020204278 0.053113203 -0.050442096 -0.01675974 0.020302543 0.01467494 -0.032092847
0.041050415 -0.021849541 -0.031823963 0.011021255 -0.051061295 -0.05864197 0.019515619 0.026808517
0.025252596 -0.0016245773 -0.0444289 -0.048929 0.058526605 -0.055462696 0.017557507 0.049532276
0.04646899 -0.046678152 -0.018873852 -0.06913472 0.026906146 -0.059932016 -0.05571216 -0.040474948
0.052260727 0.039121337 0.043157406 0.046675894 -0.030428367 0.0032490315 -0.039605394 0.021657959
0.021601439 0.00412636 -0.04680289 0.0042783557 -0.03443976 -0.0112986015 -0.0037147002 0.0023180214
-0.04935882 0.052070357 -0.02531584 0.018322514 0.048515413 0.025058905 0.04504954 0.04030399
0.04741118 0.012295302 0.038639154 -0.028446684 -0.03239823 0.028566087 0.017678551 -0.0036232946
00000000: c8ce 38bd 45f0 98bb 1a0c 3dbd 737f fabc
00000010: 31d1 a13c afb7 e43c 131e ce3c 0c5d 76bd
00000020: c39a 86bc 93ba cf3c 91d3 debb a7c3 a8bc
00000030: c451 22bd 8b87 6c3d 1eb4 31bd 5c9b 31bd
00000040: c0ca 3f3d 92bc 20bd 7074 153d ea5b 12bd
00000050: bf6a 0bbc 7dee 00bd 2245 4e3d d216 2c3d
00000060: 84bb a53c c2ae 6539 0eb5 cbbc 9912 0ebd
00000070: 6a26 ccbc fdbc 143c e848 75bc eae5 253d
00000080: e08b 2f3c afa3 2fbc b053 24bd 0eb7 c43c
00000090: b871 72bd 411b 823c e930 c23c 5a59 243c
000000a0: a336 323d 7441 103c 04f7 3d3d dc60 38bd
000000b0: d1d4 72bd 4fea f73c a71b 063d e7fd 12bd
000000c0: 5802 9b3c 51c1 c6bc 3063 523d f7fe a5bc
000000d0: cb9c c03d 4850 3a3d 8fd5 123d 5131 343d
000000e0: daf8 4d3c cef9 b63c 58e1 5ebd 9dbe 7ebc
000000f0: 625e 21bc 50a3 cf3c 2f9d babc e591 cb3c
00000100: 9893 283d 9cb2 d23c aa00 093d ed0a e7bb
00000110: 3904 fe3c 6acd 94bc edab 583d bfa8 3cbb
00000120: 7464 a1bb e8e4 51bd 7cb7 713d b40a 26bc
00000130: f4dc 2f3d b6b7 2cbd cd6a 5bbd 36b3 adbb
00000140: 7182 45bd d6bb 593c e339 863c 1df5 b1bc
00000150: f0b5 653d 9135 153d 75f3 5cbd c053 52bd
00000160: 2f7d 183d 793b 17bd d0d0 593c 4578 7dbc
00000170: 9142 463c 5d29 04bd ec5b aeb8 65c7 aabc
00000180: f0bd d9bc 3a6a d8bc f3c2 4f3c 181c d73d
00000190: 0011 2dbb 3c5f 4eb8 6875 583d 2a1f 493d
000001a0: 369e 29bc 5df6 4abd 5e56 5b3c df63 8e3c
000001b0: b2bd 4fbd 6ae4 6abd 8790 c43c e935 7f3d
000001c0: f819 83bd 01ae 01bd 9606 bbbc 7d56 67bd
000001d0: 8462 18bd aa2e 4e3d f609 493d def5 3dbd
000001e0: 37de 253b 6cbd 55bd 3a0d c93c 1020 2ebd
000001f0: 86e7 3bbd bbcc f7bc c71b e53b 1f77 963d
00000200: 9cce cbbc 45f1 db3b 125c 4f3d ea54 24bb
00000210: f0ce 1a3a d887 e03b a942 fc39 2274 143d
00000220: 58c8 053d 8c58 0ebd 5481 583d bc74 c83c
00000230: 74df 5abc 245b 603d dbd0 973b e202 273d
00000240: c6a8 74bd 3a3b 603d e5e6 643d 0187 44bd
00000250: 805f 6abd fd47 9fbc 5f0b 19bd 5ee0 7c3c
00000260: d273 a23c 91be b2bc 47b8 313d 2500 4f3b
00000270: fdf6 a0bc dc2f 52bd 2436 903c bde7 6bbd
00000280: 6777 99ba 56ad 363c 9a21 0abd 194c a43c
00000290: efab a93b df8f 303d 8f53 133d 9472 46bd
000002a0: 172c 1abd 307d d2bc 04ea 32bd 9b0c 963c
000002b0: 3cf8 2cbd ceb0 48bd b59b 9f3c 7442 153d
000002c0: fba4 e6bc 732a 8ebd 0eb0 253c 8547 fb3c
000002d0: 24bd 423d cf58 883b 0e1b 2c3d 6568 6fbd
000002e0: 24ab 6f3d dadb 46bd 8786 2fbd 45e7 443d
000002f0: be94 4ebc c929 213d 9964 37bd c4e2 3c3d
00000300: 508c 6d3d 7183 a53c 3b8d 593d 5f9c 4ebd
00000310: b94b 89bc 8551 a63c 296f 703c ca73 03bd
00000320: 7b24 283d cffd b2bc d859 02bd 7e92 343c
00000330: a625 51bd 9032 70bd 38df 9f3c 899d db3c
00000340: 88de ce3c c5ef d4ba 14fb 35bd c669 48bd
00000350: 98b9 6f3d da2c 63bd c3d4 8f3c 5be2 4a3d
00000360: 4556 3e3d 9731 3fbd 569d 9abc 8196 8dbd
00000370: 476a dc3c 467b 75bd 6f32 64bd 0fc9 25bd
00000380: 580f 563d b23d 203d d2c5 303d 392f 3f3d
00000390: e944 f9bc b4ed 543b 4439 22bd 086c b13c
000003a0: 80f5 b03c 6b36 873b 63b4 3fbd 7331 8c3b
000003b0: b510 0dbd c51d 39bc 5472 73bb f2e9 173b
000003c0: 792c 4abd ba47 553d 2a63 cfbc 1919 963c
000003d0: 19b8 463d 5548 cd3c de85 383d cc15 253d
000003e0: 3a32 423d 3c72 493c 1744 1e3d 0509 e9bc
000003f0: 02b4 04bd 6d03 ea3c 9cd2 903c cc74 6dbb

mlp_extractor.policy_net.2.bias f4 [256]
-0.04069653 -0.0025509575 -0.0029119924 -0.050921485 -0.054251395 -0.038455978 -0.05426749 -0.05144298
0.034064304 -0.034429487 0.060018778 -0.04945493 -0.016965957 -0.0128788985 0.047828425 0.028552352
0.0055854484 -0.0359615 0.030255811 -0.04803133 0.010412011 0.0403668 0.017207593 0.031868793
-0.01687391 0.0518322 0.0004030865 0.029358972 0.004725779 0.0033933942 -0.044648726 0.03882035
-0.06508586 -0.02494088 0.010025667 0.024201103 -0.03185428 -0.021764494 -0.026944304 -0.06124675
-0.054806594 0.018591585 0.0020573246 -0.019803211 0.025307063 0.021527981 -0.054223817 -0.009457908
0.0057992185 -0.012221735 0.045401115 -0.037182167 0.026954183 0.036017135 -0.047783475 -0.053770814
0.033627078 -0.031064842 0.04568713 0.0027225304 -0.0066341935 0.05280015 -0.012889459 0.00018194511
-0.03876443 -0.0027705757 0.052697793 0.054427743 -0.025763642 -0.025900275 0.05427674 0.054431926
-0.011741038 -0.014828467 -0.041813046 -0.05142784 -0.0005736117 -0.046476454 0.023671977 0.04831113
-0.028546782 -0.03544405 -0.057906535 0.0009654376 -0.028552117 0.06323575 0.029539652 0.050329685
0.04941364 0.004755553 -0.032222103 -0.014666085 -0.050664015 -0.039403155 -0.053457182 0.025770206
-0.045881834 -0.0016469732 0.04560846 -0.015392182 0.046768278 0.011838108 -0.014764109 0.016263757
0.05650902 0.025933607 -0.053087767 -0.013906059 -0.017234245 -0.02703219 -0.0061201206 -0.054454416
0.04683498 -0.04486333 0.03153064 0.017109446 0.013824386 -0.046943225 -0.043640595 -0.0503006
0.0284997 0.041697998 0.0139244255 0.024506494 0.02754685 0.026383834 -0.031098096 0.013941846
-0.015522404 0.027461078 0.050545525 0.019006189 -0.013774741 0.04506648 0.04558415 -0.010046801
0.049590196 -0.04342957 0.033385765 0.002792883 -0.0035485988 -0.016484704 0.06479733 -0.010412914
-0.044876266 -0.031383153 -0.027779486 0.03789866 0.05434944 0.015514977 -0.008703906 -0.006745944
-0.0016662668 -0.059902143 -0.021980586 0.049690135 0.00051956304 -0.05038118 -0.055061292 0.0024389608
-0.027900936 -0.024958206 -0.014543271 0.04912892 0.03980819 -0.026157338 0.045332387 0.049192436
0.020198803 0.024266267 -0.028333968 0.044156436 -0.053996447 -0.051990047 -0.048433952 -0.038127914
0.0032959848 -0.017894592 -0.038799275 0.04298482 0.019385552 0.025884505 -0.0021079604 0.0091900835
0.03838703 -0.021159284 -0.009393061 -0.020763718 -0.037193716 0.0052756174 0.026649984 -0.021441158
0.025191462 0.03065436 -0.019177549 -0.04765431 0.04425414 0.042439397 -0.030277513 -0.0027672264
0.00524037 -0.040116407 -0.022813817 -0.03073682 0.063989416 0.049980752 -0.007959402 0.024338575
-0.013411178 0.033555876 0.032783717 -0.0023660122 0.046066906 -0.03832346 0.014013758 -0.04450153
-0.05043669 0.024005173 0.032296114 0.04408992 -0.037318133 0.00605358 -0.026617631 0.034623567
0.04337631 0.025991848 -0.029343028 0.05908867 0.019326128 0.015306086 0.0035218867 0.0019548577
0.055453073 0.03659438 0.03340947 -0.0107551515 0.062362254 0.05536743 -0.016111283 -0.022101827
-0.047850028 0.050298315 -0.016179023 -0.0018410751 -0.021978388 0.04794755 -0.0048053507 -0.04345083
-0.016801577 0.01436933 -0.02508869 0.026478656 -0.05401184 0.013953951 -0.039885562 0.011918887
00000000: 68b1 26bd f72d 27bb 20d7 3ebb 0c93 50bd
00000010: b636 5ebd 0484 1dbd 9647 5ebd e0b5 52bd
00000020: 0387 0b3d ef05 0dbd 40d6 753d 4191 4abd
00000030: 31fc 8abc 0402 53bc bde7 433d 9fe6 e93c
00000040: 2306 b73b 5e4c 13bd 09db f73c 80bc 44bd
00000050: 2497 2a3c a857 253d f0f6 8c3c da88 023d
00000060: 273b 8abc 004e 543d 5b55 d339 3a82 f03c
00000070: b5da 9a3b b563 5e3b 95e1 36bd 1602 1f3d
00000080: bc4b 85bd d150 ccbc b242 243c 6441 c63c
00000090: a279 02bd 744b b2bc 4dba dcbc dfdd 7abd
000000a0: e17c 60bd 614d 983c 2ed4 063b 583a a2bc
000000b0: c250 cf3c 735b b03c cb19 5ebd 57f5 1abc
000000c0: 5f07 be3b ac3d 48bc 85f6 393d 544c 18bd
000000d0: 05cf dc3c b486 133d 9bb8 43bd c93e 5cbd
000000e0: 8cbc 093d b27b febc 6e22 3b3d 7b6c 323b
000000f0: a663 d9bb f844 583d 4f2e 53bc 85c8 3e39
00000100: 73c7 1ebd 8c92 35bb a4d9 573d a0ef 5e3d
00000110: 460e d3bc d02c d4bc 4951 5e3d 03f4 5e3d
00000120: 7c5d 40bc 19f3 72bc 2844 2bbd 00a6 52bd
00000130: 6e5e 16ba 185e 3ebd bceb c13c e4e1 453d
00000140: f1da e9bc c82d 11bd 672f 6dbd 6c15 7d3a
00000150: 21e6 e9bc bf81 813d 24fd f13c 8026 4e3d
00000160: f565 4a3d 78d4 9b3b 53fb 03bd 054a 70bc
00000170: 1285 4fbd 3465 21bd ebf5 5abd 0a1c d33c
00000180: 97ee 3bbd 40df d7ba f0cf 3a3d 7e2f 7cbc
00000190: 1890 3f3d a0f4 413c 29e5 71bc 923b 853c
000001a0: 0176 673d b772 d43c 8f72 59bd 3dd6 63bc
000001b0: d52e 8dbc 9c72 ddbc 4b8b c8bb 980b 5fbd
000001c0: 09d6 3f3d 9cc2 37bd 4626 013d 1c29 8c3c
000001d0: ad7f 623c 8a47 40bd 7bc0 32bd 0008 4ebd
000001e0: 3478 e93c 85cb 2a3d 4623 643c d8c1 c83c
000001f0: eea9 e13c e922 d83c 6fc1 febc 576c 643c
00000200: ae51 7ebc 0ef6 e03c d308 4f3d deb2 9b3c
00000210: 74af 61bc a197 383d 72b6 3a3d 569b 24bc
00000220: 171f 4b3d 34e3 31bd 83bf 083d cd08 373b
00000230: 9c8f 68bb ee0a 87bc 76b4 843d ed9a 2abc
00000240: 2dd0 37bd 9f8b 00bd ce91 e3bc a03b 1b3d
00000250: 859d 5e3d 8832 7e3c d49a 0ebc 140d ddbb
00000260: a366 daba f35b 75bd a110 b4bc e287 4b3d
00000270: 4933 083a 7f5c 4ebd f387 61bd f9d6 1f3b
00000280: 8190 e4bc 2775 ccbc e646 6ebc 683b 493d
00000290: ea0d 233d ea47 d6bc 74ae 393d 027e 493d
000002a0: f677 a53c 0dca c63c a31c e8bc 61dd 343d
000002b0: 612b 5dbd 84f3 54bd ae62 46bd 042c 1cbd
000002c0: 7301 583b ae97 92bc fdeb 1ebd da10 303d
000002d0: 73ce 9e3c be0b d43c b525 0abb 0192 163c
000002e0: b83b 1d3d 3c56 adbc 5ae5 19bc ac18 aabc
000002f0: 7058 18bd 16df ac3b 1151 da3c 5ea5 afbc
00000300: 535e ce3c da1e fb3c 3c1a 9dbc 2a31 43bd
00000310: d443 353d efd4 2d3d 8c08 f8bc 5b5a 35bb
00000320: 69b7 ab3b 1a51 24bd 0be4 babc c9cb fbbc
00000330: e20c 833d 9eb8 4c3d 2768 02bc b161 c73c
00000340: 8fba 5bbc e371 093d 3848 063d 190f 1bbb
00000350: a7b0 3c3d 0ff9 1cbd f699 653c 3c47 36bd
00000360: b496 4ebd 7fa6 c43c ee48 043d a297 343d
00000370: e6da 18bd 1c5d c63b 380d dabc 71d1 0d3d
00000380: 5cab 313d dbec d43c ca60 f0bc f606 723d
00000390: d451 9e3c 61c6 7a3c 74cf 663b 121d 003b
000003a0: c322 633d fde3 153d 5ed8 083d 6036 30bc
000003b0: 906f 7f3d f5c8 623d cffb 83bc e40e b5bc
000003c0: 64fe 43bd 9b05 4e3d df89 84bc 3b50 f1ba
000003d0: 050c b4bc a664 443d 3476 9dbb 7ff9 31bd
000003e0: 76a3 89bc 576d 6b3c cc86 cdbc c4e9 d83c
000003f0: 853b 5dbd 1d9f 643c 0b5f 23bd 6f47 433c

action_net.weight f4 [7, 256]
-0.00017407221 0.042563748 -0.06382921 -0.022349136 -0.031099359 -0.06336188 0.04577877 -0.020861818
-0.007256171 -0.008643917 0.0462164 -0.053420566 0.03925061 -0.052939687 -0.003179955 -0.054958574
0.010790385 0.017249394 -0.022006854 -0.05250083 0.055896364 -0.0069070193 0.027026854 0.035759248
0.015518066 0.03922423 0.053408522 0.054628674 0.0496311 0.02699196 -0.043845896 0.014691997
0.040246174 0.02134166 -0.035239983 -0.017417356 0.057716582 -0.028251769 -0.058991123 0.026627533
-0.02069593 -0.035385035 -0.010114829 -0.009859211 0.016234493 0.044058632 0.028471405 0.05279018
0.0030016687 -0.0461444 0.025657078 0.014826119 -0.008128047 0.022017796 -0.003209273 -0.027744185
0.030053362 -0.038151108 0.023501568 -0.04499759 0.040179037 -0.05506765 -0.035700597 0.010641046
-0.040874217 0.03976626 -0.035250828 -0.02397122 -0.008875797 -0.055072784 -0.011794272 0.046065
0.0393163 -0.008392963 0.04575807 -0.013233642 0.0055866605 0.022021577 -0.051729318 -0.06884339
0.035481364 0.047971655 -0.03439111 0.035746425 0.050782356 -0.046910908 0.02661502 0.016322324
0.037468497 -0.018247949 0.034092262 -0.007992115 -0.031494614 -0.03846023 0.018728314 -0.013938032
0.043387946 0.014737566 -0.04947604 -0.03768235 -0.039198115 0.066692464 0.0038986364 -0.014173612
-0.04721915 0.04697187 -0.011801958 -0.016554864 -0.043860476 0.040831234 -0.008262858 0.012058359
0.007110261 0.010646804 -0.05782822 0.05769779 -0.040935177 0.034111287 -0.029188361 0.015834616
0.014493981 0.007947059 0.020462414 0.006367474 -0.023606058 0.015186452 -0.04939767 0.021478757
-0.017484244 0.04604333 -0.065756984 0.033811394 -0.02461863 -0.032422755 -0.038325734 -0.05468178
0.02162209 0.0044810786 0.036586937 -0.010391874 -0.019914817 -0.046071794 0.013712918 -0.012796631
-0.024675297 0.018395904 -0.055142447 0.05786805 -0.031560905 0.043154705 -0.041092124 -0.053261217
5.2688356e-06 -0.003021693 0.013759169 0.03122301 0.07360036 0.015224063 -0.015185841 0.00803036
-0.06137166 0.01875024 0.007850759 -0.05782618 0.036709912 -0.011729784 -0.0063486206 0.0018720983
-0.0040749363 0.022824453 0.051619932 -0.009283605 0.0035401525 -0.03594711 0.051021274 0.018358812
0.015623038 0.0743299 0.007645961 0.0054037645 -0.01962614 -0.053993862 0.022183707 0.013797982
-0.02683693 0.026834335 -0.010131374 0.024157524 0.0074625663 0.016760362 -0.033444826 -0.012282061
-0.031207908 0.03971877 -0.021703867 0.053220138 0.02390674 -0.04155313 -0.03470291 0.041309208
0.009772272 0.0076720105 0.009928066 0.027192572 -0.017018538 0.018088993 0.039752997 0.03065353
-0.03796165 0.021997629 0.01820565 -0.036286447 0.047088657 -0.06062365 0.048134364 -0.014842671
0.03487859 0.05217535 0.045836706 -0.022394035 -0.0368902 0.015386176 -0.017371066 -0.059137728
-0.011358296 -0.04848957 -0.022135694 0.06839765 0.05408072 0.048800312 0.0006698728 -0.04351819
-0.007842374 0.034223083 0.030052986 0.031053396 0.0075395033 0.01998274 -0.06372335 -0.016954128
0.015059403 0.024270283 0.009981843 -0.01684682 0.050170198 0.018600764 0.008686586 0.061506454
-0.0072888853 0.048956223 0.012865547 -0.05219588 0.03865275 0.07206401 0.01201128 0.06729448
00000000: 2787 36b9 5357 2e3d e4b8 82bd 8915 b7bc
00000010: 15c4 febc e0c3 81bd 8582 3b3d 67e6 aabc
00000020: 2dc5 edbb 379f 0dbc 684d 3d3d 86cf 5abd
00000030: 3fc5 203d 49d7 58bd cb66 50bb 3e1c 61bd
00000040: 28ca 303c 9a4e 8d3c b847 b4bc 1c0b 57bd
00000050: 96f3 643d 4754 e2bb 6c67 dd3c 4a78 123d
00000060: 7c3f 7e3c 96a9 203d e5c2 5a3d 51c2 5f3d
00000070: fb49 4b3d 3e1e dd3c c197 33bd b4b6 703c
00000080: 2cd9 243d b4d4 ae3c cd57 10bd d8ae 8ebc
00000090: 3968 6c3d 4170 e7bc ada0 71bd fc21 da3c
000000a0: 838a a9bc e6ef 10bd abb8 25bc 8788 21bc
000000b0: 33fe 843c d376 343d dd3c e93c 843a 583d
000000c0: a5b7 443b e901 3dbd cb2e d23c 40e9 723c
000000d0: 802b 05bc aa5e b43c ab52 52bb c647 e3bc
000000e0: 7832 f63c 5644 1cbd 5c86 c03c 654f 38bd
000000f0: c692 243d 9e8e 61bd ca3a 12bd c857 2e3c
00000100: b96b 27bd f2e1 223d 2c63 10bd 4b5f c4bc
00000110: ca6b 11bc 0094 61bd c33c 41bc a7ae 3c3d
00000120: 210a 213d a382 09bc d06c 3b3d ebd1 58bc
00000130: 4e10 b73b 9866 b43c 1fe2 53bd c3fd 8cbd
00000140: e854 113d ed7d 443d b1dd 0cbd d86a 123d
00000150: 2901 503d a725 40bd be07 da3c 65b6 853c
00000160: 9178 193d b97c 95bc 54a4 0b3d 5cf1 02bc
00000170: 7f00 01bd 7988 1dbd 1f6c 993c 585c 64bc
00000180: 8fb7 313d d575 713c 63a7 4abd cf58 1abd
00000190: 348e 20bd 0f96 883d 4480 7f3b 7038 68bc
000001a0: de68 41bd 9365 403d 005d 41bc 119e 87bc
000001b0: 0ba7 33bd a73e 273d f060 07bc 6c90 453c
000001c0: 31fd e83b ef6f 2e3c 49dd 6cbd 8554 6c3d
000001d0: a5ab 27bd 47b8 0b3d 6e1c efbc 99b7 813c
000001e0: 2a78 6d3c 6234 023c cba0 a73c 3ea6 d03b
000001f0: 7e61 c1bc 99d0 783c 3655 4abd 38f4 af3c
00000200: 1e3b 8fbc ee97 3c3d 99ab 86bd d17d 0a3d
00000210: 02ad c9bc b9cd 04bd 72fb 1cbd 01fa 5fbd
00000220: cf20 b13c 03d6 923b 2fdc 153d ae42 2abc
00000230: 6624 a3bc c7b5 3cbd 26ac 603c f6a8 51bc
00000240: d923 cabc 02b3 963c 0cdd 61bd 0c07 6d3d
00000250: 0246 01bd fdc2 303d 3750 28bd 6f28 5abd
00000260: f4ca b036 9907 46bb 236e 613c 66c7 ff3c
00000270: c9bb 963d 596e 793c 09ce 78bc c591 033c
00000280: da60 7bbd 1a9a 993c 78a0 003c 25db 6cbd
00000290: 225d 163d 482e 40bc 1708 d0bb 3261 f53a
000002a0: 0b87 85bb 59fa ba3c 6c6f 533d 431a 18bc
000002b0: e701 683b 473d 13bd affb 503d 3865 963c
000002c0: c5f7 7f3c 463a 983d f88a fa3b 1012 b13b
000002d0: 00c7 a0bc ab28 5dbd 9bba b53c ee10 623c
000002e0: 1fd9 dbbc aed3 db3c 10fe 25bc 00e6 c53c
000002f0: 8b88 f43b 074d 893c 71fd 08bd b33a 49bc
00000300: baa7 ffbc 26b0 223d 4fcc b1bc 5cfd 593d
00000310: 11d8 c33c 9d33 2abd a324 0ebd d833 293d
00000320: e11b 203c 7d65 fb3b 54a9 223c f5c2 de3c
00000330: 766a 8bbc 5e2f 943c 0ad4 223d 1d1d fb3c
00000340: ad7d 1bbd 5f34 b43c 0424 953c 19a1 14bd
00000350: 09e0 403d 8150 78bd 8a28 453d ad2e 73bc
00000360: dadc 0e3d d2b5 553d 45bf 3b3d b273 b7bc
00000370: 2e1a 17bd 4d16 7c3c c44d 8ebc 673a 72bd
00000380: 2518 3abc 009d 46bd ea55 b5bc 1114 8c3d
00000390: bf83 5d3d d6e2 473d 679a 2f3a 2140 32bd
000003a0: 4d7d 00bc 812d 0c3d ae31 f63c b163 fe3c
000003b0: f00d f73b d8b2 a33c 6381 82bd 62e3 8abc
000003c0: b7bb 763c 79d2 c63c e28a 233c 5802 8abc
000003d0: 447f 4d3d a160 983c 2f52 0e3c 31ee 7b3d
000003e0: 9ad7 eebb 5286 483d 04ca 523c 59cb 55bd
000003f0: 5952 1e3d 4c96 933d f6ca 443c b0d1 893d

action_net.bias f4 [7]
0.021892846 -0.02447796 -0.05884155 -0.022694498 -0.015721014 0.049410664 0.01887161
00000000: a058 b33c 0186 c8bc d603 71bd d0e9 b9bc
00000010: 5bc9 80bc d662 4a3d a298 9a3c
